checkpoint_actor.pth (torch_old, 56449 bytes, 14 tensors)

fc1.weight f4 [128, 33]
0	0xbd98e688	-0.07465845
1	0xbd5705ff	-0.052495953
2	0xbaf60290	-0.0018769074
3	0xbc94b26f	-0.01815149
4	0xbd74d50e	-0.059773497
5	0x3ce1ee88	0.02757956
6	0xbd7e2e27	-0.062055733
7	0x3d71346e	0.05888789
8	0xbc81705c	-0.015800647
9	0xbdaba423	-0.08380916
10	0xbcdf83b1	-0.027284475
11	0x3d847eda	0.064695075
12	0x3d297cbd	0.041378725
13	0x3d18bf67	0.03729191
14	0xbd67abdb	-0.05656038
15	0xbc83509a	-0.016029645
16	0x3c6c76d9	0.014432632
17	0xbcebe320	-0.028794825
18	0xbc22d567	-0.009938574
19	0x3d046317	0.032321062
20	0x3d88cd90	0.06679833
21	0xbd275e8b	-0.040861648
22	0xbd754997	-0.059884634
23	0xbcae49b3	-0.021275377
24	0xbd98da60	-0.07463527
25	0xbb8b34f0	-0.004248254
26	0xbd73355f	-0.05937707
27	0x3dad7b06	0.084707305
28	0x3d8c243c	0.06842849
29	0xbdb2b9e4	-0.08726862
30	0x3c4c8a02	0.0124840755
31	0xbd88c1ca	-0.06677587
32	0xbd8d2483	-0.0689173
33	0x3d632e19	0.055463884
34	0x3c9393b0	0.018014759
35	0xbda5d05a	-0.080963805
36	0x3be1c715	0.0068901875
37	0xbd150f44	-0.03639151
38	0x3d8669ec	0.06563172
39	0x3d9ee113	0.07757773
40	0xbd3a87c2	-0.045539625
41	0xbc6cc32b	-0.014450829
42	0xbd8866a1	-0.066602
43	0x3d32f170	0.043687284
44	0x3d87ee2d	0.06637225
45	0xbdc86232	-0.09784354
46	0xbdb55dd1	-0.08855785
47	0x3c423e5e	0.01185569
48	0x3d7eb1f6	0.062181436
49	0xbd26990b	-0.040673297
50	0x3c57c293	0.013168949
51	0x3d859c32	0.065239325
52	0xbc270844	-0.010194842
53	0x3d2255a6	0.039632462
54	0x3d02c868	0.031929404
55	0xbd80f16f	-0.0629605
56	0x3d45175a	0.048117973
57	0x3b30f502	0.0027001505
58	0xbcbce337	-0.023057563
59	0xbd784e79	-0.060621712
60	0x3da2b4f7	0.079446726
61	0xbd5c0826	-0.05371871
62	0xbd29d8fd	-0.0414667
63	0xbd076c82	-0.033062465
64	0x3d712902	0.058877
65	0x3bd87efe	0.0066069355
66	0xbd9afe4a	-0.07568033
67	0x3c9acb1d	0.01889568
68	0x3cb7f581	0.022455933
69	0xbd932b7a	-0.07186027
70	0xbcc6d25a	-0.024270225
71	0xbbb5b301	-0.0055450206
72	0x3d640c72	0.05567593
73	0x3d24e865	0.04026069
74	0xbc899b7a	-0.01679777
75	0xbcca5a6b	-0.024701318
76	0xbc5ecbbd	-0.01359838
77	0x3c5fa7ae	0.013650818
78	0xbd86de85	-0.06585411
79	0x3cd81444	0.02637685
80	0xbd4db4ed	-0.050221372
81	0xbcdb9fca	-0.026809592
82	0x3d96395e	0.07335161
83	0x3ca3978a	0.01996972
84	0x3da06856	0.078324005
85	0x3d300822	0.042976506
86	0xbc98f4a8	-0.018671349
87	0xbd585530	-0.052815616
88	0xbd0b3ba6	-0.033992432
89	0x3d8f0c20	0.069847345
90	0xbbf46179	-0.0074579087
91	0x3c6925d7	0.014230213
92	0xbd1dc268	-0.03851548
93	0x3d999ea7	0.07500964
94	0xbc8c3147	-0.017113341
95	0xba07de00	-0.0005182922
96	0x3cbc653c	0.022997491
97	0x3db216d7	0.086957626
98	0xbd8653ee	-0.06558977
99	0x3d498ee3	0.049208533
100	0xbcf27c5c	-0.029600315
101	0xbd9b3da4	-0.075801164
102	0x3cc89c52	0.024488602
103	0xbd44ac66	-0.048015974
104	0x3b5f0acc	0.0034033535
105	0xbdc64d8e	-0.09682761
106	0xbc158f6b	-0.009128432
107	0xbd3ed158	-0.046586365
108	0x3cda192f	0.026623337
109	0x3d36ca81	0.044626717
110	0x3caf64c1	0.021410348
111	0x3d19f362	0.037585624
112	0xbd34953c	-0.044087633
113	0xbd87b8d5	-0.06627051
114	0x3c4140b0	0.011795208
115	0x3d861b5c	0.06548187
116	0x39c736a2	0.00037996942
117	0xbd99f692	-0.07517733
118	0x3d045abd	0.032313097
119	0x3d2b876b	0.04187719
120	0x3d967ef0	0.0734843
121	0xbd158e19	-0.036512468
122	0x3d6fe919	0.05857191
123	0xbd635e84	-0.05551006
124	0x3cec57c9	0.028850453
125	0x3c898c84	0.016790636
126	0x3cf58fa1	0.029975714
127	0x3c3566fe	0.0110719185
128	0xbda88bdf	-0.08229803
129	0xbbec1295	-0.0072043636
130	0xbdafb4b4	-0.08579388
131	0x3cc1d11b	0.02365928
132	0x3d7c4e16	0.061597906
133	0xbcdebcfa	-0.02718972
134	0xbd014125	-0.031556267
135	0x3cad900a	0.021186847
136	0x3d95e4eb	0.07319053
137	0x3c839e78	0.016066775
138	0xbb6c2a9a	-0.0036036135
139	0x3ca5f0cd	0.020256424
140	0x3d7513b9	0.059833262
141	0xbcd3e4a4	-0.02586586
142	0xbdcb9d56	-0.09942119
143	0x38a8fc9b	8.057916e-05
144	0xbd7f5e07	-0.06234553
145	0x3d579685	0.05263378
146	0x3d1779c4	0.03698136
147	0x3db32305	0.08746914
148	0xbbd50d6a	-0.006501843
149	0xbd813d7a	-0.06310554
150	0x3d87b5f0	0.06626499
151	0xbd626879	-0.055275414
152	0x3d47eb0d	0.048808146
153	0x3d150b56	0.036387764
154	0x3cc6dc10	0.024274856
155	0xbd9b5c0b	-0.07585915
156	0xbd8653c8	-0.06558949
157	0xbcfd5164	-0.0309226
158	0xbd5cf475	-0.05394407
159	0xbd9f62bc	-0.07782504
160	0xbc90fe5a	-0.01769941
161	0x3dacf907	0.08445936
162	0x3d8bbcbd	0.06823108
163	0x3da1ca8f	0.07899963
164	0x3c1c3f36	0.009536555
165	0xbd309f12	-0.04312045
166	0x3d90b569	0.07065851
167	0x3d598a70	0.05311054
168	0xbd084a3c	-0.03327392
169	0x3b05edca	0.0020435923
170	0x3ca83c16	0.020536464
171	0x3d116988	0.035501033
172	0xbab1e137	-0.0013571148
173	0xbdb19ba2	-0.08672263
174	0xbd63d472	-0.055622526
175	0xbd5d2cc8	-0.053997785
176	0x3d7f00b3	0.062256526
177	0x3d8f7d87	0.07006364
178	0x3d077592	0.03307111
179	0xbd70beab	-0.058775585
180	0xbd59fb64	-0.05321826
181	0xbc6aff83	-0.014343145
182	0x3d71a94d	0.05899935
183	0x3dc56eae	0.09640251
184	0x3d3de7cb	0.046363633
185	0xbcd75a80	-0.026288271
186	0x3d042975	0.0322661
187	0xbd11b074	-0.03556867
188	0x3c3d5c14	0.011557598
189	0x3c4cfbff	0.012511252
190	0xbd5fa13c	-0.054597124
191	0x3be09fd6	0.0068549914
192	0x3c0ce7e7	0.008600212
193	0xbc45a334	-0.012062836
194	0xbdb1bff2	-0.08679189
195	0xbd890c73	-0.066918276
196	0x3d9e014b	0.0771509
197	0xbd8e82b8	-0.069585264
198	0xbd1ade8c	-0.037809893
199	0xbd1f9d34	-0.03896828
200	0x3d56882e	0.052375965
201	0xbc4e0c11	-0.012576119
202	0xbd9a9bbd	-0.07549236
203	0x3d8d1eab	0.06890615
204	0x3da0286f	0.07820212
205	0x3ccd7a70	0.025082797
206	0xbd9c4144	-0.07629636
207	0x3d68958b	0.05678324
208	0x3d21e0d8	0.03952107
209	0x3c68e8e9	0.014215686
210	0xbc3711de	-0.011173693
211	0x3c8c4e71	0.017127248
212	0xbd89d437	-0.0672993
213	0x3d83a928	0.06428748
214	0x3ba46423	0.00501682
215	0xbda9c710	-0.08289921
216	0x3d983931	0.074327834
217	0xbd0112da	-0.03151212
218	0x3c1e7bbc	0.009673055
219	0x3d26cf1f	0.04072487
220	0x3cca98f2	0.024731133
221	0x3d910d4b	0.070826136
222	0xbda42aad	-0.08015952
223	0x3cbb0c4b	0.02283301
224	0x3c180829	0.009279289
225	0xbc02d6f5	-0.00798582
226	0xbd4a7e0d	-0.049436618
227	0xbd6c7018	-0.05772409
228	0x3d10b120	0.03532517
229	0x3bd53840	0.0065069497
230	0x39e82fbe	0.0004428606
231	0x3d3015d2	0.04298956
232	0x3bb53871	0.00553041
233	0xbc37aa81	-0.011210085
234	0x3d6f04ec	0.058354303
235	0x3b3a6e82	0.0028447215
236	0x3da0db77	0.078543596
237	0xbd8ac719	-0.06776256
238	0x3cbd1ce0	0.023085058
239	0x3c943772	0.018092845
240	0x3aa1ae6b	0.0012335306
241	0xbcb3ca6f	-0.021947114
242	0xbce7e05e	-0.028305229
243	0x3ca0b952	0.019619618
244	0x3b5b7c59	0.0033490865
245	0xbd9ee6f4	-0.077588946
246	0xbdb852d7	-0.090001754
247	0xbd25fce2	-0.04052437
248	0xbda57cbf	-0.08080434
249	0xbd178dc5	-0.037000436
250	0x3ced478f	0.028964786
251	0xbd5f9c95	-0.054592688
252	0x3c4cf87b	0.012510414
253	0x3d99ffd7	0.07519501
254	0xbd22a890	-0.039711535
255	0x3da514b6	0.08060591

fc1.bias f4 [128]
0	0x3de4c9c3	0.111712955
1	0x3df6b37c	0.12045953
2	0xbdbc6ea2	-0.09200789
3	0x3b16efb9	0.002303107
4	0xbd2ca85e	-0.042152755
5	0x3d0a54b1	0.033772174
6	0x3e2c713d	0.16840072
7	0xbe11edbb	-0.14250843
8	0xbe4ead25	-0.20183237
9	0x3db7654a	0.08954866
10	0xbe067a30	-0.13132548
11	0x3da0a879	0.078446336
12	0x3de33afc	0.11095235
13	0xbd83aebe	-0.06429814
14	0xbe10c03f	-0.14135836
15	0x3e1db9a7	0.15402852
16	0xbdd81670	-0.105511546
17	0xbd86e6f8	-0.065870225
18	0xbe26b52e	-0.16280052
19	0x3d89fc18	0.06737536
20	0xbe188b69	-0.14896931
21	0xbe1972e1	-0.14985229
22	0xbd490665	-0.049078364
23	0xbdec13e2	-0.1152723
24	0x3c8a0588	0.01684834
25	0x3ca50b11	0.020146878
26	0xbd79e6d4	-0.06101115
27	0xbe27e066	-0.16394195
28	0xbe428ad8	-0.18998277
29	0x3d8e4b3f	0.06947946
30	0x3dce7849	0.10081536
31	0xbdf3c3f7	-0.11902612
32	0x3bfc4d1b	0.0076996214
33	0xbdd111aa	-0.10208447
34	0xbd7b1431	-0.061298553
35	0x3dd1c19a	0.10242005
36	0xbe3c2db6	-0.18376812
37	0x3d873ac1	0.06603003
38	0xbe39f78c	-0.18160838
39	0x3ca11e3c	0.019667737
40	0x3cffa664	0.03120727
41	0x3d77becd	0.060484696
42	0xbdd1a0ca	-0.10235746
43	0x3e04920b	0.12946336
44	0xbbec5f88	-0.0072135366
45	0x3e1f378d	0.15548535
46	0xbe170aff	-0.14750288
47	0xbd733eac	-0.05938594
48	0x3e0032c1	0.12519361
49	0x3d49bdbe	0.049253218
50	0x3e0cf31d	0.13764615
51	0x3e3d71c8	0.18500435
52	0x3da51d49	0.08062226
53	0xbe26a556	-0.16274008
54	0x3da02edf	0.0782144
55	0x3cfa563e	0.030558702
56	0x3dd5e692	0.104443684
57	0x3d8f2b91	0.069907315
58	0x3d377956	0.04479345
59	0xbd9c1830	-0.07621801
60	0x3cec0a3d	0.028813476
61	0x3dc0ca56	0.094135925
62	0x3d41d7e1	0.04732502
63	0xbe4233fe	-0.18965146
64	0xbe079fea	-0.13244596
65	0xbcfeb3f4	-0.031091668
66	0x3d6f0dce	0.058362775
67	0x3d4d4901	0.05011845
68	0xbd93aa9c	-0.072102755
69	0xbdc3dd44	-0.095636874
70	0xbe1e7406	-0.15473947
71	0xbdae88a8	-0.08522159
72	0x3df0b6d2	0.1175362
73	0x3d0924ef	0.03348249
74	0x3d57baa9	0.052668247
75	0xbcbad476	-0.022806387
76	0x3dc84490	0.09778702
77	0xbe05cade	-0.13065669
78	0x3d2e47f7	0.0425491
79	0xbdf554fe	-0.119791016
80	0xbd22b224	-0.03972067
81	0x3db1fe5d	0.08691094
82	0x3df2486e	0.11830221
83	0x3e05b777	0.13058268
84	0x3e189cef	0.14903615
85	0xbe1d6490	-0.15370393
86	0x3d496678	0.049169987
87	0xbd3b809a	-0.04577694
88	0x3db6d4f7	0.089273386
89	0xbdac48bc	-0.084123105
90	0xbe307e60	-0.17235708
91	0x3e00a073	0.12561207
92	0xbd2a2dc6	-0.04154756
93	0x3b33add1	0.0027416835
94	0x3e09bd1d	0.13451047
95	0xbdd4a729	-0.10383446
96	0x3ca2c1fc	0.01986789
97	0xbe068fea	-0.13140836
98	0x3e1c2b6f	0.15250944
99	0x3bcfb3bc	0.0063385647
100	0xbe03ee0c	-0.12883776
101	0x3d57b622	0.05266393
102	0xbd752cd8	-0.05985722
103	0x3d9f9dc7	0.077937655
104	0x3d6cc598	0.057805628
105	0xbd8f14b9	-0.069863744
106	0xba501be4	-0.00079387263
107	0xbe16a536	-0.1471146
108	0x3d7f2329	0.06228939
109	0xbd82ea0a	-0.06392296
110	0xbbff02ce	-0.0077823168
111	0xbcb296a6	-0.02180035
112	0x3e2e3ae2	0.1701465
113	0x3dc0cd15	0.09414116
114	0xbdcbcd1c	-0.09951231
115	0xbdfc5775	-0.123213686
116	0x3e2acc7a	0.16679564
117	0x3e0ac87b	0.1355304
118	0xbce76742	-0.02824748
119	0xbd5d98c9	-0.054100785
120	0xbdfdd443	-0.12394001
121	0x3e4753df	0.19465588
122	0x3db6468a	0.08900173
123	0x3c92e685	0.017932186
124	0x3d3bcdc1	0.04585052
125	0x3d8fea2a	0.07027085
126	0x3e1e3f88	0.15453923
127	0x3d042f83	0.032271873

bn1.weight f4 [128]
0	0x3e921a5e	0.28535742
1	0x3f75845b	0.95905083
2	0x3f08c00e	0.5341805
3	0x3f43fd95	0.7655881
4	0x3f7bad61	0.9831143
5	0x3f5c8fb9	0.86156803
6	0x3e81c674	0.2534672
7	0x3ebbfcd3	0.36716327
8	0x3ccfa1bd	0.025345678
9	0x3d99d3bc	0.07511088
10	0x3df1c1ba	0.118045285
11	0x3e7d86be	0.24758431
12	0x3d0bdc30	0.034145534
13	0x3e4db230	0.20087504
14	0x3ec3ad75	0.38218275
15	0x3ef4c94f	0.47809836
16	0x3f78c944	0.97182107
17	0x3eff2bfa	0.4983824
18	0x3ecb54c2	0.39713103
19	0x3f2e5299	0.68094784
20	0x3f498332	0.78715813
21	0x3f4efaad	0.8085125
22	0x3e9e8c07	0.30966207
23	0x3f50002d	0.8125027
24	0x3f1f064f	0.62119
25	0x3d72c2ef	0.059267934
26	0x3f56157a	0.8362652
27	0x3f57e0fb	0.8432767
28	0x3f626f1c	0.8845079
29	0x3daf6351	0.08563865
30	0x3f0dd043	0.5539591
31	0x3ee31fd2	0.44360214
32	0x3f2d5e67	0.6772217
33	0x3f5f94ca	0.8733641
34	0x3f40d2ca	0.7532164
35	0x3f34e784	0.70665765
36	0x3f0164dc	0.50544524
37	0x3f6e4b2f	0.9308347
38	0x3f5ba669	0.85800797
39	0x3f478468	0.7793641
40	0x3f59610e	0.8491372
41	0x3f562e71	0.83664614
42	0x3ed74879	0.4204748
43	0x3ea642c9	0.32472828
44	0x3f6ecce5	0.93281394
45	0x3dfd2ddb	0.12362262
46	0x3f310c52	0.69159424
47	0x3e30fe01	0.17284395
48	0x3eb1fc35	0.3476273
49	0x3f55e335	0.83549815
50	0x3e02cb44	0.12772852
51	0x3e75c454	0.24000674
52	0x3ed94235	0.42433324
53	0x3f1d491b	0.61439675
54	0x3ea9d205	0.33168045
55	0x3ecf026c	0.40431535
56	0x3f78f9a2	0.9725591
57	0x3f64eb72	0.8942176
58	0x3ef8f717	0.48626015
59	0x3f0e7fc9	0.55663735
60	0x3eeeb33d	0.46621123
61	0x3f5c0b1d	0.8595446
62	0x3e1bfaa3	0.15232329
63	0x3f25b865	0.6473449
64	0x3e175f00	0.14782333
65	0x3f3f4ee1	0.74729735
66	0x3f0af449	0.54279
67	0x3e655f7d	0.22399707
68	0x3f0a72ee	0.5408162
69	0x3e201f90	0.1563704
70	0x3e02b43b	0.12764065
71	0x3f100fb0	0.5627394
72	0x3ef6db43	0.48214158
73	0x3edede9e	0.43529218
74	0x3f3768a8	0.7164407
75	0x3f529c50	0.82269764
76	0x3eb001ab	0.34376273
77	0x3ec9353c	0.39298427
78	0x3f089eb0	0.5336714
79	0x3eb29dbe	0.34885973
80	0x3f4efebe	0.80857456
81	0x3e33d8fd	0.17563243
82	0x3eb03faf	0.34423587
83	0x3f34382c	0.7039821
84	0x3f5a0d1d	0.8517626
85	0x3e8bb048	0.2728293
86	0x3f2e548f	0.68097776
87	0x3ec05c76	0.37570542
88	0x3e6c232c	0.23060292
89	0x3f167ea5	0.58786994
90	0x3d0a0cdf	0.03370368
91	0x3f2b5f2a	0.66942084
92	0x3f3892ef	0.720992
93	0x3f823c70	1.0174694
94	0x3d1fff91	0.039062086
95	0x3eb8b853	0.36078128
96	0x3ed9be59	0.42528036
97	0x3f1fe723	0.6246206
98	0x3dfc5aa0	0.12321973
99	0x3d3907f1	0.04517359
100	0x3edb6fa9	0.42858627
101	0x3ed9623a	0.42457753
102	0x3f3872e6	0.7205032
103	0x3e3c0591	0.18361498
104	0x3e4e5455	0.20149358
105	0x3e5b054d	0.21388741
106	0x3f2898b1	0.6585799
107	0x3f370ba0	0.71502113
108	0x3f591902	0.84803784
109	0x3ec8ca33	0.39216766
110	0x3f2ddcdf	0.6791515
111	0x3f01ddbd	0.5072897
112	0x3cd42fb9	0.025901662
113	0x3ef227c1	0.47295955
114	0x3e5de8a3	0.21670775
115	0x3f325e69	0.6967531
116	0x3f6f6e3d	0.93527585
117	0x3ed5419b	0.41651616
118	0x3ee477cb	0.44622645
119	0x3ee07339	0.43837908
120	0x3ed26d7b	0.41099152
121	0x3edcdb55	0.43136087
122	0x3ccb2d4c	0.024801873
123	0x3e6e9c3e	0.23301789
124	0x3ecd618a	0.4011348
125	0x3f0457f6	0.5169672
126	0x3e03095d	0.1279654
127	0x3f74a9f6	0.9557184

bn1.bias f4 [128]
0	0xbcc49413	-0.023996389
1	0x3d3ed326	0.046588086
2	0x3d1b7a7d	0.03795861
3	0xbd11a5af	-0.0355584
4	0x3c79bda4	0.015242968
5	0xbd37d22b	-0.044878166
6	0xba268d0b	-0.00063534145
7	0xbc475b0d	-0.012167704
8	0x3e1e09ad	0.15433379
9	0x3dd1afc4	0.10238603
10	0x3da790b2	0.08181895
11	0x3d4a0883	0.049324524
12	0xbde571bb	-0.11203333
13	0x3c4b9ff5	0.012428273
14	0xbd10a6d7	-0.03531536
15	0x3b7ea167	0.0038853528
16	0x3a002f28	0.00048898393
17	0x3bd3ad83	0.006459893
18	0xbabad029	-0.001425271
19	0x3d634a7f	0.055490967
20	0xbc790df4	-0.015201081
21	0xbc30c145	-0.010788267
22	0x3ced2239	0.028946983
23	0xba496c10	-0.0007683644
24	0x3d95bea5	0.07311753
25	0x3c3292b2	0.010899233
26	0xbcf2c31b	-0.02963405
27	0x3c8ca12b	0.017166695
28	0xbc83647e	-0.01603913
29	0xbd535b8c	-0.051600978
30	0x3b0b68a9	0.00212721
31	0xbd2515e1	-0.04030407
32	0x3ca395a5	0.019968817
33	0x3bbe71ff	0.0058119292
34	0xbd42e3d1	-0.047580544
35	0xbb03c27c	-0.0020104935
36	0x3bbbd235	0.0057318457
37	0x3d063013	0.03276069
38	0xbca375e2	-0.019953672
39	0x3d7f1a8c	0.062281176
40	0x3c5ceb2b	0.013483803
41	0x3d37281e	0.044715993
42	0x3ccabf3d	0.024749393
43	0x3c611024	0.013736758
44	0x3c1ef83c	0.009702738
45	0x3db56b59	0.088583656
46	0x3c1bfc65	0.009520625
47	0xbb8a9052	-0.00422863
48	0xbc09e077	-0.008415333
49	0x3b422c8c	0.0029628603
50	0xbc877ece	-0.016539957
51	0x3d968c34	0.073509604
52	0x3ae29059	0.0017285451
53	0x3bc6a7d1	0.0060624857
54	0x3ba4f5d4	0.005034188
55	0xbb9f7602	-0.0048663625
56	0x3d95685e	0.07295297
57	0x3cd1d91c	0.025616221
58	0xbbff9593	-0.007799813
59	0x3d8d03f3	0.06885519
60	0x3a359c41	0.00069278857
61	0xba8a3d78	-0.0010546884
62	0x3db12e94	0.08651462
63	0x3d079fd9	0.033111427
64	0x3d00d51a	0.03145323
65	0x3d856ba5	0.06514672
66	0xbcff9a96	-0.031201642
67	0x3bb6a770	0.0055741593
68	0xbc9ba110	-0.018997699
69	0x3d442e94	0.047895983
70	0x3d8a7769	0.06761057
71	0x3ca0eaf5	0.019643286
72	0xbd02bd7a	-0.03191898
73	0xbcb5c881	-0.022190334
74	0x3c8d24b5	0.017229417
75	0x3cc4d8da	0.024029184
76	0x3dbf80c4	0.09350732
77	0xbcc29fb4	-0.023757793
78	0x3c96cb03	0.01840735
79	0x3d0111a3	0.03151096
80	0xbca7bb11	-0.020474942
81	0x3d3a1938	0.045434207
82	0xbcd0bc6f	-0.025480477
83	0x3c5b4374	0.013382781
84	0x3c465c6a	0.012106994
85	0x3b8e532b	0.0043434105
86	0x3c1ff7b6	0.009763649
87	0xbc04e42c	-0.008111041
88	0x3b96d5ca	0.0046031224
89	0x3d0b77b9	0.034049723
90	0xbccd4b92	-0.025060449
91	0x3cb617f8	0.022228226
92	0x3c971c9d	0.018446261
93	0x3d3b734e	0.04576426
94	0x3cdf7365	0.027276704
95	0x3d3b6cff	0.045758244
96	0x3bf2f2fb	0.0074142194
97	0x3d8490f0	0.06472957
98	0x3d463cf3	0.04839797
99	0x3d23afaa	0.03996245
100	0x3bc234ba	0.0059266957
101	0x3d854dc4	0.06508973
102	0x3d12e528	0.03586307
103	0x3d761ecb	0.06008796
104	0x3c6e8fa6	0.014560616
105	0x3d75d198	0.060014337
106	0xbcef8d34	-0.029242136
107	0xbcc5c9ad	-0.024144018
108	0x3c863295	0.016381541
109	0x3bdcc926	0.006737846
110	0x3cf2cca0	0.029638588
111	0x3c013524	0.007886205
112	0x3d9f7560	0.077860594
113	0x3bd8b4c3	0.0066133454
114	0x3c93c658	0.018038914
115	0x3bb0af46	0.005391988
116	0x3d85567c	0.06510636
117	0x3aa30981	0.0012438745
118	0x3d4cf208	0.050035506
119	0x3cea0dea	0.028571088
120	0x3ca3e299	0.020005511
121	0x3d6fb80f	0.05852514
122	0xbda43e36	-0.08019678
123	0xbc527c13	-0.012846964
124	0x3c445421	0.0119829485
125	0xbc81267b	-0.01576542
126	0x3cf24ce6	0.029577684
127	0x3d987bf0	0.07445514

bn1.running_mean f4 [128]
0	0x3f4ce0b3	0.80030364
1	0x3f6b67de	0.91955364
2	0x3f2d0adc	0.67594695
3	0x3eff83c0	0.49905205
4	0x3fb9b1f5	1.4507433
5	0x3eefd6d7	0.46843597
6	0x3f9c482d	1.2209526
7	0x3f665bef	0.8998403
8	0x3c6d9d1f	0.014502793
9	0x3ed1f85a	0.4100979
10	0x3f819248	1.0122766
11	0x3f88ca3d	1.0686718
12	0x3e8fb629	0.28068665
13	0x3f779674	0.9671395
14	0x3d84b878	0.06480497
15	0x3fa66588	1.2999735
16	0x3f947b80	1.1600189
17	0x3fa15919	1.2605315
18	0x3fa301b3	1.2734894
19	0x3f3aa891	0.7291346
20	0x3f277a86	0.6542133
21	0x3fbbd6e4	1.4674954
22	0x3f757723	0.95884913
23	0x3d6a93fe	0.057270043
24	0x3fa01edd	1.2509419
25	0x3f3a8e92	0.72873795
26	0x3df2a19e	0.11847232
27	0x3f102a47	0.5631451
28	0x3e91e536	0.28495187
29	0x3f17f92e	0.59364593
30	0x3faa34ca	1.329736
31	0x3e663006	0.22479257
32	0x3f928c57	1.1449078
33	0x3e5ecbc9	0.21757425
34	0x3f02663b	0.5093724
35	0x3fc5e0cd	1.5459229
36	0x3eae7271	0.34071687
37	0x3fa77382	1.3082125
38	0x3e8769a8	0.26447797
39	0x3f36f113	0.714616
40	0x3f2448bc	0.64173484
41	0x3f548fa1	0.8303166
42	0x3f495aba	0.7865406
43	0x3f659723	0.8968374
44	0x3f378ef6	0.71702516
45	0x3f01d909	0.50721794
46	0x3e147398	0.1449722
47	0x3ed399d2	0.41328293
48	0x3fb008f8	1.3752737
49	0x3f7b4a72	0.9816047
50	0x3fa3540b	1.2760023
51	0x3ef295dd	0.47379962
52	0x3f513168	0.8171601
53	0x3f15ca40	0.58511734
54	0x3fe1899f	1.7620124
55	0x3fd9bd6d	1.7010933
56	0x3fa97896	1.3239925
57	0x3f73b589	0.95198876
58	0x3d784213	0.06060989
59	0x3f9600a9	1.1718951
60	0x3f5acd1e	0.85469234
61	0x3fcb1a77	1.5867451
62	0x3fa0b474	1.255507
63	0x3f9bee96	1.2182186
64	0x3f9c2e7e	1.2201688
65	0x3f913ea9	1.1347247
66	0x3ff0f318	1.8824186
67	0x3f49137e	0.7854537
68	0x3f8b64c2	1.0890124
69	0x3fa6111f	1.2973975
70	0x3f0779bc	0.52920127
71	0x3f8212bd	1.0161968
72	0x3f3970ca	0.7243773
73	0x3f3aaf2c	0.7292354
74	0x3fa65029	1.2993213
75	0x3f1f5ff0	0.62255764
76	0x3f08213f	0.5317573
77	0x3f34c0bd	0.70606595
78	0x3fc0bc92	1.5057547
79	0x3f5b9275	0.8577035
80	0x3fc77295	1.5581843
81	0x3fb0230c	1.3760695
82	0x3e6dc355	0.23219045
83	0x3fa8fb72	1.3201735
84	0x3f32531a	0.6965805
85	0x3f93947e	1.1529691
86	0x3f6213d3	0.883115
87	0x3f9280cf	1.1445559
88	0x3ed93f2c	0.4243101
89	0x3f6ae32e	0.917529
90	0x3f8ae7af	1.0851954
91	0x3f85976f	1.0436839
92	0x3f2988d9	0.6622444
93	0x3f811eb6	1.0087497
94	0x3f9a1578	1.2037802
95	0x3f2b6216	0.6694654
96	0x3f3b32bf	0.7312431
97	0x3faffb79	1.3748618
98	0x3fa6a1e6	1.3018157
99	0x3f443057	0.7663626
100	0x3f499c2f	0.7875394
101	0x3f37caf0	0.71794033
102	0x3fc48f42	1.5356219
103	0x3fb75b0e	1.4324663
104	0x3fb2104c	1.3911223
105	0x3f30e1e0	0.6909466
106	0x3f9f39e1	1.2439538
107	0x3f38c303	0.72172564
108	0x3fa7a9f7	1.3098744
109	0x3ee5321a	0.44764787
110	0x3f27fd6d	0.6562107
111	0x3f3a01c0	0.7265892
112	0x3f9f2764	1.2433896
113	0x3f0b464d	0.54404145
114	0x3fa04713	1.252169
115	0x3f5a8a24	0.85367036
116	0x3f598b1b	0.84977883
117	0x3f7213a6	0.9456123
118	0x3f0c0c7f	0.5470657
119	0x3f3def46	0.7419323
120	0x3f0f70e0	0.5603161
121	0x3f282805	0.65686065
122	0x3fa078a0	1.2536812
123	0x3c8da621	0.01729113
124	0x3f918800	1.1369629
125	0x3f73ddce	0.9526032
126	0x3e99d365	0.30044094
127	0x3f55e78a	0.83556426

bn1.running_var f4 [128]
0	0x3f8d2ea8	1.1029863
1	0x3fc03445	1.5015951
2	0x3f3dac5b	0.7409112
3	0x3ef75bb2	0.48312145
4	0x404cc5dd	3.1995766
5	0x3ec8bfeb	0.39208922
6	0x401d6127	2.4590547
7	0x3f88eb84	1.0696874
8	0x3c053e3d	0.008132515
9	0x3ed4f5e9	0.41593865
10	0x3ff694a8	1.9264116
11	0x3fc732e9	1.5562412
12	0x3e83f28d	0.2577099
13	0x3fbdf13b	1.4839243
14	0x3cb6cbce	0.022313979
15	0x40373d3a	2.863112
16	0x3ffa2e39	1.9545356
17	0x4059ab5f	3.4010847
18	0x404490aa	3.0713296
19	0x3f4d84d9	0.80280834
20	0x3f3b312b	0.731219
21	0x404e56ee	3.2240558
22	0x3fad7320	1.3550758
23	0x3ccf7dcf	0.025328545
24	0x40057b60	2.0856552
25	0x3f87a8b9	1.0598365
26	0x3d610f23	0.054946076
27	0x3f302c75	0.68817836
28	0x3e73b533	0.23799591
29	0x3f23cb27	0.6398186
30	0x40167cea	2.3513741
31	0x3e229f1b	0.15881006
32	0x3fc49f4c	1.5361114
33	0x3e26aca1	0.1627679
34	0x3f02088e	0.50794303
35	0x404e8626	3.2269378
36	0x3e5a9e21	0.21349384
37	0x40316b5b	2.7721775
38	0x3e656fc6	0.2240592
39	0x3f1e6126	0.61866987
40	0x3f4d77f6	0.8026117
41	0x3f96054d	1.1720368
42	0x3f976b56	1.1829631
43	0x3f841c45	1.0321127
44	0x3f94fda3	1.1639904
45	0x3f01628c	0.50540996
46	0x3dabb10a	0.08383377
47	0x3e7a23d7	0.24427734
48	0x4031c6f5	2.7777684
49	0x3fccc54c	1.599771
50	0x40276c4a	2.6159844
51	0x3e9d0c50	0.30673456
52	0x3f88ef3d	1.069801
53	0x3f16c421	0.5889302
54	0x40adf247	5.435825
55	0x4057fd53	3.3748367
56	0x4015eb2e	2.3424792
57	0x3fa22353	1.266703
58	0x3ce93bab	0.028470835
59	0x3ffd3dde	1.9784505
60	0x3f823dd5	1.017512
61	0x40437fb3	3.0546691
62	0x3fee342d	1.8609673
63	0x40092b8b	2.1432827
64	0x401c0e71	2.4383814
65	0x4008e6f3	2.139096
66	0x40a6643a	5.1997347
67	0x3f91a4be	1.13784
68	0x3fc39834	1.5280824
69	0x4033d102	2.8096318
70	0x3f1aad0a	0.60420287
71	0x3fc5a5d1	1.5441228
72	0x3f3bcb53	0.73357123
73	0x3f426558	0.7593589
74	0x405321fc	3.2989492
75	0x3f37d6c4	0.7181208
76	0x3f084c81	0.53241736
77	0x3f7bea00	0.9840393
78	0x4051664f	3.2718694
79	0x3fb86d37	1.440833
80	0x404fbba1	3.245827
81	0x403a754d	2.9134095
82	0x3df6dfe7	0.12054425
83	0x40545bd3	3.3181045
84	0x3f49bc77	0.788032
85	0x40008a13	2.0084274
86	0x3f968e08	1.1762094
87	0x400eacc4	2.2292948
88	0x3eb9d2d3	0.3629366
89	0x3fc3cb37	1.5296391
90	0x3ff37ca5	1.9022413
91	0x400c3983	2.1910102
92	0x3f0951a0	0.53640175
93	0x3fcecff5	1.6157213
94	0x3fffc945	1.9983298
95	0x3f57cbc9	0.84295326
96	0x3f6e0fb5	0.9299272
97	0x404f37ca	3.23778
98	0x40408274	3.0079622
99	0x3f4c9b48	0.7992444
100	0x3f98e094	1.1943536
101	0x3f50e7de	0.816038
102	0x4081d31c	4.05702
103	0x40533d97	3.3006341
104	0x4070bc68	3.7614994
105	0x3f6b48ec	0.91908145
106	0x404ab4f3	3.1672943
107	0x3f6268b6	0.88441026
108	0x404072d8	3.0070095
109	0x3ef50eed	0.4786295
110	0x3f116b20	0.56804085
111	0x3f69f849	0.9139448
112	0x40084698	2.1293087
113	0x3ee54218	0.44776988
114	0x3fffd38d	1.9986435
115	0x3fc20959	1.5159103
116	0x3f7a8e4c	0.9787338
117	0x3f9c7447	1.2222985
118	0x3f13007f	0.5742263
119	0x3f8fd803	1.1237797
120	0x3f144225	0.5791343
121	0x3f39d376	0.7258829
122	0x4001d5d2	2.0286756
123	0x3b92862c	0.004471561
124	0x3fce1e52	1.6103003
125	0x3fd982b8	1.6993017
126	0x3e5da343	0.2164431
127	0x3f8f3f35	1.1191164

fc2.weight f4 [64, 128]
0	0xba3d8fd4	-0.000723121
1	0x39ce2240	0.000393169
2	0xbb122341	-0.0022298845
3	0x3b221f94	0.002473806
4	0x3b2f2c4c	0.0026729284
5	0x3a99a2a4	0.0011721444
6	0x3aaa9ea0	0.0013017245
7	0x38a8a180	8.040946e-05
8	0x3b14eb8a	0.00227234
9	0x3a476838	0.00076067774
10	0x3af41eec	0.0018624938
11	0x3a8529ec	0.0010159588
12	0x3a341f9c	0.0006871165
13	0xb992bb08	-0.0002798664
14	0xbb2a77b0	-0.002601128
15	0x3b27bcd6	0.0025594733
16	0x3a5798b0	0.00082243513
17	0xba1e6884	-0.0006042796
18	0x3a954960	0.0011389665
19	0xbb15125d	-0.002274654
20	0x3ad9deb0	0.0016622152
21	0x39361e60	0.00017368188
22	0xb921f790	-0.0001544638
23	0xbb22a392	-0.0024816734
24	0x3a5738f0	0.00082100835
25	0xbb38ecbd	-0.002821728
26	0x3a287910	0.0006426731
27	0xba4e599c	-0.0007871629
28	0x3aeb29c8	0.0017941529
29	0x3aaeaf68	0.0013327422
30	0xbb256160	-0.0025235042
31	0xbb430ddf	-0.0029762906
32	0x379c3f00	1.8625986e-05
33	0xbaa3139e	-0.001244176
34	0x3b38b784	0.0028185556
35	0x3b388de8	0.0028160755
36	0x3a61e05c	0.0008616501
37	0x3a9b4868	0.001184714
38	0x3b30bc1e	0.0026967595
39	0x3aae9c78	0.0013321778
40	0xbb219d1c	-0.0024660295
41	0xba8d5815	-0.0010783697
42	0x3ad11ca8	0.0015953975
43	0x3aedfb4c	0.0018156557
44	0x3a923420	0.001115445
45	0xbb250265	-0.002517843
46	0xb9d084d8	-0.00039771828
47	0x3a578cd4	0.0008222584
48	0x3a9fff94	0.0012206906
49	0xba176d0c	-0.0005776442
50	0x39be4180	0.00036288425
51	0xbaab4eda	-0.0013069764
52	0x3b29065e	0.0025791149
53	0x3aac6084	0.0013151322
54	0xbb133d72	-0.0022467044
55	0xbb3b7e41	-0.0028609189
56	0x3a305c60	0.0006727632
57	0xbb1e718c	-0.0024176566
58	0x3a9dbd60	0.0012034588
59	0x3ad76c44	0.0016435464
60	0x3b19a39c	0.0023443466
61	0xba76db74	-0.00094168563
62	0x3b13210e	0.0022450122
63	0xba9a4271	-0.0011769069
64	0xbb1598e2	-0.002282672
65	0x3a4c38b0	0.00077904295
66	0x3a54d204	0.0008118453
67	0x3a104400	0.0005503297
68	0x39b3f4a0	0.000343238
69	0x3a0c0c00	0.00053423643
70	0x3b2ef9f0	0.0026699267
71	0xba981350	-0.0011602435
72	0xb9a75060	-0.00031912606
73	0x3ac21dc8	0.0014809901
74	0x3b0cac60	0.0021465048
75	0xba9cc845	-0.001196154
76	0x3b09358c	0.0020936457
77	0xb9b98c68	-0.0003539056
78	0x3b3b91a4	0.0028620744
79	0x3b0e65cc	0.0021728156
80	0xba8f6ca4	-0.0010942412
81	0x35369000	6.800983e-07
82	0xb998e468	-0.00029161875
83	0x3af8b2f4	0.0018974231
84	0xbb067f39	-0.0020522608
85	0xba18a534	-0.0005822957
86	0x3aa85da0	0.0012845285
87	0xbb0865eb	-0.00208127
88	0xba14e914	-0.00056804833
89	0x3ae16b68	0.0017198147
90	0xba1422bc	-0.0005650928
91	0x3a904c1c	0.001100901
92	0x3ac1d854	0.0014789202
93	0x3af58528	0.00187317
94	0x3b10b96c	0.0022083176
95	0xbaef8fc4	-0.0018277098
96	0xbafc5f4b	-0.0019254474
97	0x3b3c56ac	0.0028738184
98	0xba655b00	-0.0008749217
99	0x3a1cc458	0.0005980185
100	0xbb136c09	-0.0022494814
101	0xb95a0c90	-0.0002079478
102	0xbb26938b	-0.0025417532
103	0x39fab310	0.00047817128
104	0x39215580	0.00015386008
105	0xb9e67000	-0.00043952465
106	0x3b0e2da8	0.0021694694
107	0x3b427b36	0.002967549
108	0xb9f77458	-0.00047198194
109	0xbb2ff5d6	-0.002684941
110	0x3a57abac	0.000822718
111	0x3a26d38c	0.00063639204
112	0x3a88bc20	0.0010432042
113	0xbac6e5ef	-0.0015174727
114	0xba876734	-0.001033044
115	0xbb13c1cd	-0.0022545934
116	0xbb0e8ca0	-0.00217513
117	0x3a8e74ac	0.0010868511
118	0xb964a330	-0.00021804566
119	0x3a314cc0	0.0006763451
120	0xbb30d51b	-0.002698249
121	0xb84c8b80	-4.876731e-05
122	0x3ae93420	0.0017792024
123	0x391dbd60	0.00015043234
124	0x3b24226e	0.0025044936
125	0xbb3b37f5	-0.0028567289
126	0x3a8e7f84	0.0010871743
127	0xb8eaf840	-0.0001120423
128	0xba9d14da	-0.0011984364
129	0x3b1a675e	0.0023560147
130	0xba8d87ed	-0.0010797955
131	0xba4f4258	-0.00079063093
132	0xbaa3d27d	-0.0012498643
133	0xbacee225	-0.0015783949
134	0xbafeec4f	-0.0019449088
135	0xbaea4531	-0.0017873404
136	0xb8c0f620	-9.201118e-05
137	0xba2d5688	-0.00066123204
138	0xbb10cf6c	-0.002209629
139	0x3ae2a650	0.0017291997
140	0x3b388662	0.002815627
141	0xbaf08a31	-0.0018351731
142	0x39e37b08	0.0004338848
143	0xba4ce024	-0.0007815382
144	0xba30fe1c	-0.00067517324
145	0xbb3f3a48	-0.0029179025
146	0x3a1508a0	0.0005685184
147	0xbb3f4455	-0.0029185016
148	0xba09e88c	-0.00052607874
149	0xbb29dceb	-0.002591903
150	0xbb332afc	-0.0027338853
151	0xbaf74125	-0.0018864019
152	0xbb0e9ba9	-0.002176026
153	0x38e49b00	0.00010900758
154	0xbb2e1ea1	-0.002656855
155	0xbb4143f2	-0.0029489961
156	0x3abca59c	0.0014392617
157	0xba9714f9	-0.0011526636
158	0xbaeef349	-0.0018230464
159	0x3b3f011a	0.0029144944
160	0x3b1c36a2	0.0023836275
161	0x3990eaf8	0.00027640886
162	0x3b0a083a	0.0021062032
163	0xba2a3024	-0.0006492159
164	0xba9ed375	-0.0012117462
165	0xba99d383	-0.0011736009
166	0x383adc00	4.4550747e-05
167	0x39fe9e68	0.00048564677
168	0xba498f8c	-0.00076889317
169	0x3aa9e63c	0.0012962292
170	0x3b30de96	0.002698814
171	0xbacefc42	-0.0015791731
172	0xba0c62b4	-0.0005355284
173	0x3ae2db04	0.0017307703
174	0xbb2ec089	-0.0026665053
175	0x3b42cf8a	0.0029725754
176	0xba62eed4	-0.0008656804
177	0x3aac773c	0.0013158093
178	0x3b05b3d2	0.002040137
179	0x3a96f760	0.0011517815
180	0x3b089676	0.0020841635
181	0x3ac44efc	0.0014977152
182	0x3b164ef6	0.0022935248
183	0xba06ebc4	-0.0005146826
184	0xbac09f06	-0.001469583
185	0x3abc5e58	0.0014371378
186	0x3abdb120	0.0014472343
187	0xbb27d312	-0.0025607985
188	0x3ac1eb0c	0.0014794781
189	0x3ac93d78	0.0015353402
190	0x3b331f6e	0.0027331966
191	0x3b35658a	0.002767893
192	0xbb01bb22	-0.0019795378
193	0x3b31904c	0.0027094064
194	0x3b36be96	0.0027884594
195	0xba39e4dc	-0.00070912926
196	0x3a942688	0.0011302987
197	0xbb1aba4a	-0.0023609572
198	0x3b1bce26	0.0023773997
199	0xbb0c2174	-0.0021382244
200	0x38ab3ea0	8.16558e-05
201	0xba385c70	-0.0007032817
202	0xba49a9f0	-0.0007692864
203	0xbab5997d	-0.0013854947
204	0x39e8bac0	0.00044389628
205	0x3a5cd6f8	0.0008424367
206	0xbaba0b38	-0.0014194017
207	0x3b27407a	0.0025520609
208	0xbafe8b9d	-0.001942027
209	0xbad3d5b1	-0.0016161707
210	0xba9cee77	-0.0011972924
211	0xbb15c7e6	-0.0022854744
212	0x3a0c22b4	0.00053457473
213	0x3ae6e720	0.0017616488
214	0x3aa9f158	0.0012965603
215	0xbb2c092d	-0.0026250586
216	0xbaed3efa	-0.0018100434
217	0xbac45609	-0.0014979254
218	0x3b290eb0	0.0025796108
219	0x3aa06fc8	0.0012240345
220	0xbb2e1f92	-0.002656911
221	0xbaddfc9e	-0.0016936248
222	0xbb130426	-0.0022432893
223	0x3a972c48	0.0011533583
224	0xbb1522c9	-0.002275633
225	0xbb325f87	-0.0027217583
226	0x3b433bc8	0.002979027
227	0x3a964178	0.0011463603
228	0xbae25c19	-0.0017269879
229	0x3b376ae0	0.0027987286
230	0xbb2407f3	-0.0025029152
231	0xba0b0bfc	-0.0005304215
232	0x3af22590	0.0018474329
233	0xb9fba3c0	-0.00047996454
234	0xb94bbe80	-0.00019430555
235	0x3af8dd5c	0.0018986869
236	0x3ae55320	0.0017496087
237	0xbb017dae	-0.0019758749
238	0xba8670bc	-0.0010256986
239	0x3b009b88	0.0019623954
240	0xba05b688	-0.00051007466
241	0x3b40491c	0.0029340452
242	0xbb4144fa	-0.0029490576
243	0x3b2bcd14	0.0026214765
244	0x3b4331a4	0.0029784227
245	0xbb1acb2b	-0.0023619633
246	0xb9b597b8	-0.0003463605
247	0x39fda6a0	0.00048380066
248	0x3b011d50	0.001970131
249	0x3a70edc8	0.00091907056
250	0xb9cb44e8	-0.00038770516
251	0xba955d20	-0.0011395551
252	0xbb0001d1	-0.0019532333
253	0x3a4cb414	0.0007808816
254	0x3b337a70	0.002738621
255	0xbb3e6f75	-0.0029058133

fc2.bias f4 [64]
0	0xbd9adc1d	-0.075615145
1	0xbd304ff9	-0.043045018
2	0xbd9e8984	-0.07741073
3	0xbd8a76d6	-0.067609474
4	0xbc5b1948	-0.013372727
5	0xbc507b44	-0.012724701
6	0xbda0a022	-0.07843043
7	0xbc594a4f	-0.013262345
8	0xbcd9c460	-0.026582897
9	0xbd8793ec	-0.06620011
10	0x3b83c70a	0.00402153
11	0x3d091964	0.03347148
12	0x3b999c68	0.0046878345
13	0xbc91ade6	-0.017783117
14	0xbc0952cd	-0.008381558
15	0xbbfeaac3	-0.007771821
16	0xbbe97329	-0.007124324
17	0xbcaaf7e0	-0.02087015
18	0xba1f03e7	-0.000606595
19	0x3d81e0d9	0.063417144
20	0xbbcd2d9d	-0.006261541
21	0xbcbd8d18	-0.023138568
22	0x3a819881	0.0009887369
23	0xbcb61dac	-0.022230946
24	0xbd919418	-0.07108325
25	0x3ba78a9b	0.0051129586
26	0xbd8e4848	-0.0694738
27	0xbd2a4dc6	-0.041578077
28	0xbc2671e3	-0.010158989
29	0x3c9caa38	0.019124135
30	0xbc2a903e	-0.010410367
31	0xbd9b5dc9	-0.075862475
32	0xbcd6c9c5	-0.026219258
33	0xbd7a4338	-0.06109926
34	0xbd930a52	-0.07179703
35	0xbcedfa36	-0.029049974
36	0xbc57dc18	-0.013175033
37	0xbc1e6049	-0.009666511
38	0xbc8d9f88	-0.017287984
39	0xbd83f378	-0.06442922
40	0xbd6e47b9	-0.05817387
41	0x3c5aa886	0.013345843
42	0xbc2e641d	-0.010643986
43	0xbc55a40f	-0.013039603
44	0x3c0f4ecd	0.008746815
45	0xbce78e1d	-0.028266007
46	0x3bd56ea6	0.0065134345
47	0xbd98098c	-0.07423696
48	0xbcd40919	-0.025883244
49	0xbc753426	-0.014966046
50	0xbc16f470	-0.009213552
51	0xbd462a26	-0.04838004
52	0xbbad6ab7	-0.0052922624
53	0xbc75f50d	-0.015012038
54	0xbd4413cf	-0.047870453
55	0xbbaa67e7	-0.0052003744
56	0xbd8b3a59	-0.06798238
57	0xbbd37bc9	-0.0064539653
58	0x3c0b22b8	0.008492164
59	0xbcbea111	-0.023270162
60	0xbcddfffe	-0.027099606
61	0xbd5697ad	-0.052390743
62	0xbda4d3b9	-0.080481954
63	0xbc96c987	-0.018406643

bn2.weight f4 [64]
0	0x3dec8ee0	0.11550689
1	0x3ec18da4	0.37803376
2	0x3f457b13	0.7714092
3	0x3dd3bc40	0.1033864
4	0x3f48a39f	0.78374666
5	0x3e95c1af	0.2924933
6	0x3ee8a6d2	0.45439774
7	0x3f616722	0.88047993
8	0x3edddbf5	0.43331876
9	0x3e39b99c	0.1813721
10	0x3f5654a0	0.8372288
11	0x3e97430e	0.29543346
12	0x3e6c6de1	0.2308879
13	0x3ea6600c	0.32495153
14	0x3f50bfaf	0.81542486
15	0x3eb4afb3	0.35290298
16	0x3ef0d286	0.47035617
17	0x3f1b82d7	0.6074652
18	0x3e800298	0.2500198
19	0x3f3f7cdd	0.747999
20	0x3f04057e	0.5157088
21	0x3e6623f3	0.22474651
22	0x3e925aa6	0.28584784
23	0x3f083749	0.5320936
24	0x3d92d890	0.07170212
25	0x3f5780ce	0.84180915
26	0x3ed3e43e	0.41385072
27	0x3e99e755	0.30059305
28	0x3f21cd64	0.63204026
29	0x3f05d638	0.52279997
30	0x3f20f072	0.6286689
31	0x3ec0c8d2	0.37653214
32	0x3f6bae32	0.92062676
33	0x3f7fee4b	0.9997298
34	0x3f4db772	0.8035804
35	0x3ec9a596	0.39384145
36	0x3f40d8fa	0.7533108
37	0x3f201a53	0.6254017
38	0x3f8201ab	1.0156759
39	0x3e9fc7ca	0.31207114
40	0x3e9210ed	0.28528538
41	0x3f133516	0.5750288
42	0x3f214225	0.62991554
43	0x3ee940f7	0.45557377
44	0x3f1096ab	0.564799
45	0x3e63f430	0.22261119
46	0x3f595383	0.84893054
47	0x3f103ea1	0.56345564
48	0x3f80f9a0	1.007618
49	0x3e40401d	0.18774457
50	0x3ede480f	0.4341435
51	0x3eda9886	0.4269449
52	0x3f09ddca	0.5385405
53	0x3e91bcf6	0.28464478
54	0x3f69425c	0.9111688
55	0x3f1c7e1a	0.61129916
56	0x3f285531	0.6575499
57	0x3d463788	0.048392802
58	0x3f891a49	1.0711147
59	0x3f1512a2	0.58231556
60	0x3e609d1a	0.2193493
61	0x3f3ee597	0.74569076
62	0x3ef33d36	0.47507638
63	0x3ea48c4d	0.3213829

bn2.bias f4 [64]
0	0xbcd72180	-0.026261091
1	0x3d37a36b	0.044833582
2	0xbd8166bf	-0.063184254
3	0xbce10323	-0.027467316
4	0x3cafc68b	0.021456977
5	0x3d4a84f2	0.049443193
6	0xbda113de	-0.078651175
7	0xbbcdc689	-0.0062797708
8	0xbd2da77b	-0.04239605
9	0xbd1777a2	-0.036979325
10	0x3b41c7cb	0.0029568549
11	0xbced208e	-0.028946187
12	0xbc92eaea	-0.017934281
13	0xbce4223b	-0.027848354
14	0xbb04be9f	-0.002025522
15	0x3c1f1137	0.009708694
16	0xbd2bfc81	-0.041988853
17	0x3c930937	0.01794873
18	0x3b46a5b7	0.0030311176
19	0x3aca0004	0.0015411382
20	0x3cbbd438	0.022928342
21	0xbcef1874	-0.029186465
22	0x3d69c953	0.057076763
23	0xbd5c8348	-0.053836137
24	0xbd922ab8	-0.07137054
25	0x3d5e9261	0.054338817
26	0x3db13fd9	0.08654756
27	0x3c2add58	0.010428749
28	0xbd2e8bbc	-0.04261373
29	0x3bfe67e1	0.007763848
30	0xbd45a652	-0.04825432
31	0xbd553783	-0.052054893
32	0x3dc26246	0.094914004
33	0x3d1f7d90	0.038938105
34	0x3d35e104	0.044404045
35	0xbd7bc115	-0.061463434
36	0xbc97ea54	-0.018544354
37	0xbd651d03	-0.05593587
38	0x3da31379	0.079626985
39	0x3d136629	0.0359861
40	0x3c1c37bc	0.0095347725
41	0xbd25df3f	-0.040496107
42	0xbcb0d8e7	-0.021587802
43	0x3cffd76e	0.031230655
44	0x3d4d8aa2	0.05018104
45	0xbce42ec8	-0.027854338
46	0xbd43f87a	-0.047844388
47	0x3d80fc86	0.06298165
48	0xbd13ba3c	-0.03606628
49	0x3c4b8fc4	0.012424413
50	0x3d14472b	0.036200684
51	0xbd8246f1	-0.06361187
52	0x3c393c5a	0.011305893
53	0xbca8ff74	-0.020629622
54	0xbd2ad7c0	-0.04170966
55	0x3c25c8ef	0.010118707
56	0x3d934e9e	0.071927294
57	0xbd3325b2	-0.04373712
58	0x3d9546db	0.07288905
59	0xbd58a832	-0.05289478
60	0xbd130fbc	-0.035903677
61	0x3d129c75	0.03579374
62	0x3d1b085d	0.037849773
63	0xbc458bdd	-0.012057272

bn2.running_mean f4 [64]
0	0x00000000	0.0
1	0x00000000	0.0
2	0x00000000	0.0
3	0x00000000	0.0
4	0x3cf794ef	0.030222384
5	0x3d0c9279	0.034319375
6	0x00000000	0.0
7	0x3ca15f4a	0.019698758
8	0x3c41cd7b	0.0118287755
9	0x00000000	0.0
10	0x3ce3a801	0.027790071
11	0x3d538676	0.051641904
12	0x3cffb196	0.03121261
13	0x3c606785	0.013696556
14	0x3cf91cb7	0.0304092
15	0x3cded970	0.027203292
16	0x3ce27eeb	0.02764841
17	0x3c721fa1	0.014778049
18	0x3d123b72	0.035701223
19	0x3d8dbbb6	0.06920569
20	0x3c72e42a	0.014824906
21	0x3d0f5ea2	0.03500236
22	0x3d0063fc	0.031345353
23	0x3c6a6c3e	0.0143080335
24	0x00000000	0.0
25	0x3cdb4e0d	0.026770616
26	0x00000000	0.0
27	0x3d5e0dd7	0.054212417
28	0x3c5a4d0f	0.013324036
29	0x3d03aa94	0.032145098
30	0x3c5d8a22	0.013521703
31	0x00000000	0.0
32	0x3d417349	0.047229085
33	0x00000000	0.0
34	0x00000000	0.0
35	0x3c77a546	0.015115088
36	0x3c6086f5	0.013704051
37	0x3ce9cce3	0.02854008
38	0x3d2122df	0.039339896
39	0x00000000	0.0
40	0x3ca12169	0.019669252
41	0x3d0d9846	0.034569047
42	0x3cd80a6e	0.02637216
43	0x3c5edefe	0.01360297
44	0x3cceb3bb	0.025232187
45	0x3c6dc33d	0.01451188
46	0x3ceac6df	0.028659282
47	0x00000000	0.0
48	0x3c6f99bf	0.014624058
49	0x3cea99b7	0.02863775
50	0x3ca26071	0.019821377
51	0x00000000	0.0
52	0x3cd88f99	0.02643566
53	0x3c4ee60d	0.012628091
54	0x00000000	0.0
55	0x3cec560f	0.02884963
56	0x00000000	0.0
57	0x3d5b03bc	0.05347036
58	0x3cff6a90	0.031178743
59	0x3c544358	0.012955509
60	0x3c6ef9fd	0.014585969
61	0x00000000	0.0
62	0x00000000	0.0
63	0x3c47ce7a	0.012195224

bn2.running_var f4 [64]
0	0x00000004	6e-45
1	0x00000004	6e-45
2	0x00000004	6e-45
3	0x00000004	6e-45
4	0x3a3581a8	0.00069239223
5	0x3a6792d4	0.000883383
6	0x00000004	6e-45
7	0x3a21eda2	0.00061770726
8	0x395e22f5	0.00021184592
9	0x00000004	6e-45
10	0x3a09ab9d	0.00052517076
11	0x3ae7816f	0.0017662476
12	0x3a33e379	0.0006862204
13	0x39912779	0.00027685965
14	0x3a33b3a3	0.0006855076
15	0x3a1a8540	0.00058944896
16	0x3a24fc1e	0.0006293672
17	0x39a1e802	0.00030881172
18	0x3b0ad009	0.0021181128
19	0x3b1e693c	0.0024171611
20	0x39a02c93	0.00030550789
21	0x3a7508d9	0.00093473267
22	0x3a37e0c2	0.00070143875
23	0x399c6bca	0.00029834948
24	0x00000004	6e-45
25	0x39f43b3b	0.00046583437
26	0x00000004	6e-45
27	0x3b121e73	0.0022295981
28	0x3981d978	0.00024766824
29	0x3a26b280	0.0006358996
30	0x398a5331	0.00026383394
31	0x00000004	6e-45
32	0x3ad9dc2c	0.0016621402
33	0x00000004	6e-45
34	0x00000004	6e-45
35	0x39b2700f	0.00034034296
36	0x3983e508	0.0002515691
37	0x3a292c2c	0.00064534205
38	0x3a937b9e	0.0011252051
39	0x00000004	6e-45
40	0x3a1691b3	0.0005743757
41	0x3aff1413	0.0019460939
42	0x3a0f9e9f	0.00054786535
43	0x39817a57	0.00024695948
44	0x39e16614	0.00042991398
45	0x399b280b	0.00029593738
46	0x3aa0a518	0.0012256233
47	0x00000004	6e-45
48	0x399d7440	0.00030031987
49	0x3a28733f	0.00064258644
50	0x39e0492a	0.0004277912
51	0x00000004	6e-45
52	0x3a0c7149	0.0005357457
53	0x396f758f	0.0002283661
54	0x00000004	6e-45
55	0x3a29fae5	0.00064842246
56	0x00000004	6e-45
57	0x3b206edb	0.0024480138
58	0x3a2e3703	0.00066457706
59	0x3981aca7	0.00024733433
60	0x399e7df6	0.00030229957
61	0x00000004	6e-45
62	0x00000004	6e-45
63	0x39851b81	0.0002538823

fc3.weight f4 [4, 64]
0	0xbdc4afe3	-0.0960386
1	0x3df174a2	0.11789824
2	0xbdd49760	-0.10380435
3	0xbdc0e0b5	-0.094178595
4	0x3e33e7e5	0.1756893
5	0x3e48a930	0.1959579
6	0xbd4059d0	-0.046960652
7	0xbb12b6db	-0.0022386822
8	0xbd8145d9	-0.063121505
9	0xbe238262	-0.15967706
10	0xbab9c65c	-0.0014173496
11	0xbdcde402	-0.10053255
12	0xbce2b873	-0.027675843
13	0xbd7b9606	-0.06142237
14	0x3e174478	0.14772213
15	0x3e47572a	0.19466844
16	0xbda56943	-0.08076718
17	0xbdcde739	-0.10053868
18	0x3d399d03	0.045315754
19	0xbc503191	-0.01270713
20	0x3d0a5867	0.033775713
21	0x3d348c71	0.044079248
22	0x3e2d68e2	0.16934541
23	0xbe2256e0	-0.15853453
24	0xbd699b50	-0.057032883
25	0x3e1246aa	0.14284769
26	0x3db72577	0.08942693
27	0x3e059055	0.1304334
28	0xbe2ccbd2	-0.16874626
29	0xbc453c88	-0.012038358
30	0xbe2a81ed	-0.16651125
31	0xbd24ed81	-0.040265564
32	0x3e42aef8	0.19012058
33	0x3dea84c1	0.11451102
34	0x3df1c05a	0.11804266
35	0xbe36aa60	-0.1783843
36	0xbe41e23a	-0.18933955
37	0x3da2f4eb	0.07956871
38	0x3e61ba53	0.22043733
39	0x3e04d01b	0.12970011
40	0x3c9114c5	0.017710099
41	0xbe1696cf	-0.14705966
42	0x3d9ff2fd	0.07810018
43	0xbc8ceb84	-0.017202146
44	0x3e3fdbc7	0.18736182
45	0xbe45731c	-0.19282192
46	0xbe31a71f	-0.17348908
47	0x3dd7f873	0.10545435
48	0xbe3f68f4	-0.1869238
49	0x3e4125a1	0.1886201
50	0x3e01b920	0.12668276
51	0xbd7ca5ce	-0.06168156
52	0x3e17f6ca	0.14840236
53	0xbd1f59c2	-0.03890396
54	0xbde828f9	-0.1133594
55	0x3e23f0fd	0.16009898
56	0x3d96bd96	0.073603794
57	0xbded1b90	-0.11577523
58	0x3dfe4038	0.124145925
59	0xbe040c92	-0.1289542
60	0xbddd8aab	-0.108174644
61	0x3e2ec7ec	0.17068452
62	0x3d93dac3	0.0721946
63	0x3c115337	0.008869938
64	0x3a8d0823	0.0010759871
65	0x3de7e0c0	0.113221645
66	0xbe57069a	-0.20998612
67	0xbd50e6aa	-0.05100123
68	0x3d8241ec	0.0636023
69	0x3e12d3c3	0.14338593
70	0xbe4cf2a1	-0.2001443
71	0xbe2d6454	-0.16932803
72	0xbe38ac27	-0.18034421
73	0xbdb4263e	-0.087963566
74	0x3e5d23ef	0.21595739
75	0x3c94b760	0.018153846
76	0x3dca4349	0.09876115
77	0xbe3a99fc	-0.18222803
78	0x3e18c439	0.14918603
79	0xbdb4d9ee	-0.08830629
80	0xbd8bf4f6	-0.06833832
81	0xbdffa980	-0.124835014
82	0xbe103518	-0.14082754
83	0x3e1580af	0.1459987
84	0xbd540600	-0.051763535
85	0x3da00ba7	0.078147225
86	0x3e4ad480	0.19807625
87	0xbe10375b	-0.14083616
88	0xbe26c517	-0.16286121
89	0x3dc388df	0.095475905
90	0x3e470e72	0.19439104
91	0x3e207797	0.1567062
92	0xbccc4eeb	-0.024939975
93	0x3e273353	0.16328172
94	0xbdbc424c	-0.091923326
95	0xbdf7d70e	-0.12101565
96	0x3e0c6760	0.1371131
97	0x3d90a3e9	0.070625134
98	0x3ddddb7f	0.10832881
99	0xbe2cc845	-0.16873272
100	0xbcb5460a	-0.022128124
101	0xbd438e24	-0.047742978
102	0x3e61935d	0.22028871
103	0x3d5e2d09	0.054242168
104	0xbe532709	-0.2062036
105	0xbd1a5f9b	-0.037688833
106	0xbc3295d3	-0.010899979
107	0xbcf5acb1	-0.029989572
108	0x3dee5cf7	0.116388254
109	0xbdc58ad9	-0.09645624
110	0xbdf0d5fe	-0.11759566
111	0x3e557f36	0.20849308
112	0xbda0edf2	-0.078578845
113	0xbc6e534d	-0.014546228
114	0x3d3c6187	0.045991447
115	0xbe61e4d9	-0.22059955
116	0x3d252db7	0.0403268
117	0xbdfd883c	-0.123795
118	0xbdae1b98	-0.08501357
119	0xbd152c87	-0.036419418
120	0x3e83f725	0.25774494
121	0xbe119340	-0.14216328
122	0x3e3c7f94	0.18408042
123	0xbe13f605	-0.14449318
124	0xbe0815ce	-0.13289568
125	0x3da12c41	0.07869769
126	0x3dd9587d	0.10612581
127	0xbe335fb2	-0.17516974
128	0xbc640122	-0.013916286
129	0xbc089725	-0.008336817
130	0x3ce46367	0.02787943
131	0x3d2b828c	0.041872546
132	0x3e1ab6b2	0.15108755
133	0x3e4edb10	0.20200753
134	0x3e11a695	0.14223702
135	0x3ccd1e02	0.025038723
136	0x3d8e816a	0.069582775
137	0x3e2221c8	0.15833199
138	0x3e4b00be	0.19824502
139	0x3e471030	0.19439769
140	0x3e4a4588	0.19753087
141	0x3b777cc7	0.0037763582
142	0x3e425f8a	0.18981758
143	0x3ddbb234	0.10727349
144	0x3e20b2c9	0.15693201
145	0xbe47e6c6	-0.19521627
146	0xbc83c8bd	-0.01608693
147	0xbdad5a3d	-0.08464477
148	0xbe44a38a	-0.1920301
149	0x3e417f52	0.18896225
150	0xbb74c5c6	-0.0037349327
151	0x3cfb719f	0.030693827
152	0x3d9fa207	0.07794576
153	0x3defa993	0.117022656
154	0xbd0b4991	-0.034005705
155	0x3e9a3da1	0.30125144
156	0xbe38a369	-0.18031086
157	0x3daf8021	0.085693605
158	0xbe388e1e	-0.18022963
159	0x3e346a21	0.1761861
160	0x3e4d50bb	0.20050327
161	0xbe282d1b	-0.16423456
162	0x3d85cfe5	0.06533793
163	0xbe09c8c9	-0.134555
164	0xbe39b58e	-0.18135664
165	0x3e0ab9a7	0.13547383
166	0xbcbee271	-0.023301335
167	0xbdbdb99b	-0.09263917
168	0xbe9315a1	-0.2872744
169	0xbc50e684	-0.012750272
170	0x3d9f9dc7	0.077937655
171	0xbe3e646a	-0.18592992
172	0x3df9881e	0.121841654
173	0xbe4fa9a5	-0.20279558
174	0xbc233d55	-0.009963353
175	0xbdd2cd86	-0.10293107
176	0x3b8b64b2	0.004253947
177	0x3da294ac	0.07938513
178	0xbe338130	-0.1752975
179	0xbc986001	-0.018600466
180	0x3dbf0543	0.093271755
181	0x3d570ba6	0.052501343
182	0xbd68ccf1	-0.056836072
183	0x3e2654a0	0.1624322
184	0xbe242f7a	-0.16033736
185	0x3e69090c	0.22757357
186	0x3e158598	0.14601743
187	0x3d4bfa27	0.04979911
188	0x3c0a1031	0.008426712
189	0xbcca8cda	-0.024725366
190	0xbe001bac	-0.12510556
191	0xbdf2c683	-0.11854269
192	0x3ce7d734	0.028300859
193	0x3d23b790	0.03996998
194	0x3e20bf1f	0.15697907
195	0xbcec3256	-0.028832596
196	0x3e21684c	0.15762442
197	0x3e4316fe	0.1905174
198	0x3d901c6b	0.0703667
199	0xbdc6a36f	-0.09699141
200	0xbe2bf492	-0.16792515
201	0x3dec9f2e	0.115537986
202	0x3dc68e59	0.096951194
203	0x3da2fe4e	0.07958661
204	0x3db9db4b	0.0907503
205	0xbe512390	-0.20423722
206	0x3e418f58	0.18902338
207	0x3e504805	0.20339973
208	0x3e3295c0	0.17439938
209	0xbe375a2a	-0.17905489
210	0xbd187446	-0.037220262
211	0x3deafd7e	0.11474131
212	0xbd9dfe44	-0.07714513
213	0x3e613b08	0.21995175
214	0x3e395c9b	0.18101732
215	0xbe29bec7	-0.16576682
216	0x3e003961	0.12521888
217	0xbd8f3c9b	-0.069939815
218	0xbc201a18	-0.009771846
219	0x3e64df76	0.22350869
220	0xbb0f8cf1	-0.0021904076
221	0x3cf605e8	0.030032113
222	0xbd96e84e	-0.07368527
223	0x3e050033	0.12988357
224	0x3d396605	0.04526331
225	0xbe2e43a3	-0.17017989
226	0xbd84e259	-0.06488485
227	0xbe0343d7	-0.12818848
228	0xbe2fd96e	-0.17172787
229	0x3e0383fe	0.1284332
230	0x3daf2c24	0.08553341
231	0xbdbc6fc5	-0.09201006
232	0xbe42f2f3	-0.1903799
233	0x3dd364f8	0.10321993
234	0x3df74113	0.12072959
235	0xbe19c9f8	-0.15018451
236	0xbced20bb	-0.028946271
237	0xbe3343fb	-0.17506401
238	0x3d775149	0.060380254
239	0xbc8da418	-0.01729016
240	0xbe03674e	-0.12832376
241	0x3e5c1eb0	0.21496081
242	0xbdbde8be	-0.09272908
243	0x3e18c753	0.14919786
244	0x3e451ce0	0.19249296
245	0xbe2b6981	-0.16739465
246	0x3d7c647f	0.061619278
247	0x3e313bb0	0.17307925
248	0x3ce084d0	0.02740708
249	0x3dbf3b90	0.093375325
250	0xbbca4b60	-0.006173536
251	0xbe1c266a	-0.15249029
252	0xbe63cdb2	-0.22246435
253	0xbc0db4d2	-0.008649068
254	0x3bd60db2	0.0065323943
255	0x3c47356e	0.012158735

fc3.bias f4 [4]
0	0x3dcd4b0e	0.10024081
1	0xbc90662c	-0.017626844
2	0xbcc90c53	-0.02454201
3	0x3da955a0	0.08268285
