checkpoint_critic.pth (torch_old, 207368 bytes, 11 tensors)

fcs1.weight f4 [256, 33]
000000 91 9c 7e 80 f9 0a 9b 00 5d ef 86 80 29 61 2f 80
       -1.1627438e-38 1.4238438e-38 -1.2391824e-38 -4.351123e-39
000010 ac bf 5c 81 34 dc c0 00 12 29 15 00 ec 3f 22 80
       -4.0545136e-38 1.7711409e-38 1.943279e-39 -3.145338e-39
000020 6c ab 9e 00 40 17 73 80 6a 27 62 00 f9 fe 1c 00
       1.4571503e-38 -1.0569423e-38 9.014018e-39 2.662861e-39
000030 eb 35 c9 00 81 f4 98 80 17 c1 a6 80 cf e9 c2 00
       1.8478277e-38 -1.4046707e-38 -1.531396e-38 1.7899961e-38
000040 cb e8 8c 00 fb 5e 4e 00 0e d9 d6 00 88 54 e4 80
       1.294048e-38 7.197241e-39 1.9730661e-38 -2.0968817e-38
000050 c0 86 96 00 45 78 f5 00 d4 98 30 80 0d 86 b6 80
       1.3823664e-38 2.2542841e-38 -4.462928e-39 -1.6762149e-38
000060 98 f2 5f 80 53 7c 49 80 84 45 90 80 94 95 a2 80
       -8.811398e-39 -6.74859e-39 -1.3249249e-38 -1.4931009e-38
000070 f8 f4 7e 80 2d 53 a9 00 da e2 ca 00 ca 25 50 00
       -1.1659151e-38 1.5550037e-38 1.8632149e-38 7.360396e-39
000080 e8 07 0a 80 4d a9 5c 00 85 4d 4a 00 7c 94 1c 80
       -9.21191e-40 8.5096e-39 6.823635e-39 -2.62466e-39
000090 99 b5 80 80 7c 4c cd 80 70 45 58 00 d7 21 c2 80
       -1.1820088e-38 -1.8853714e-38 8.106433e-39 -1.7828226e-38
0000a0 b4 ac 27 00 b2 f2 b9 80 3d 39 3d 80 fe 07 2a 00
       3.643539e-39 -1.707663e-38 -5.622498e-39 3.859958e-39
0000b0 d6 e8 4f 00 87 7a d3 00 f8 e6 f0 00 bc 3a 32 00
       7.33853e-39 1.9421244e-38 2.2123375e-38 4.612845e-39
0000c0 6d 46 8a 80 c4 2a 3a 00 c9 ea bd 00 e0 93 cc 00
       -1.2698562e-38 5.3418e-39 1.7441134e-38 1.8787489e-38
0000d0 d7 fd 73 80 98 32 23 80 fb f7 25 00 1d f2 af 80
       -1.0652143e-38 -3.232392e-39 3.486872e-39 -1.6158066e-38
0000e0 65 9a 12 00 fd e5 95 00 67 77 d5 00 48 59 01 80
       1.708425e-39 1.3765993e-38 1.9603794e-38 -1.23864e-40
0000f0 16 ab 25 00 f3 b1 5c 00 48 6e cd 80 82 cd cf 00
       3.459287e-39 8.512702e-39 -1.8865838e-38 1.908367e-38
000100 96 12 05 80 6b d6 27 80 ff 7b 76 80 b9 17 ba 00
       -4.65845e-40 -3.658503e-39 -1.088107e-38 1.7089912e-38
000110 cc 2a 91 80 e1 52 d3 00 82 d3 24 00 90 b7 33 80
       -1.33315e-38 1.9407021e-38 3.381953e-39 -4.74946e-39
000120 fa 49 25 80 39 32 b7 00 83 79 2b 80 7a 6f 72 00
       -3.424451e-39 1.6823912e-38 -3.992517e-39 1.0509237e-38
000130 33 c2 81 00 03 40 15 00 fe 24 00 80 10 a5 86 00
       1.1916445e-38 1.951508e-39 -1.327e-41 1.236517e-38
000140 cb fa 79 80 89 33 3c 00 c4 70 16 00 37 2d cd 80
       -1.1202063e-38 5.528617e-39 2.060834e-39 -1.8842497e-38
000150 bb 2e 55 80 5c 17 a8 80 32 92 3d 00 d6 bc dd 80
       -7.822781e-39 -1.5436743e-38 5.65441e-39 -2.0363386e-38
000160 cc 60 2a 00 a4 11 ba 00 68 9a 08 00 db 21 d0 80
       3.891815e-39 1.708773e-38 7.90074e-40 -1.9113928e-38
000170 41 29 8e 00 30 b5 eb 80 8b 2b e7 00 4e 37 8e 00
       1.305544e-38 -2.164634e-38 2.122962e-38 1.306048e-38
000180 4f da 53 80 c1 ba 5d 80 f4 c2 c3 80 97 b6 78 00
       -7.70066e-39 -8.607696e-39 -1.7977858e-38 1.108576e-38
000190 1f 97 2b 00 33 e0 15 00 31 6e 48 00 88 28 6b 00
       4.003138e-39 2.008973e-39 6.651685e-39 9.840938e-39
0001a0 35 cb f3 80 82 7d 2a 00 a8 e7 21 80 cd 17 31 80
       -2.2388923e-38 3.902115e-39 -3.113674e-39 -4.508477e-39
0001b0 6e 9a 39 00 c5 82 87 00 b6 07 3b 00 91 e8 3a 80
       5.290022e-39 1.2444703e-38 5.42106e-39 -5.409888e-39
0001c0 93 01 10 00 aa 7f 5b 80 7a d6 29 00 65 0a 97 80
       1.469933e-39 -8.402827e-39 3.842195e-39 -1.3870889e-38
0001d0 f7 ba 84 80 7a ad c8 00 4f fa 6c 80 af ee 0c 00
       -1.2189356e-38 1.8429331e-38 -1.0008027e-38 1.18765e-39
0001e0 22 20 02 00 dc c5 a7 00 d4 f9 3f 80 4d 3b 16 00
       1.95198e-40 1.5407506e-38 -5.875258e-39 2.041654e-39
0001f0 c8 cf 9b 00 4a 52 8b 80 12 26 b0 80 8a 12 4f 80
       1.430904e-38 -1.2794654e-38 -1.6176704e-38 -7.261655e-39
000200 0b 98 d7 80 84 b4 98 80 92 e3 df 00 36 f0 8d 00
       -1.9799174e-38 -1.4023752e-38 2.0560952e-38 1.3034976e-38
000210 92 38 d4 00 72 66 bd 00 48 f7 75 80 dc 70 e2 01
       1.9489419e-38 1.7393659e-38 -1.0833461e-38 8.3181234e-38
000220 ec 54 3c 00 3c b9 0d 80 54 35 38 80 f6 78 21 80
       5.540594e-39 -1.260311e-39 -5.161918e-39 -3.073964e-39
000230 b4 b3 d0 00 dc 5b 7a 80 d0 da 8d 00 f0 61 5c 80
       1.9166249e-38 -1.1236883e-38 1.30273e-38 -8.483999e-39
000240 9c 8d 4f 00 00 4e 4d 80 29 e8 1c 80 b4 6c 6e 80
       7.305804e-39 -7.099314e-39 -2.654677e-39 -1.01409e-38
000250 b0 58 77 00 00 ef 84 00 bb 77 b1 00 e0 d2 b1 80
       1.0960239e-38 1.2208023e-38 1.6297834e-38 -1.633053e-38
000260 66 72 9d 00 1a 8c 15 00 be 10 14 00 48 fa 56 00
       1.4459211e-38 1.978804e-39 1.842716e-39 7.987637e-39
000270 5a da 0c 00 82 f8 3e 80 55 8d 20 80 06 1b 9b 80
       1.180356e-39 -5.782949e-39 -2.989436e-39 -1.4244196e-38
000280 94 94 23 00 d6 ee 51 00 a8 7e b2 80 95 0c 94 00
       3.267542e-39 7.524353e-39 -1.6392154e-38 1.3596167e-38
000290 5b 4a 75 80 29 93 be 00 82 c8 6c 00 14 f1 1b 00
       -1.0771427e-38 1.7501535e-38 9.990162e-39 2.566041e-39
0002a0 44 d1 01 00 cc bc ec 80 c2 67 f4 00 20 a0 87 80
       1.66906e-40 -2.1740905e-38 2.2445082e-38 -1.2455234e-38
0002b0 75 8e 4b 00 af 4c 6d 80 59 d3 02 00 e0 a0 1f 81
       6.938766e-39 -1.0037578e-38 2.59488e-40 -2.931911e-38
0002c0 cc 16 42 80 92 eb aa 80 25 a7 ce 00 78 18 72 00
       -6.069321e-39 -1.5696541e-38 1.8978072e-38 1.0478024e-38
0002d0 ad 02 07 80 f3 ef ae 80 b4 de 29 80 fe 92 68 80
       -6.43808e-40 -1.6065454e-38 -3.845146e-39 -9.603622e-39
0002e0 d6 c5 90 01 58 41 a1 00 0a b6 a6 80 5b bb 07 02
       5.3181126e-38 1.4808956e-38 -1.5309996e-38 9.972002e-38
0002f0 36 68 b9 00 33 f5 84 80 cc c1 96 80 8b f7 63 00
       1.702695e-38 -1.2210246e-38 -1.3844846e-38 9.180516e-39
000300 af 16 ee 80 a9 da 3e 00 dd a9 66 80 e8 2a 8e 00
       -2.1864985e-38 5.772241e-39 -9.428156e-39 1.3056032e-38
000310 3a 28 1c 00 f8 4d e4 80 5c 59 60 00 ee cb 31 00
       2.585824e-39 -2.0966463e-38 8.848264e-39 4.573095e-39
000320 83 fd ae 01 a2 44 44 00 86 ed 89 01 82 a9 df 80
       6.4281277e-38 6.269435e-39 5.066668e-38 -2.0540124e-38
000330 7f c0 dd 01 61 cc a0 00 44 6c 86 00 57 57 23 00
       8.1458797e-38 1.4766997e-38 1.2344795e-38 3.245574e-39
000340 d8 18 0e 00 56 07 a9 00 f7 f8 3c 80 8e cf 7f 00
       1.294609e-39 1.552283e-38 -5.599442e-39 1.1737565e-38
000350 9e 03 2a 00 74 ba 5f 80 18 77 9e 00 3e 4f 69 80
       3.858388e-39 -8.791259e-39 1.4552731e-38 -9.671154e-39
000360 69 81 27 00 96 8d df 80 77 30 86 00 42 ed 16 00
       3.628008e-39 -2.0530107e-38 1.2323342e-38 2.105493e-39
000370 28 93 97 80 07 57 02 00 f4 27 76 00 50 80 ef 80
       -1.391995e-38 2.1489e-40 1.0850921e-38 -2.1994713e-38
000380 4d 33 0a 80 38 73 3d 80 b0 ef 21 00 c8 2d a1 00
       -9.36758e-40 -5.643298e-39 3.116555e-39 1.4801938e-38
000390 d5 ba 46 00 70 42 47 00 f2 68 10 00 6c f1 d4 00
       6.495507e-39 6.544154e-39 1.507015e-39 1.9555731e-38
0003a0 5e 3d 98 00 2d b9 57 00 c7 1e d7 80 88 58 3f 00
       1.398101e-38 8.056117e-39 -1.9755673e-38 5.817395e-39
0003b0 e7 89 cf 01 42 4a c2 80 5f e3 85 80 92 81 12 80
       7.623767e-38 -1.7842725e-38 -1.2295686e-38 -1.69952e-39
0003c0 f0 6a 39 00 2b 3d 3f 00 f6 02 4d 00 3f 9b d5 80
       5.272985e-39 5.807579e-39 7.072395e-39 -1.9616652e-38
0003d0 c9 b0 1b 00 51 18 f4 80 ac 91 ac 80 28 66 bf 80
       2.542977e-39 -2.2416584e-38 -1.5847963e-38 -1.7577227e-38
0003e0 58 85 d4 00 58 17 27 00 a0 50 8c 80 34 c3 d8 80
       1.951696e-38 3.589959e-39 -1.2885892e-38 -1.9906493e-38
0003f0 1e 5d 88 80 96 98 27 00 ea 90 46 00 80 b4 f3 80
       -1.2523032e-38 3.636322e-39 6.48047e-39 -2.2380777e-38

fcs1.bias f4 [256]
000000 4d bd 0a 00 4b d6 3b 80 3f a5 26 00 6e 86 33 00
       9.86263e-40 -5.495168e-39 3.549028e-39 4.731835e-39
000010 a6 28 16 00 66 62 4c 80 48 cb 4a 00 fc 89 6d 80
       2.034963e-39 -7.014796e-39 6.86875e-39 -1.0059569e-38
000020 27 00 87 00 6a 54 b1 80 72 ba 1c 00 e0 42 c6 00
       1.2397847e-38 -1.6285165e-38 2.638278e-39 1.8207418e-38
000030 e2 f6 43 00 48 de ab 00 70 7e 21 00 66 8c 27 00
       6.241543e-39 1.578361e-38 3.075929e-39 3.63195e-39
000040 73 dd 97 80 43 e6 7c 00 16 d0 ba 00 da 39 79 80
       -1.3946601e-38 1.1470204e-38 1.715605e-38 -1.1132848e-38
000050 b2 6a 06 80 91 cf af 00 10 78 3c 00 75 63 2a 00
       -5.89288e-40 1.6145673e-38 5.5532e-39 3.892769e-39
000060 1f e9 51 80 bd 25 45 80 d5 09 be 00 dd 4a 68 00
       -7.522303e-39 -6.350187e-39 1.7452271e-38 9.577747e-39
000070 f5 c1 58 00 a6 67 46 00 f3 9b 44 80 aa a3 c0 00
       8.151102e-39 6.465667e-39 -6.300758e-39 1.7691127e-38
000080 2e 39 db 80 55 d4 b2 80 14 b7 40 00 91 11 b9 80
       -2.0132486e-38 -1.6422889e-38 5.943148e-39 -1.6995868e-38
000090 e9 9e dc 00 37 a1 38 00 73 aa 72 80 db 1b 89 00
       2.0260815e-38 5.200621e-39 -1.0530392e-38 1.2591456e-38
0000a0 f5 ba 74 80 5e 11 a6 00 d2 bd 0c 00 6f b8 4d 80
       -1.0719985e-38 1.5250923e-38 1.17012e-39 -7.137496e-39
0000b0 32 c5 40 80 7a 66 34 80 ac c0 aa 00 38 cb c8 80
       -5.948212e-39 -4.812207e-39 1.5681152e-38 -1.844e-38
0000c0 68 3c 35 00 49 ed 92 80 5d b4 41 80 36 8a 71 80
       4.888951e-39 -1.3493104e-38 -6.03401e-39 -1.0426992e-38
0000d0 4e 2d 68 00 31 61 95 80 6d 09 57 80 3e 54 6f 80
       9.567144e-39 -1.3718355e-38 -7.99307e-39 -1.022396e-38
0000e0 74 d2 22 80 b6 2f 7d 80 4e 7b bc 80 5b cc 6a 00
       -3.197903e-39 -1.1496552e-38 -1.7309307e-38 9.807872e-39
0000f0 e7 a9 d5 80 de 67 13 80 56 cb 54 80 b0 e1 15 00
       -1.962191e-38 -1.782135e-39 -7.787125e-39 2.009507e-39
000100 3e bc 00 80 78 b9 17 00 b0 4b 5c 80 5f 92 bc 80
       -6.7529e-41 2.17875e-39 -8.476017e-39 -1.7317581e-38
000110 9c 7e 40 00 c0 3e 24 00 88 3f 8f 00 f4 b2 eb 00
       5.92289e-39 3.328588e-39 1.3155267e-38 2.1645538e-38
000120 02 6b 22 00 0b 83 7c 80 39 65 d3 00 c2 d6 eb 00
       3.160794e-39 -1.1434611e-38 1.9413602e-38 2.1658382e-38
000130 55 55 1e 00 6a d7 19 00 fd 24 9e 00 e7 cc d5 00
       2.785676e-39 2.373163e-39 1.4523277e-38 1.9634466e-38
000140 47 2c 8d 80 22 8d 1f 80 6a ac ba 80 1f 43 4f 00
       -1.2964689e-38 -2.897529e-39 -1.7143253e-38 7.279083e-39
000150 20 9c ef 00 5e b5 05 00 cd b4 25 00 48 68 45 80
       2.200469e-38 5.2424e-40 3.462772e-39 -6.374058e-39
000160 44 88 d6 80 8c e2 4e 80 42 7b a8 00 07 85 61 80
       -1.9701679e-38 -7.244438e-39 1.547258e-38 -8.955764e-39
000170 0a 38 7f 80 ac 2f 31 80 9f 6b 69 80 40 9f 34 80
       -1.1683211e-38 -4.517041e-39 -9.681334e-39 -4.832574e-39
000180 7c 04 77 00 40 23 65 80 ea ed ae 80 dc 21 76 80
       1.0930033e-38 -9.28803e-39 -1.6064724e-38 -1.0848735e-38
000190 ac 0b 72 00 53 ed 08 00 b0 af c6 00 f7 06 f4 80
       1.0473434e-38 8.1982e-40 1.8246453e-38 -2.241036e-38
0001a0 91 7a 36 80 fc f0 c9 80 8a c0 1c 00 87 05 47 00
       -5.003085e-39 -1.8545384e-38 2.640464e-39 6.522303e-39
0001b0 98 cb 06 00 43 60 1d 80 dc fb 30 80 75 74 5d 80
       6.24049e-40 -2.697762e-39 -4.498454e-39 -8.582478e-39
0001c0 2c 03 57 00 66 c3 0c 80 22 bc 84 80 06 c5 7c 80
       7.990826e-39 -1.172122e-39 -1.2189775e-38 -1.145828e-38
0001d0 e2 19 d4 80 b6 79 11 80 d2 2b 7d 00 b0 ea 0d 80
       -1.947841e-38 -1.604865e-39 1.1495157e-38 -1.278051e-39
0001e0 a9 87 cb 00 62 cc 1c 00 79 9a f3 80 ec 17 83 00
       1.8691271e-38 2.644713e-39 -2.237144e-38 1.2039032e-38
0001f0 4e f9 5a 80 fa 88 22 00 f5 33 06 00 80 df c7 80
       -8.354628e-39 3.171545e-39 5.69652e-40 -1.835544e-38
000200 ce 65 ea 00 a1 b2 80 80 2c 0e dc 00 65 9a 51 00
       2.1526027e-38 -1.1819023e-38 2.0208893e-38 7.494062e-39
000210 12 f1 84 00 d7 78 e4 00 81 c7 a5 00 f7 08 9e 80
       1.2208765e-38 2.0981842e-38 1.5224425e-38 -1.4513224e-38
000220 47 18 ad 00 54 64 c9 00 df 57 8d 80 d1 9e d1 80
       1.589625e-38 1.8494926e-38 -1.2980327e-38 -1.9250591e-38
000230 8a b2 91 00 5a 39 26 00 4d a6 3e 80 67 de 77 80
       1.3380195e-38 3.510323e-39 -5.753458e-39 -1.1008207e-38
000240 3c 87 6e 00 d5 f2 36 00 04 6a 15 80 1a 03 0a 00
       1.0150418e-38 5.046229e-39 -1.966577e-39 9.19468e-40
000250 d9 e6 96 80 05 ce 93 80 ae b5 0d 80 54 d5 df 81
       -1.3858137e-38 -1.3573724e-38 -1.259036e-39 -8.2223373e-38
000260 ad 05 25 00 ba ef b5 00 c6 26 60 80 e6 2e 0a 80
       3.39995e-39 1.6708222e-38 -8.830117e-39 -9.35179e-40
000270 23 4e de 80 ca 19 02 00 5f e0 d6 00 86 4e 64 80
       -2.041551e-38 1.92922e-40 1.9733285e-38 -9.211719e-39
000280 77 b7 f3 80 03 87 05 80 e8 59 ff 80 4e fa 51 00
       -2.238184e-38 -5.0761e-40 -2.3450304e-38 7.528468e-39
000290 b3 6e 20 80 4e 29 60 80 a7 aa db 00 93 8a 9f 00
       -2.978447e-39 -8.831025e-39 2.0173192e-38 1.4651555e-38
0002a0 a3 f6 8c 00 41 b1 3b 00 60 4e 5b 00 c7 fc 21 80
       1.2945446e-38 5.481881e-39 8.385146e-39 -3.121251e-39
0002b0 46 1a 59 00 8a 12 78 00 20 10 1c 00 dd 2e 45 80
       8.182784e-39 1.102691e-38 2.577178e-39 -6.35346e-39
0002c0 4a 34 9d 00 83 f5 e9 00 7a 50 e6 80 5c 71 2f 00
       1.443693e-38 2.1485744e-38 -2.1151034e-38 4.356934e-39
0002d0 af 82 70 00 64 d4 5e 00 4b 59 4c 00 4d c7 d7 80
       1.0332456e-38 8.708728e-39 7.01153e-39 -1.9816127e-38
0002e0 a6 87 86 80 f6 cd 12 80 6e f2 b0 80 0f 14 78 00
       -1.2354618e-38 -1.726924e-39 -1.6250015e-38 1.1027455e-38
0002f0 5e 99 75 00 ab 93 11 00 fa 1b 81 80 be ab c6 80
       1.0799771e-38 1.614177e-39 -1.1856815e-38 -1.8245038e-38
000300 8a b3 75 00 9c 53 7a 00 ae de 26 80 d8 01 08 80
       1.080916e-38 1.1233924e-38 -3.569631e-39 -7.35345e-40
000310 2f 76 7b 80 bd 70 de 80 eb a8 1f 00 38 c4 43 80
       -1.1338162e-38 -2.0427923e-38 2.907497e-39 -6.223368e-39
000320 d4 25 24 00 50 cf 2d 80 e7 b9 4f 80 a4 cf 1d 00
       3.319648e-39 -4.206967e-39 -7.321693e-39 2.737717e-39
000330 7b cd b8 00 88 44 5d 80 b0 db ed 80 83 c8 99 00
       1.6971444e-38 -8.565286e-39 -2.1843822e-38 1.4122761e-38
000340 14 ac 11 00 16 17 d5 80 57 76 42 80 67 58 ac 01
       1.622933e-39 -1.9569242e-38 -6.103595e-39 6.330967e-38
000350 43 4e 34 00 1b 30 19 00 f3 8c 57 80 e4 25 48 00
       4.803521e-39 2.313144e-39 -8.040251e-39 6.625748e-39
000360 78 0c eb 80 08 a8 27 80 36 d5 13 00 d0 d8 0e 80
       -2.1585815e-38 -3.641863e-39 1.82136e-39 -1.363475e-39
000370 10 69 99 80 89 e3 4c 00 a2 b9 19 80 d3 80 a1 80
       -1.408852e-38 7.061122e-39 -2.36248e-39 -1.4831728e-38
000380 85 0e 9a 80 6c 80 52 00 6f ca f5 00 7a ed 6d 00
       -1.4147875e-38 7.57658e-39 2.2572316e-38 1.009526e-38
000390 a8 c7 a6 80 ec 58 3e 00 b8 02 97 00 70 0f e3 00
       -1.5316316e-38 5.7257e-39 1.3868135e-38 2.0852196e-38
0003a0 d6 b9 0c 80 4a 39 9a 00 43 ba 65 00 ac 8e 53 00
       -1.168691e-39 1.4163218e-38 9.342203e-39 7.673527e-39
0003b0 2e 93 a1 00 4c 9f e7 80 9a 71 01 80 b3 17 07 80
       1.4838313e-38 -2.1271145e-38 -1.32588e-40 -6.5135e-40
0003c0 47 66 e1 00 99 43 0b 00 8b 63 b0 00 ab 8c 4f 00
       2.0699677e-38 1.03444e-39 1.6198757e-38 7.305466e-39
0003d0 b2 7d 46 00 93 3e 32 00 d8 86 57 00 df 32 37 00
       6.473576e-39 4.614222e-39 8.038061e-39 5.069201e-39
0003e0 5b 42 32 80 d9 27 b8 80 69 d7 5c 00 62 17 25 00
       -4.615579e-39 -1.6912026e-38 8.52614e-39 3.406302e-39
0003f0 db 31 87 80 2f 2f 10 80 3e 77 a6 80 d4 32 ca 00
       -1.2415677e-38 -1.486294e-39 -1.5287468e-38 1.8569004e-38

bn1.weight f4 [256]
000000 3b 18 36 00 8a 80 51 80 75 ee 4d 00 eb 4a 5b 00
       4.967809e-39 -7.484786e-39 7.156875e-39 8.383906e-39
000010 0f 91 49 00 4e 0e 60 80 92 93 38 00 e5 2f bb 80
       6.756028e-39 -8.821339e-39 5.195726e-39 -1.7190419e-38
000020 05 7c c0 80 70 c4 41 00 f3 18 37 00 e9 f0 43 00
       -1.7676905e-38 6.039776e-39 5.059902e-39 6.2394e-39
000030 44 94 4b 00 f2 a5 bd 80 85 9b 4d 00 c3 41 44 00
       6.94085e-39 -1.7416439e-38 7.127123e-39 6.268405e-39
000040 3f 7c ec 80 c8 9d 84 80 3b 9c 91 80 25 a0 25 00
       -2.1717748e-38 -1.2178887e-38 -1.3372192e-38 3.455362e-39
000050 f0 ad 72 80 21 2e 53 00 7c f0 4b 00 7f ad 49 00
       -1.0531644e-38 7.638894e-39 6.973932e-39 6.76623e-39
000060 62 c3 54 00 b4 4d 15 00 2b c5 95 00 e7 9a f9 80
       7.784272e-39 1.95642e-39 1.375422e-38 -2.2922607e-38
000070 88 df ce 00 92 c4 3a 00 33 0c 4f 00 5f e5 44 00
       1.89983e-38 5.396975e-39 7.25938e-39 6.327097e-39
000080 be 10 1d 00 c2 51 4e 00 dd 62 30 00 56 b7 31 00
       2.669235e-39 7.192498e-39 4.443569e-39 4.565708e-39
000090 ff 32 5a 00 61 85 68 00 13 f5 51 00 11 f9 4d 00
       8.283489e-39 9.598739e-39 7.526591e-39 7.160681e-39
0000a0 45 d1 56 00 24 a2 42 00 8c b3 2b 00 07 18 59 00
       7.972924e-39 6.119308e-39 4.013336e-39 8.181979e-39
0000b0 3a 41 3e 00 54 15 49 00 9a 00 0f 80 47 01 12 00
       5.7172e-39 6.711642e-39 -1.377748e-39 1.653497e-39
0000c0 c0 aa 31 00 bf 28 50 00 0f 70 59 00 1a be ee 80
       4.561193e-39 7.361457e-39 8.213558e-39 -2.1925044e-38
0000d0 31 a3 33 00 77 3f 41 00 f7 4a 4f 00 e8 4f 46 00
       4.742152e-39 5.992074e-39 7.281897e-39 6.45715e-39
0000e0 6c 0f a3 80 47 52 4e 00 d9 b8 4f 00 5c 99 d4 80
       -1.4974718e-38 7.192684e-39 7.321315e-39 -1.952414e-38
0000f0 90 27 c1 00 57 7e 08 00 cb 69 34 00 76 ac 63 80
       1.7738443e-38 7.80006e-40 4.813397e-39 -9.153581e-39
000100 96 e5 38 80 6d bc 47 00 7b 0f 73 80 1d 1f 4c 00
       -5.225148e-39 6.587915e-39 -1.0566635e-38 6.990659e-39
000110 56 75 20 00 99 e4 4b 00 b1 df 0d 00 b2 15 54 00
       2.980828e-39 6.969668e-39 1.274107e-39 7.721964e-39
000120 04 8a 47 00 94 c5 41 00 de 84 04 00 74 d4 51 00
       6.569831e-39 6.040185e-39 4.15006e-40 7.514889e-39
000130 31 de 2f 80 0c 8d 7e 00 78 e7 4e 00 2b 6b 58 00
       -4.395976e-39 1.162187e-38 7.246204e-39 8.119968e-39
000140 d0 f7 50 00 ac 9e 77 80 35 45 53 00 4e e1 47 00
       7.435738e-39 -1.0985345e-38 7.647173e-39 6.601144e-39
000150 26 15 52 00 40 71 40 00 92 fc b1 00 46 4d 4c 00
       7.538097e-39 5.918098e-39 1.6345488e-38 7.007218e-39
000160 72 d8 5c 00 2c fb 4b 00 e4 90 50 00 b0 a9 9a 00
       8.526512e-39 6.977766e-39 7.398817e-39 1.4203539e-38
000170 d5 82 4d 00 f8 49 94 81 f3 9d 43 00 1e 99 23 80
       7.118267e-39 -5.4472754e-38 6.20964e-39 -3.26917e-39
000180 30 56 2b 00 7a 7c 44 80 d6 06 4f 00 73 1e 60 80
       3.979845e-39 -6.289468e-39 7.257456e-39 -8.827131e-39
000190 83 d8 82 00 b2 b1 b1 80 24 e0 2b 80 3d 67 47 00
       1.2016284e-38 -1.6318628e-38 -4.029333e-39 6.557355e-39
0001a0 d6 61 4b 00 e9 e3 61 80 2c 30 08 80 8b 75 cf 80
       6.922759e-39 -8.989802e-39 -7.51965e-40 -1.9052114e-38
0001b0 da aa 66 80 ca 48 4e 00 30 ae 40 00 84 2e 4e 00
       -9.42851e-39 7.18928e-39 5.939958e-39 7.179855e-39
0001c0 dc 98 fd 80 3e a0 3c 00 f9 c3 13 80 9e f4 4f 00
       -2.3289216e-38 5.567614e-39 -1.815176e-39 7.342756e-39
0001d0 83 c7 50 00 6e 92 51 00 cf 49 5a 00 cb 96 4f 00
       7.418411e-39 7.491204e-39 8.291672e-39 7.309099e-39
0001e0 04 d8 b5 80 50 36 18 00 78 1e 5c 00 eb 04 26 80
       -1.6699717e-38 2.223536e-39 8.459796e-39 -3.491513e-39
0001f0 75 1b 21 00 a3 df 76 00 1e d6 51 00 e0 31 51 00
       3.040421e-39 1.0916814e-38 7.515486e-39 7.456567e-39
000200 30 bc 11 00 1a 20 0a 80 4e 5e 47 00 1b f8 4f 80
       1.628712e-39 -9.29871e-40 6.55415e-39 -7.344008e-39
000210 f0 77 4c 00 82 59 03 80 b0 1d 39 00 a7 85 51 00
       7.022523e-39 -3.07616e-40 5.245273e-39 7.48662e-39
000220 86 22 51 00 b9 73 d2 00 93 e1 1d 80 c2 11 59 00
       7.45106e-39 1.9326968e-38 -2.74415e-39 8.17973e-39
000230 3a 59 12 00 27 13 34 80 59 64 cf 00 98 9f 2f 00
       1.685047e-39 -4.782316e-39 1.9045946e-38 4.37352e-39
000240 07 3b 44 00 52 de 57 00 47 54 1f 00 10 e8 2b 80
       6.265989e-39 8.069442e-39 2.877133e-39 -4.032175e-39
000250 d4 d1 1f 80 c3 7d 4c 00 f2 f9 06 80 3d 45 44 00
       -2.922173e-39 7.024613e-39 -6.40676e-40 6.269652e-39
000260 b7 02 41 00 bc 5c 56 00 de 16 48 00 a5 36 43 00
       5.970281e-39 7.93112e-39 6.620359e-39 6.172581e-39
000270 9f 75 0f 80 53 f5 4c 00 62 f1 1b 00 78 37 53 00
       -1.419727e-39 7.067503e-39 2.56615e-39 7.642245e-39
000280 93 c8 48 80 be c0 1d 80 2a 2b 50 00 17 4e 35 00
       -6.684108e-39 -2.732372e-39 7.362324e-39 4.895295e-39
000290 3d f3 78 00 42 31 18 00 5c fd fa 00 75 c7 3c 00
       1.1107517e-38 2.221722e-39 2.3049762e-38 5.581681e-39
0002a0 0b 8d 38 00 ba 52 40 00 74 a3 53 80 fa cb 56 00
       5.193384e-39 5.907148e-39 -7.680982e-39 7.971026e-39
0002b0 7a be 5a 00 86 04 3f 00 4e fe 20 80 8b 81 b7 80
       8.333525e-39 5.787259e-39 -3.029963e-39 -1.6852367e-38
0002c0 28 70 2c 00 e3 4c 2f 00 54 33 48 00 b5 00 41 00
       4.080996e-39 4.34385e-39 6.630569e-39 5.969561e-39
0002d0 34 81 4f 00 23 d2 4f 00 b7 e4 40 00 c4 a2 26 00
       7.301354e-39 7.330387e-39 5.959519e-39 3.548138e-39
0002e0 3b 48 47 80 e4 a1 54 00 34 25 4f 00 7b ad 44 00
       -6.546232e-39 7.772257e-39 7.26835e-39 6.307047e-39
0002f0 c4 c7 52 00 24 2b 15 80 24 5a 50 00 a5 7e 4b 00
       7.602173e-39 -1.944021e-39 7.379176e-39 6.933094e-39
000300 42 89 01 00 a0 02 f1 80 78 f0 0e 80 ee bd 3c 00
       1.41074e-40 -2.2133296e-38 -1.371961e-39 5.578264e-39
000310 2b e1 3a 00 d0 53 4f 00 25 5a 4c 00 8f 4e 44 00
       5.407234e-39 7.28507e-39 7.011835e-39 6.272995e-39
000320 13 50 39 80 2f 37 e3 80 b9 14 06 80 0d a6 ca 00
       -5.263348e-39 -2.0866454e-38 -5.58447e-40 1.8610338e-38
000330 94 00 29 00 7e 7f 55 00 cc 28 60 80 6a 7c 55 00
       3.765463e-39 7.851753e-39 -8.830843e-39 7.850649e-39
000340 ba a7 53 00 e2 5c 5a 00 90 ae 33 00 c7 7c 4b 00
       7.682515e-39 8.298515e-39 4.746232e-39 6.932424e-39
000350 77 2c ad 80 48 a9 50 00 04 98 54 00 cc 8a 4b 00
       -1.5903492e-38 7.407566e-39 7.768715e-39 6.937453e-39
000360 8a c7 4e 00 b9 ab 50 00 03 50 34 00 d8 13 10 00
       7.23475e-39 7.408442e-39 4.804149e-39 1.476487e-39
000370 82 df 3e 00 ba 96 52 00 28 63 3f 00 24 26 4d 00
       5.77398e-39 7.584581e-39 5.821207e-39 7.085015e-39
000380 20 07 40 00 c2 43 14 00 77 68 6f 00 a9 b0 47 00
       5.880028e-39 1.861017e-39 1.0231215e-38 6.583694e-39
000390 28 db 3c 00 e9 cb 57 00 c6 09 35 00 4b 9a e2 80
       5.588748e-39 8.062837e-39 4.870787e-39 -2.0810172e-38
0003a0 21 d6 b3 00 de 4f 53 00 da 00 11 00 aa 30 55 00
       1.6515369e-38 7.650997e-39 1.561509e-39 7.823475e-39
0003b0 09 69 47 00 72 68 4c 00 d1 b2 3d 80 b2 3e 4e 00
       6.558e-39 7.016966e-39 -5.666113e-39 7.18566e-39
0003c0 94 3e 5a 00 c1 19 42 00 df 90 1b 00 7b a6 2b 00
       8.287643e-39 6.070382e-39 2.531528e-39 4.008648e-39
0003d0 22 ea 42 00 0d 44 06 80 82 5a 4e 00 f6 ef 3f 00
       6.145134e-39 -5.75425e-40 7.195637e-39 5.871718e-39
0003e0 ff 54 56 80 c8 65 02 00 0a 1b 5c 00 e8 95 4e 00
       -7.928344e-39 2.20183e-40 8.458565e-39 7.216945e-39
0003f0 b9 e5 1e 00 71 48 4b 00 ec c0 30 00 e6 3b 5b 00
       2.837474e-39 6.913649e-39 4.477311e-39 8.378518e-39

bn1.bias f4 [256]
000000 17 f2 10 02 8e 3f c7 01 a8 64 71 00 66 6e a7 00
       1.0648926e-37 7.319225e-38 1.041352e-38 1.5376131e-38
000010 f8 e8 79 01 78 11 3d 00 28 86 21 00 60 74 fb 00
       4.5901224e-38 5.608232e-39 3.078698e-39 2.3092457e-38
000020 6c ee 4b 80 b0 b2 a3 00 d8 36 e1 00 b5 96 09 02
       -6.973192e-39 1.5033287e-38 2.0682661e-38 1.0108421e-37
000030 98 84 37 01 c0 58 2e 00 69 31 00 02 3c f4 a3 81
       3.3706923e-38 4.25627e-39 9.418135e-38 -6.02272e-38
000040 90 05 77 81 23 87 11 82 ec 9f a0 01 08 07 06 80
       -4.5370726e-38 -1.06917e-37 5.9004194e-38 -5.53535e-40
000050 81 a1 a8 81 d8 19 d0 00 14 77 ea 00 b4 5c 93 00
       -6.19452e-38 1.9111054e-38 2.1532223e-38 1.3533074e-38
000060 40 b8 52 81 49 ff e6 01 54 0f 02 80 04 72 9c 01
       -3.87031e-38 8.485497e-38 -1.8917e-40 5.7468954e-38
000070 8f 0d 9d 81 30 7e 0a 00 48 6f ef 00 ab 1a e4 01
       -5.769215e-38 9.63623e-40 2.1988604e-38 8.379224e-38
000080 0b 61 8a 81 e0 37 96 01 03 4d 12 02 5a cf ef 81
       -5.0832444e-38 5.5181474e-38 1.0748487e-37 -8.809227e-38
000090 f0 8c c7 00 60 0a fb 80 44 cf c7 80 aa 60 4f 80
       1.8325823e-38 -2.3054431e-38 -1.8349617e-38 -7.289681e-39
0000a0 30 9d 22 80 18 97 7d 00 48 6b 59 01 f4 fa a1 01
       -3.178795e-39 1.1533639e-38 3.9933576e-38 5.950216e-38
0000b0 0b 35 95 01 c0 76 d1 00 d8 0e 00 80 91 bd af 81
       5.481007e-38 1.9236218e-38 -5.325e-42 -6.455686e-38
0000c0 fc 71 ad 81 74 63 37 00 90 74 ae 80 60 a2 10 00
       -6.3713723e-38 5.08663e-39 -1.6021191e-38 1.527617e-39
0000d0 82 7c b9 81 34 56 b6 00 dc a9 9d 80 20 99 fb 00
       -6.8136927e-38 1.6744984e-38 -1.4479107e-38 2.310564e-38
0000e0 58 96 c1 80 a4 66 d5 00 68 93 0d 80 33 c1 b5 01
       -1.7778184e-38 1.9597781e-38 -1.246741e-39 6.6766127e-38
0000f0 08 65 e0 80 16 fc 0d 02 fc 2c 6a 80 30 11 ee 80
       -2.0607394e-38 1.0431389e-37 -9.7507e-39 -2.1863014e-38
000100 88 fb 9f 80 2c f8 c9 00 c4 38 5e 80 8a 54 af 81
       -1.4692076e-38 1.8547962e-38 -8.6529e-39 -6.4406155e-38
000110 d9 30 02 02 66 2c cf 00 ca d6 d2 81 a8 87 de 80
       9.56491e-38 1.9025875e-38 -7.7450024e-38 -2.0436144e-38
000120 2b 59 03 82 d0 0e dd 80 0c d8 42 81 48 92 f8 00
       -9.64995e-38 -2.0300958e-38 -3.5787179e-38 2.2827679e-38
000130 5c 96 c6 81 f4 be 4d 80 44 62 65 00 8c 4e 50 80
       -7.294947e-38 -7.139834e-39 9.310636e-39 -7.375017e-39
000140 bc 4e 96 80 49 a0 18 02 e8 2f ea 80 5c 22 ab 81
       -1.3803569e-38 1.1213196e-37 -2.1506692e-38 -6.286478e-38
000150 b8 67 e6 81 78 9e 93 01 5c c2 74 80 10 65 92 00
       -8.4637486e-38 5.4226663e-38 -1.072264e-38 1.3444237e-38
000160 2a 57 28 80 f8 b8 f4 80 b4 ce e0 80 12 52 fe 01
       -3.704688e-39 -2.2474215e-38 -2.0645302e-38 9.342263e-38
000170 98 69 3e 00 c0 16 1a 00 08 af 4f 01 50 3e 60 00
       5.73168e-39 2.395884e-39 3.8145474e-38 8.838561e-39
000180 9f b6 93 81 40 1e 77 80 bc a2 e2 80 48 44 e7 00
       -5.426132e-38 -1.0939276e-38 -2.08132e-38 2.1238494e-38
000190 07 de 9d 81 00 80 84 81 40 f2 bf 00 50 e0 0e 80
       -5.7991285e-38 -4.8672813e-38 1.7627483e-38 -1.366165e-39
0001a0 68 e9 8b 80 1c 07 2a 80 27 24 a7 81 98 d3 0f 00
       -1.2848864e-38 -3.859641e-39 -6.139799e-38 1.453438e-39
0001b0 9c 40 7c 00 8c b4 d1 00 70 e4 39 80 80 55 0b 80
       1.1410779e-38 1.9258387e-38 -5.316571e-39 -1.040862e-39
0001c0 28 83 7e 81 9c 6d 6b 01 5b 34 08 02 47 73 d6 81
       -4.6746532e-38 4.3241324e-38 1.0006727e-37 -7.87766e-38
0001d0 84 73 5c 00 40 ee 68 00 2c 62 49 00 e8 a7 48 80
       8.490305e-39 9.63636e-39 6.739209e-39 -6.672389e-39
0001e0 b8 c5 be 80 f0 4a 2c 80 80 96 1b 80 80 e8 6b 01
       -1.7519672e-38 -4.067644e-39 -2.533548e-39 4.3329494e-38
0001f0 74 5e 41 00 ae a5 c7 01 40 2a 9e 80 54 22 64 00
       6.00319e-39 7.3338794e-38 -1.4525165e-38 9.195864e-39
000200 b8 e3 8f 00 78 0b 1b 02 44 8f 3a 00 08 d4 aa 01
       1.3214166e-38 1.1390893e-37 5.377853e-39 6.275239e-38
000210 0c d5 15 00 98 51 6e 00 b8 d1 7e 80 c0 91 03 80
       2.004972e-39 1.0131175e-38 -1.1646505e-38 -3.27792e-40
000220 8c 5b 59 80 99 8f d2 01 94 16 7e 80 94 e6 ba 00
       -8.2062e-39 7.734787e-38 -1.1579372e-38 1.7164118e-38
000230 a0 c0 e0 00 c4 52 81 01 e4 47 44 00 f8 d4 d3 00
       2.0640252e-38 4.750588e-38 6.270603e-39 1.9453688e-38
000240 f4 67 f9 00 04 70 68 00 2a 5d a3 01 60 64 93 00
       2.290433e-38 9.591075e-39 6.001043e-38 1.3535826e-38
000250 e4 0b 51 80 58 6f 5f 01 88 27 0b 00 f4 4e 1a 00
       -7.442941e-39 4.1038517e-38 1.024372e-39 2.416046e-39
000260 2a d1 c7 01 a4 ad 02 80 f0 67 40 01 02 e9 0b 02
       7.340119e-38 -2.45962e-40 3.5339402e-38 1.0278977e-37
000270 18 c0 d1 80 98 29 f0 00 e8 de e5 00 90 bc 85 80
       -1.9262529e-38 2.205544e-38 2.1110292e-38 -1.2281764e-38
000280 c8 fd 45 81 a8 09 68 80 49 54 1f 80 b6 0a c0 81
       -3.6365265e-38 -9.554356e-39 -2.877136e-39 -7.054503e-38
000290 a0 8d 81 80 30 15 67 80 f8 65 d1 80 bc 59 b6 00
       -1.1897584e-38 -9.466657e-39 -1.9230198e-38 1.6746251e-38
0002a0 00 44 a6 81 88 6d 1e 00 18 17 02 00 bc ce 0e 80
       -6.1076345e-38 2.794357e-39 1.91955e-40 -1.359859e-39
0002b0 1c 56 3e 00 24 7d 4c 01 44 52 88 80 48 85 b9 81
       5.724691e-39 3.7558666e-38 -1.2519139e-38 -6.8149516e-38
0002c0 93 e7 86 01 b2 5a 97 81 34 9a e4 00 be a4 f7 01
       4.955612e-38 -5.559878e-38 2.0993811e-38 9.0969864e-38
0002d0 99 dd d6 01 d0 d1 1e 80 c8 49 bb 80 e4 bf a4 01
       7.892916e-38 -2.830331e-39 -1.7199706e-38 6.0519435e-38
0002e0 f0 ed 35 80 30 27 17 00 08 e1 b0 80 f8 41 46 00
       -4.952637e-39 2.126274e-39 -1.6243773e-38 6.45215e-39
0002f0 cc b8 2e 01 42 14 90 81 4c 8c 9f 81 d8 bf c1 00
       3.2091338e-38 -5.2926314e-38 -5.860869e-38 1.7793071e-38
000300 58 4e aa 80 bc f5 bc 80 10 f5 c7 01 e0 8f 0c 80
       -1.5640139e-38 -1.7353226e-38 7.34527e-38 -1.153639e-39
000310 70 9b 9d 00 14 41 b4 01 a4 30 b4 01 ab ee 91 81
       1.4473933e-38 6.621494e-38 6.6191353e-38 -5.360706e-38
000320 0c ac 3d 80 48 62 a1 81 fc 87 3d 80 72 cd da 81
       -5.663684e-39 -5.9283086e-38 -5.650747e-39 -8.037535e-38
000330 1e 97 a2 81 54 4c 92 00 50 3d 34 00 33 b1 b1 01
       -5.9726244e-38 1.3435364e-38 4.79744e-39 6.52738e-38
000340 98 51 8e 00 58 43 22 80 94 a6 4b 80 f8 35 90 01
       1.3069911e-38 -3.146565e-39 -6.947419e-39 5.2974687e-38
000350 48 89 bb 00 04 b5 e4 80 28 d8 f0 00 a2 87 8a 81
       1.7222485e-38 -2.1003429e-38 2.2118061e-38 -5.088782e-38
000360 72 d9 45 80 bc e4 de 01 ee 06 83 81 d4 b1 6b 81
       -6.414654e-39 8.187814e-38 -4.8131744e-38 -4.329027e-38
000370 2b 82 90 81 b1 a5 be 01 2c 36 6c 01 bc 97 93 00
       -5.308403e-38 7.003273e-38 4.338522e-38 1.355425e-38
000380 bc de 87 81 bc 54 67 80 44 40 06 80 5c 49 4c 01
       -4.9910776e-38 -9.489453e-39 -5.74067e-40 3.7521515e-38
000390 e8 c3 39 80 89 56 27 00 e8 bb c5 80 c8 df c9 00
       -5.304901e-39 3.612627e-39 -1.8159001e-38 1.8539212e-38
0003a0 54 5d eb 81 80 24 0e 80 68 27 37 80 c9 24 89 81
       -8.6459286e-38 -1.29879e-39 -5.065089e-39 -5.0378636e-38
0003b0 56 2c c0 81 68 47 9e 81 6b f9 b0 81 e0 dd 95 80
       -7.059328e-38 -5.8142497e-38 -6.5010087e-38 -1.3763083e-38
0003c0 dc 73 c7 80 b6 7a ff 81 84 ec e1 01 c4 59 91 01
       -1.8316826e-38 -9.384829e-38 8.299133e-38 5.3393395e-38
0003d0 b8 a0 b2 00 a8 2b 08 02 d4 82 78 01 88 44 93 80
       1.6404373e-38 1.0004231e-37 4.564427e-38 -1.3524402e-38
0003e0 6c 7f d9 80 ac 33 21 80 b0 aa 49 00 ac 49 fc 00
       -1.9974013e-38 -3.049108e-39 6.765222e-39 2.3168974e-38
0003f0 78 07 14 80 94 26 ce 00 4c 5a 7f 81 28 cf f7 80
       -1.839389e-39 1.8931951e-38 -4.6900888e-38 -2.2757681e-38

bn1.running_mean f4 [256]
000000 05 20 c6 02 8a 69 2e 03 95 b9 29 03 1a c4 8e 02
       2.9111863e-37 5.1255157e-37 4.9877674e-37 2.0977582e-37
000010 00 f0 6b 02 aa c7 07 03 09 d3 06 03 23 4b 8f 02
       1.733395e-37 3.9902137e-37 3.9621317e-37 2.1055088e-37
000020 d2 00 07 03 7d a6 16 03 e2 bd dd 02 56 f5 2c 03
       3.9673876e-37 4.4272157e-37 3.2582019e-37 5.082789e-37
000030 d1 b2 09 03 d7 eb 3f 03 64 ed 37 03 dd 9d 75 02
       4.0465953e-37 5.6400586e-37 5.4051378e-37 1.8045062e-37
000040 7d 03 3e 02 c9 51 a3 02 84 d5 be 02 cd 40 a9 02
       1.3959997e-37 2.399764e-37 2.8040543e-37 2.4869512e-37
000050 d3 e0 c0 02 24 6a d8 02 da 32 b9 00 3c 9c 0c 03
       2.8340907e-37 3.179927e-37 1.7007809e-38 4.132165e-37
000060 3e 94 0a 03 86 2f 8b 02 44 74 0e 03 aa 10 12 03
       4.072473e-37 2.0451491e-37 4.1863516e-37 4.2924673e-37
000070 b6 bc d7 02 54 d9 7f 02 8b 74 7a 01 c0 cb 1a 03
       3.1699725e-37 1.8796811e-37 4.6001364e-38 4.5490426e-37
000080 87 4d 27 02 98 bd a4 02 bd 37 b8 02 7c b1 4c 02
       1.2291472e-37 2.4206456e-37 2.7068362e-37 1.5038488e-37
000090 22 bc 9d 01 a2 df 9c 02 2f ad 7e 02 7a 62 7a 02
       5.794265e-38 2.3050499e-37 1.8710674e-37 1.8395361e-37
0000a0 ad ac 49 02 0e 12 de 02 2f f5 10 02 66 9d ac 02
       1.4816703e-37 3.263033e-37 1.0649813e-37 2.536347e-37
0000b0 78 d4 1e 03 4d 1f 2e 02 1c bf 13 02 46 72 e3 02
       4.667593e-37 1.2792484e-37 1.08547e-37 3.3420242e-37
0000c0 31 d5 9b 02 66 4e 6c 02 54 12 84 02 aa 3e a6 02
       2.289757e-37 1.7361041e-37 1.9406177e-37 2.4427475e-37
0000d0 25 37 0e 03 96 10 09 03 74 18 c8 02 7e be 23 03
       4.1793352e-37 4.027972e-37 2.9401394e-37 4.812007e-37
0000e0 84 10 15 02 46 9a f4 02 44 f3 45 02 db 4d e0 02
       1.0951531e-37 3.5941126e-37 1.4543088e-37 3.2958529e-37
0000f0 bd f5 32 03 9a a4 00 03 98 88 b7 01 61 33 2c 03
       5.2591592e-37 3.7804773e-37 6.7419586e-38 5.0605237e-37
000100 8e 68 98 02 53 49 01 03 1f d0 8d 02 5e ad 6a 02
       2.2394404e-37 3.7993865e-37 2.0837544e-37 1.7241359e-37
000110 0e f1 05 03 82 7c 9e 02 7c e8 da 02 0f 5c 09 02
       3.9361904e-37 2.3287477e-37 3.216566e-37 1.009159e-37
000120 2c 31 3d 03 fb 2b 30 03 5d b6 5e 02 f3 34 ac 02
       5.5598555e-37 5.177224e-37 1.636232e-37 2.530352e-37
000130 fe e0 11 03 93 a2 cb 02 b2 9f 92 02 3b 20 30 03
       4.286995e-37 2.9921482e-37 2.1544433e-37 5.175875e-37
000140 cd 4b 98 02 b1 84 b0 02 a9 b8 24 02 84 ba aa 02
       2.23779e-37 2.5937037e-37 1.2101812e-37 2.508631e-37
000150 a6 f9 14 03 52 35 85 02 22 a7 d6 02 9b 26 02 03
       4.3779873e-37 1.9573198e-37 3.1540403e-37 3.8247883e-37
000160 ca 78 c7 02 ba f7 bc 02 af c6 a9 02 66 82 02 03
       2.9309751e-37 2.7766305e-37 2.4946357e-37 3.8353256e-37
000170 e1 b5 4f 02 c7 31 b9 02 9c 6c 4b 02 7e 37 ea 02
       1.5260155e-37 2.7211878e-37 1.4945254e-37 3.441506e-37
000180 34 30 a5 02 db 2d 9f 02 30 2a 16 03 39 56 e0 02
       2.4272238e-37 2.338927e-37 4.4129467e-37 3.2963331e-37
000190 17 ca d0 01 ce 05 52 02 51 8f 0d 03 57 fe 20 03
       7.669712e-38 1.5430029e-37 4.1600695e-37 4.731174e-37
0001a0 09 d5 ff 02 3c 00 ca 02 eb 54 4d 03 38 f5 4e 03
       3.7591159e-37 2.9681367e-37 6.0341567e-37 6.0819456e-37
0001b0 44 b6 db 02 81 bd 10 02 e8 07 a9 02 50 57 ab 02
       3.2283773e-37 1.0633834e-37 2.4836856e-37 2.5176307e-37
0001c0 dd dd 27 03 80 96 aa 02 2e 2b 9a 02 63 25 d8 01
       4.9331576e-37 2.5065638e-37 2.265305e-37 7.9399516e-38
0001d0 aa 6b a0 02 5c 0c bf 02 31 df d2 02 b0 37 97 02
       2.3571683e-37 2.8072022e-37 3.0984832e-37 2.221942e-37
0001e0 f4 fe d7 02 69 3c 2f 03 5a be 00 03 19 68 dd 02
       3.1737747e-37 5.1497225e-37 3.783433e-37 3.253278e-37
0001f0 4f 68 0c 03 55 3b c0 03 a8 52 6b 02 ec 7c 69 00
       4.1262043e-37 1.1298368e-36 1.7288794e-37 9.68754e-39
000200 90 35 6f 02 fc 25 0c 03 15 e0 4a 02 91 54 fe 01
       1.7574319e-37 4.1185906e-37 1.4904925e-37 9.342621e-38
000210 b4 31 ca 02 61 de b4 01 16 51 bc 02 8e 6a 63 02
       2.970976e-37 6.6440655e-38 2.7670658e-37 1.6707906e-37
000220 18 33 da 02 55 cc 73 03 be bf c1 02 66 06 99 02
       3.2061547e-37 7.1645843e-37 2.8468856e-37 2.2485002e-37
000230 d9 03 2a 03 67 48 9f 02 72 d9 f7 01 90 b8 a3 01
       4.9962927e-37 2.3404507e-37 9.104549e-38 6.014158e-38
000240 69 f8 3e 03 6d 5c 20 03 5d 8d d8 02 67 2d 37 03
       5.6121143e-37 4.7125874e-37 3.1819486e-37 5.3830986e-37
000250 d9 e7 9e 02 6b 01 c9 02 36 20 74 02 c6 96 13 02
       2.3349087e-37 2.953511e-37 1.7935533e-37 1.0843124e-37
000260 e5 fc 0b 03 98 3c 2e 03 f0 37 1e 02 97 72 2b 02
       4.1138737e-37 5.1203562e-37 1.162406e-37 1.2595982e-37
000270 5c ed 14 03 e3 18 05 03 33 23 d3 02 b5 b4 31 03
       4.3765766e-37 3.9113756e-37 3.1023867e-37 5.2223067e-37
000280 ea 68 ad 02 01 a2 f1 00 e2 31 d1 01 6b 4f dd 02
       2.5480283e-37 2.219047e-38 7.6846053e-38 3.2518615e-37
000290 1b 5f 6b 01 bf 70 bd 02 06 c2 17 03 39 16 b5 01
       4.3230918e-38 2.7835767e-37 4.459764e-37 6.6520787e-38
0002a0 4c 61 e2 02 28 74 25 03 b3 78 6e 02 d8 13 c6 02
       3.326356e-37 4.8622483e-37 1.7520117e-37 2.9104875e-37
0002b0 55 a9 f4 02 f5 12 96 02 9a 78 eb 02 14 3d 09 03
       3.594977e-37 2.20514e-37 3.4599368e-37 4.0330796e-37
0002c0 c9 5e ba 02 95 77 bb 02 ca b7 b7 02 29 b5 2f 03
       2.7384648e-37 2.7545817e-37 2.6994923e-37 5.163584e-37
0002d0 04 e6 09 03 82 5d f7 01 e1 85 01 03 1d db e9 02
       4.0524727e-37 9.086765e-38 3.806338e-37 3.4362038e-37
0002e0 84 6b 27 03 0c ee ad 01 f6 9f 19 03 95 4c c9 02
       4.920031e-37 6.3891744e-38 4.5146285e-37 2.9578251e-37
0002f0 dc 71 e9 02 51 64 2d 03 9a 7e 9c 02 6a 74 07 03
       3.4301625e-37 5.095529e-37 2.2994806e-37 3.980657e-37
000300 a2 c6 9b 02 ee d1 88 03 22 24 c7 02 e6 18 f6 02
       2.2889213e-37 8.041559e-37 2.9261161e-37 3.6160742e-37
000310 bc a6 91 02 46 cb 6d 02 19 c9 af 02 b3 cb d7 02
       2.1401536e-37 1.7470347e-37 2.5829363e-37 3.1708328e-37
000320 67 58 7e 01 fd 67 ae 02 72 a1 ba 02 47 f7 31 02
       4.6715858e-38 2.5626688e-37 2.7422909e-37 1.3074871e-37
000330 84 79 6d 02 82 dc 8d 02 db 62 b4 02 1b 9f 18 03
       1.7446883e-37 2.0844653e-37 2.6505363e-37 4.485143e-37
000340 b3 d2 99 02 b6 ef 4a 02 5c 4c e3 02 91 9a 04 03
       2.2602265e-37 1.490941e-37 3.339848e-37 3.8968747e-37
000350 27 18 a5 02 36 5d 06 03 9c 59 d5 02 dc 78 c5 01
       2.4258434e-37 3.948606e-37 3.134897e-37 7.2539796e-38
000360 fc 0a ad 00 4b 13 02 03 ff 8b 87 02 d1 2b ec 02
       1.5891481e-38 3.8225714e-37 1.991682e-37 3.4702233e-37
000370 60 42 b4 02 b1 7b a9 02 38 ad 3e 02 eb 01 92 02
       2.648672e-37 2.4903314e-37 1.4008707e-37 2.1453873e-37
000380 02 44 f4 01 c7 11 bc 02 ae 9f df 02 8e eb 36 02
       8.972903e-38 2.763432e-37 3.2858557e-37 1.3438849e-37
000390 30 af f1 02 9c c1 44 02 82 3f 44 02 c3 a7 0f 02
       3.551232e-37 1.4455369e-37 1.4418032e-37 1.0554126e-37
0003a0 51 f8 20 03 89 11 bb 02 d8 a6 91 02 36 fe 0a 03
       4.7304827e-37 2.7487245e-37 2.1401599e-37 4.0846375e-37
0003b0 90 ce d4 02 86 90 8a 02 39 32 ae 02 e6 6d 6b 02
       3.1269161e-37 2.036023e-37 2.5595829e-37 1.7296613e-37
0003c0 d3 27 1d 03 09 43 0b 03 ff 29 b4 02 50 9c 8a 02
       4.618387e-37 4.092538e-37 2.6472727e-37 2.0366997e-37
0003d0 bc 74 56 02 48 29 8f 02 75 98 0b 02 98 9b c7 02
       1.5755738e-37 2.1035656e-37 1.025586e-37 2.9329728e-37
0003e0 43 6f 91 02 6d c0 c4 02 a0 dc 06 03 26 63 30 02
       2.1369696e-37 2.8910059e-37 3.9632326e-37 1.2958892e-37
0003f0 05 f2 3f 02 a5 c0 06 03 05 b9 b1 02 3c 45 8a 02
       1.410192e-37 3.9600206e-37 2.6114009e-37 2.0317016e-37

bn1.running_var f4 [256]
000000 04 00 00 00 04 00 00 00 04 00 00 00 04 00 00 00
       6e-45 6e-45 6e-45 6e-45
000010 04 00 00 00 04 00 00 00 04 00 00 00 04 00 00 00
       6e-45 6e-45 6e-45 6e-45
000020 04 00 00 00 04 00 00 00 04 00 00 00 04 00 00 00
       6e-45 6e-45 6e-45 6e-45
000030 04 00 00 00 04 00 00 00 04 00 00 00 04 00 00 00
       6e-45 6e-45 6e-45 6e-45
000040 04 00 00 00 04 00 00 00 04 00 00 00 04 00 00 00
       6e-45 6e-45 6e-45 6e-45
000050 04 00 00 00 04 00 00 00 04 00 00 00 04 00 00 00
       6e-45 6e-45 6e-45 6e-45
000060 04 00 00 00 04 00 00 00 04 00 00 00 04 00 00 00
       6e-45 6e-45 6e-45 6e-45
000070 04 00 00 00 04 00 00 00 04 00 00 00 04 00 00 00
       6e-45 6e-45 6e-45 6e-45
000080 04 00 00 00 04 00 00 00 04 00 00 00 04 00 00 00
       6e-45 6e-45 6e-45 6e-45
000090 04 00 00 00 04 00 00 00 04 00 00 00 04 00 00 00
       6e-45 6e-45 6e-45 6e-45
0000a0 04 00 00 00 04 00 00 00 04 00 00 00 04 00 00 00
       6e-45 6e-45 6e-45 6e-45
0000b0 04 00 00 00 04 00 00 00 04 00 00 00 04 00 00 00
       6e-45 6e-45 6e-45 6e-45
0000c0 04 00 00 00 04 00 00 00 04 00 00 00 04 00 00 00
       6e-45 6e-45 6e-45 6e-45
0000d0 04 00 00 00 04 00 00 00 04 00 00 00 04 00 00 00
       6e-45 6e-45 6e-45 6e-45
0000e0 04 00 00 00 04 00 00 00 04 00 00 00 04 00 00 00
       6e-45 6e-45 6e-45 6e-45
0000f0 04 00 00 00 04 00 00 00 04 00 00 00 04 00 00 00
       6e-45 6e-45 6e-45 6e-45
000100 04 00 00 00 04 00 00 00 04 00 00 00 04 00 00 00
       6e-45 6e-45 6e-45 6e-45
000110 04 00 00 00 04 00 00 00 04 00 00 00 04 00 00 00
       6e-45 6e-45 6e-45 6e-45
000120 04 00 00 00 04 00 00 00 04 00 00 00 04 00 00 00
       6e-45 6e-45 6e-45 6e-45
000130 04 00 00 00 04 00 00 00 04 00 00 00 04 00 00 00
       6e-45 6e-45 6e-45 6e-45
000140 04 00 00 00 04 00 00 00 04 00 00 00 04 00 00 00
       6e-45 6e-45 6e-45 6e-45
000150 04 00 00 00 04 00 00 00 04 00 00 00 04 00 00 00
       6e-45 6e-45 6e-45 6e-45
000160 04 00 00 00 04 00 00 00 04 00 00 00 04 00 00 00
       6e-45 6e-45 6e-45 6e-45
000170 04 00 00 00 04 00 00 00 04 00 00 00 04 00 00 00
       6e-45 6e-45 6e-45 6e-45
000180 04 00 00 00 04 00 00 00 04 00 00 00 04 00 00 00
       6e-45 6e-45 6e-45 6e-45
000190 04 00 00 00 04 00 00 00 04 00 00 00 04 00 00 00
       6e-45 6e-45 6e-45 6e-45
0001a0 04 00 00 00 04 00 00 00 04 00 00 00 04 00 00 00
       6e-45 6e-45 6e-45 6e-45
0001b0 04 00 00 00 04 00 00 00 04 00 00 00 04 00 00 00
       6e-45 6e-45 6e-45 6e-45
0001c0 04 00 00 00 04 00 00 00 04 00 00 00 04 00 00 00
       6e-45 6e-45 6e-45 6e-45
0001d0 04 00 00 00 04 00 00 00 04 00 00 00 04 00 00 00
       6e-45 6e-45 6e-45 6e-45
0001e0 04 00 00 00 04 00 00 00 04 00 00 00 04 00 00 00
       6e-45 6e-45 6e-45 6e-45
0001f0 04 00 00 00 04 00 00 00 04 00 00 00 04 00 00 00
       6e-45 6e-45 6e-45 6e-45
000200 04 00 00 00 04 00 00 00 04 00 00 00 04 00 00 00
       6e-45 6e-45 6e-45 6e-45
000210 04 00 00 00 04 00 00 00 04 00 00 00 04 00 00 00
       6e-45 6e-45 6e-45 6e-45
000220 04 00 00 00 04 00 00 00 04 00 00 00 04 00 00 00
       6e-45 6e-45 6e-45 6e-45
000230 04 00 00 00 04 00 00 00 04 00 00 00 04 00 00 00
       6e-45 6e-45 6e-45 6e-45
000240 04 00 00 00 04 00 00 00 04 00 00 00 04 00 00 00
       6e-45 6e-45 6e-45 6e-45
000250 04 00 00 00 04 00 00 00 04 00 00 00 04 00 00 00
       6e-45 6e-45 6e-45 6e-45
000260 04 00 00 00 04 00 00 00 04 00 00 00 04 00 00 00
       6e-45 6e-45 6e-45 6e-45
000270 04 00 00 00 04 00 00 00 04 00 00 00 04 00 00 00
       6e-45 6e-45 6e-45 6e-45
000280 04 00 00 00 04 00 00 00 04 00 00 00 04 00 00 00
       6e-45 6e-45 6e-45 6e-45
000290 04 00 00 00 04 00 00 00 04 00 00 00 04 00 00 00
       6e-45 6e-45 6e-45 6e-45
0002a0 04 00 00 00 04 00 00 00 04 00 00 00 04 00 00 00
       6e-45 6e-45 6e-45 6e-45
0002b0 04 00 00 00 04 00 00 00 04 00 00 00 04 00 00 00
       6e-45 6e-45 6e-45 6e-45
0002c0 04 00 00 00 04 00 00 00 04 00 00 00 04 00 00 00
       6e-45 6e-45 6e-45 6e-45
0002d0 04 00 00 00 04 00 00 00 04 00 00 00 04 00 00 00
       6e-45 6e-45 6e-45 6e-45
0002e0 04 00 00 00 04 00 00 00 04 00 00 00 04 00 00 00
       6e-45 6e-45 6e-45 6e-45
0002f0 04 00 00 00 04 00 00 00 04 00 00 00 04 00 00 00
       6e-45 6e-45 6e-45 6e-45
000300 04 00 00 00 04 00 00 00 04 00 00 00 04 00 00 00
       6e-45 6e-45 6e-45 6e-45
000310 04 00 00 00 04 00 00 00 04 00 00 00 04 00 00 00
       6e-45 6e-45 6e-45 6e-45
000320 04 00 00 00 04 00 00 00 04 00 00 00 04 00 00 00
       6e-45 6e-45 6e-45 6e-45
000330 04 00 00 00 04 00 00 00 04 00 00 00 04 00 00 00
       6e-45 6e-45 6e-45 6e-45
000340 04 00 00 00 04 00 00 00 04 00 00 00 04 00 00 00
       6e-45 6e-45 6e-45 6e-45
000350 04 00 00 00 04 00 00 00 04 00 00 00 04 00 00 00
       6e-45 6e-45 6e-45 6e-45
000360 04 00 00 00 04 00 00 00 04 00 00 00 04 00 00 00
       6e-45 6e-45 6e-45 6e-45
000370 04 00 00 00 04 00 00 00 04 00 00 00 04 00 00 00
       6e-45 6e-45 6e-45 6e-45
000380 04 00 00 00 04 00 00 00 04 00 00 00 04 00 00 00
       6e-45 6e-45 6e-45 6e-45
000390 04 00 00 00 04 00 00 00 04 00 00 00 04 00 00 00
       6e-45 6e-45 6e-45 6e-45
0003a0 04 00 00 00 04 00 00 00 04 00 00 00 04 00 00 00
       6e-45 6e-45 6e-45 6e-45
0003b0 04 00 00 00 04 00 00 00 04 00 00 00 04 00 00 00
       6e-45 6e-45 6e-45 6e-45
0003c0 04 00 00 00 04 00 00 00 04 00 00 00 04 00 00 00
       6e-45 6e-45 6e-45 6e-45
0003d0 04 00 00 00 04 00 00 00 04 00 00 00 04 00 00 00
       6e-45 6e-45 6e-45 6e-45
0003e0 04 00 00 00 04 00 00 00 04 00 00 00 04 00 00 00
       6e-45 6e-45 6e-45 6e-45
0003f0 04 00 00 00 04 00 00 00 04 00 00 00 04 00 00 00
       6e-45 6e-45 6e-45 6e-45
