checkpoint_critic.pth (torch_old, 517089 bytes, 9 tensors)

fcs1.weight f4 [400, 33]
0	0xbe31d350	-0.17365766
1	0x3d1e82da	0.03869901
2	0xbcd6a4fe	-0.026201721
3	0xbe6439cc	-0.22287673
4	0x3e677d01	0.22606279
5	0xbe26b205	-0.16278847
6	0xbe8cb391	-0.27480748
7	0x3ace4b11	0.0015738924
8	0xbe19fe45	-0.15038402
9	0xbcfe8fb7	-0.031074388
10	0xbc95f028	-0.018302992
11	0x3d4c60da	0.049897052
12	0x3d5064e3	0.050877463
13	0x3d8ce25f	0.06879114
14	0x3ce8f953	0.0284392
15	0x3da67e42	0.081295505
16	0x3e4e0af0	0.2012136
17	0x3dc8c55b	0.098032676
18	0xbe4ebe9d	-0.201899
19	0xbe1010e1	-0.14068939
20	0x3da41e5a	0.080136016
21	0xbdbd823a	-0.09253354
22	0x3ccdebcc	0.02513685
23	0x3ca8fbed	0.02062794
24	0xbd1a871b	-0.037726503
25	0xbc9656ca	-0.018351931
26	0x3ca29c83	0.019850021
27	0x3e2f3c04	0.17112738
28	0xbe237037	-0.15960775
29	0xbc366c58	-0.01113423
30	0xbe2cdc04	-0.16880804
31	0x3d11fc85	0.035641212
32	0xbf02a04b	-0.5102584
33	0x3d7a823b	0.061159354
34	0x3d3e57c7	0.04647043
35	0x3cd5b779	0.026088463
36	0xbd2d16f8	-0.042258233
37	0xbe7d442e	-0.2473304
38	0xbd6aee91	-0.05735642
39	0xbe599d04	-0.21251303
40	0xbd7a5122	-0.06111253
41	0x3e07b22f	0.13251565
42	0xbc3bf101	-0.011471034
43	0xbd872b6d	-0.0660008
44	0x3d34e99c	0.0441681
45	0x3dbecd08	0.0931645
46	0xbde75721	-0.112959154
47	0xbd7f6d8f	-0.062360343
48	0x3d1a4423	0.037662636
49	0x3d23e23a	0.04001067
50	0xbe08f199	-0.13373412
51	0x3d60ead2	0.054911442
52	0xbd5c5f56	-0.053801857
53	0x3dc866da	0.097852424
54	0x3db5b1d8	0.08871812
55	0xbc1ba498	-0.009499691
56	0xbe7a2dba	-0.24431506
57	0xbd017522	-0.031605847
58	0x3bf6a175	0.0075265714
59	0xbdb940e0	-0.09045577
60	0xbe06013f	-0.13086413
61	0xbde652ae	-0.11246239
62	0xbcdedfdd	-0.027206356
63	0x3e07b7b5	0.13253672
64	0x3cd33082	0.025779966
65	0xbde1f4bd	-0.11033008
66	0x3c930fa5	0.017951796
67	0x3d816faa	0.06320126
68	0xbce12891	-0.027485164
69	0x3c0eff80	0.008727908
70	0xbdc3ac50	-0.095543504
71	0x3ea11a9f	0.31465623
72	0x3deeba8f	0.11656677
73	0x3c13499b	0.008989717
74	0xbcced483	-0.025247818
75	0x3c9e8e16	0.019354861
76	0xbba39ef6	-0.004993315
77	0x3c2f6011	0.010704056
78	0xbb0c1607	-0.0021375434
79	0xbcf5bde1	-0.029997768
80	0xbcfeaf16	-0.031089347
81	0x3ae00cd2	0.0017093665
82	0xbd446900	-0.0479517
83	0xbdbcb4ef	-0.09214198
84	0xbcdfcffd	-0.027320856
85	0xbd5eb459	-0.05437121
86	0xbbbc2d11	-0.005742677
87	0xbbc8b10b	-0.006124621
88	0xbc1a5a66	-0.009420967
89	0xbc26a750	-0.010171726
90	0xbaba1991	-0.0014198293
91	0x3aeeb384	0.0018211459
92	0xbbbce83f	-0.0057649906
93	0x3cfb18e7	0.030651523
94	0xbb5200fe	-0.0032044048
95	0xbcfe2ed7	-0.031028194
96	0xbd5fd0d8	-0.05464253
97	0x3d1f7b5f	0.038936015
98	0xbfa62d58	-1.2982588
99	0x3b06016a	0.002044762
100	0x3bbfc29f	0.005852058
101	0xbe43420d	-0.19068165
102	0xbdf3d944	-0.119066745
103	0xbe9e5bef	-0.30929515
104	0xbf2da2a2	-0.6782628
105	0xbca68072	-0.02032492
106	0x3dc003b2	0.09375705
107	0x3df3bd22	0.119013086
108	0x3d8e4b4c	0.069479555
109	0xbcf5530e	-0.02994683
110	0xbd898eab	-0.06716665
111	0x3d0480d4	0.032349423
112	0xbcbf35f3	-0.023341155
113	0xbd0cc559	-0.034367893
114	0xbb922c47	-0.0044608447
115	0xbdecc28e	-0.11560546
116	0xbedef0ef	-0.43543193
117	0x3d4a5d82	0.049405582
118	0x3e2c7f8e	0.16845533
119	0x3cbbd48b	0.022928497
120	0xbbed36e2	-0.0072392086
121	0x3d25aa73	0.040445756
122	0xbcc91fc6	-0.024551284
123	0x3d0fa417	0.035068598
124	0xbd80f2cf	-0.06296312
125	0xbcdfd995	-0.02732543
126	0x3e5b9e66	0.21447143
127	0xbd848454	-0.06470552
128	0xbd1a67b2	-0.037696548
129	0xbe5c9e7a	-0.21544829
130	0x3b802300	0.0039104223
131	0x3ed64982	0.41852957
132	0xbcefc6b6	-0.029269557
133	0x3ddf98bb	0.10917803
134	0xbdeebf96	-0.11657636
135	0xbe2e970b	-0.17049806
136	0xbea4b652	-0.3217035
137	0xbe193701	-0.14962389
138	0x3c53ffdd	0.0129394205
139	0xbbf71e0b	-0.007541423
140	0x3da39248	0.07986885
141	0x3d63690d	0.055520106
142	0xbd3be4d9	-0.045872543
143	0x3c5e6eee	0.013576252
144	0xbd46febf	-0.04858279
145	0x3d62b4dc	0.055348262
146	0xbe0b2214	-0.13587219
147	0x3d02ba28	0.031915814
148	0xbebfaefb	-0.37438187
149	0xbd9e23ca	-0.0772167
150	0x3e5f3dee	0.21800968
151	0xbf0ad135	-0.54225475
152	0xbc618e2c	-0.013766807
153	0xb7daca0b	-2.6081709e-05
154	0x3c1594e4	0.009129737
155	0x3d3e7001	0.046493534
156	0xbd13aab3	-0.036051463
157	0x3c3a12b0	0.0113569945
158	0x3b97cd40	0.004632622
159	0x3db170ce	0.08664094
160	0x3d54f287	0.051989105
161	0x3c96c282	0.018403295
162	0xbda5e9c6	-0.08101229
163	0x3cdb72e6	0.026788186
164	0xbecfe4cf	-0.40604255
165	0xbcf5ae25	-0.029990265
166	0x3c352fcc	0.011058759
167	0xbe249a59	-0.16074504
168	0xbd3115ff	-0.043233868
169	0x3d25577b	0.04036663
170	0x3d9772f9	0.07394976
171	0xbeb7130c	-0.3575672
172	0xbd5a999a	-0.053369142
173	0x3a457966	0.00075330434
174	0xbea4a429	-0.32156494
175	0x3e0b4264	0.13599545
176	0xbdbaab8c	-0.09114751
177	0xbd1911df	-0.03737056
178	0xbce5eeaf	-0.028067915
179	0xbe0f1271	-0.13971879
180	0xbdd08d9b	-0.10183259
181	0x3dce9d77	0.10088628
182	0xba4dbdeb	-0.00078484294
183	0xbd84ae96	-0.06478612
184	0x3e46e84e	0.19424555
185	0xbd0bd19e	-0.034135453
186	0x3e030e0b	0.12798326
187	0xbd05e9ff	-0.03269386
188	0x3db583c1	0.08863021
189	0x3e2024f8	0.15639102
190	0xbd9b4b69	-0.07582743
191	0x3d7976c3	0.060904276
192	0x3e0b7a70	0.13620925
193	0xbd8300c3	-0.0639663
194	0x3c9c7072	0.019096587
195	0xbe64b7d7	-0.22335754
196	0xbcfdf630	-0.03100118
197	0xbe9bd1ee	-0.304336
198	0x3e14b1db	0.14520971
199	0x3d46744d	0.048450757
200	0x3e002690	0.1251471
201	0xbe5740af	-0.21020769
202	0xbe9b24c1	-0.30301479
203	0xbdc62d09	-0.096765585
204	0x3d53ac5d	0.05167805
205	0xbd1c2fea	-0.038131632
206	0xbe08f5db	-0.13375036
207	0x3daf5f74	0.08563128
208	0x3bcdf89a	0.006285739
209	0xbd214f63	-0.03938235
210	0x3d56482b	0.05231492
211	0xbdbca70a	-0.09211548
212	0x3da3bbee	0.07994829
213	0xbe1f8cb2	-0.15581015
214	0xbe52b7ce	-0.20577928
215	0xbe5e3010	-0.21698022
216	0x3dc65a6f	0.096852176
217	0x3ecce5ab	0.40018973
218	0x3bb633f8	0.0055603944
219	0x3c028fe5	0.007968877
220	0x3bfd176d	0.00772374
221	0xbb8e652b	-0.0043455563
222	0xbb6fdfb1	-0.0036601836
223	0xbcc8b21b	-0.02449899
224	0xbbd6471b	-0.006539238
225	0x3c527e96	0.012847563
226	0x3e34a0fd	0.17639537
227	0x3c7644cc	0.015031051
228	0xbb95c672	-0.0045707757
229	0xbd2d4a23	-0.04230703
230	0x3e816e5c	0.2527951
231	0xbddeaec5	-0.108731784
232	0x3c1b8dcb	0.009494255
233	0xbe66513a	-0.22491923
234	0xbe4cae11	-0.19988276
235	0x3dbc6bdd	0.09200261
236	0x3c817c7e	0.015806433
237	0xbe000514	-0.12501937
238	0x3e198b39	0.14994515
239	0x3d472591	0.04861981
240	0xbcd0c7dc	-0.025485925
241	0xbc75feb3	-0.015014338
242	0xbddd6926	-0.10811071
243	0xbcb14ab7	-0.021642072
244	0xbdd26c95	-0.10274617
245	0x3e1410b3	0.14459495
246	0xbc36e1fa	-0.011162275
247	0x3e1f30e0	0.15545988
248	0x3e4c2b8e	0.1993849
249	0x3df88225	0.12134198
250	0x3ec0d94a	0.37665778
251	0xbce7eee0	-0.028312147
252	0x3c87459b	0.016512683
253	0xbd696b63	-0.056987178
254	0xbdea0c2c	-0.11428103
255	0x3d7f12c6	0.062273763

fcs1.bias f4 [400]
0	0xbd6d1461	-0.057880763
1	0x3df94740	0.12171793
2	0xbe78b3bc	-0.24287313
3	0xbe6f1513	-0.23347883
4	0xbe815579	-0.25260523
5	0xbdb8bcd0	-0.09020388
6	0x3d8d95c9	0.06913335
7	0x3cbc1ae9	0.02296205
8	0xbd8f8c7e	-0.07009219
9	0xbe7ea4c9	-0.24867548
10	0x3d9da039	0.07696576
11	0xbe8e96df	-0.2784948
12	0x3d9fd9c4	0.07805207
13	0xbdb6e1b0	-0.08929765
14	0x3e00c8b3	0.1257656
15	0xbe705abb	-0.23472111
16	0xbe7ccd0c	-0.24687594
17	0xbe9fb82a	-0.31195194
18	0x3d9c54d9	0.07633371
19	0xbe41c568	-0.18922961
20	0xbdfd0f41	-0.12356425
21	0xbc447c8d	-0.011992586
22	0xbdbf075b	-0.09327575
23	0x3e229767	0.15878068
24	0xbdd886ab	-0.10572561
25	0xbe9ef8e5	-0.31049266
26	0x3d14b905	0.03630926
27	0xbdcead9d	-0.10091708
28	0xbe81454b	-0.2524818
29	0xbe38f72f	-0.18063043
30	0x3d320586	0.0434623
31	0x36a360e5	4.8690586e-06
32	0xbe29f16e	-0.16596004
33	0xbe690a02	-0.22757724
34	0xbd3954b8	-0.04524681
35	0xbe290a2f	-0.16507791
36	0xbd81a0b0	-0.06329477
37	0xbd99c71c	-0.0750868
38	0xbdc371f0	-0.09543216
39	0xbeaaacf8	-0.3333509
40	0xbe4b7d79	-0.19872083
41	0xbe3b2dff	-0.18279265
42	0xbcb346bf	-0.02188432
43	0xbe248999	-0.16068114
44	0xbdd36a26	-0.103229806
45	0xbdf6688f	-0.12031662
46	0xbcbe50be	-0.02323186
47	0xbe3e3cb3	-0.18577842
48	0xbe5bf79d	-0.21481176
49	0xbdec4d1f	-0.11538147
50	0xbe84730a	-0.25869018
51	0xbda28b2b	-0.079367004
52	0x3e134236	0.14380726
53	0xbe165830	-0.14682078
54	0xbd414860	-0.047188163
55	0xbe8b3dd3	-0.27195606
56	0xbd980394	-0.074225575
57	0xbe00b3fe	-0.12568662
58	0x3c331e92	0.0109325815
59	0xbeccd713	-0.4000784
60	0xbdcbcf29	-0.09951622
61	0xbe555378	-0.20832622
62	0xbe9f9cfc	-0.31174457
63	0xbda0422b	-0.078251205
64	0x3c8937cb	0.016750237
65	0xbe3485f5	-0.17629226
66	0xbe20a5b9	-0.15688218
67	0xbdbc6149	-0.09198243
68	0xbd349d31	-0.044095222
69	0xbe3bbf82	-0.18334773
70	0xbe7d1ab1	-0.24717213
71	0xbd77d47e	-0.060505383
72	0xbe6483ff	-0.22315978
73	0x3e2d3b45	0.16917141
74	0xbe8f4fb0	-0.27990484
75	0xbe9f256c	-0.31083238
76	0x3cd6476f	0.026157109
77	0xbd9c6254	-0.07635942
78	0xbe2f8ea5	-0.17144258
79	0xbdf769c0	-0.12080717
80	0xbe3b9923	-0.18320136
81	0x3e0bfce3	0.13670687
82	0xbec25c2f	-0.37960956
83	0x3d6b06ad	0.057379413
84	0xbe3dd3ce	-0.18537828
85	0xbd994777	-0.07484334
86	0xbea84420	-0.32864475
87	0xbe63f556	-0.22261557
88	0xbdf02c31	-0.11727179
89	0xbdfc83a4	-0.12329796
90	0xbd9108ad	-0.07081733
91	0x3e16bcd8	0.14720476
92	0x3d0b5ff6	0.034027062
93	0x3cc0ac6f	0.023519723
94	0xbd15d263	-0.036577594
95	0xbd68a9f9	-0.056802724
96	0x3cb52206	0.02211095
97	0xbdf67722	-0.120344415
98	0xbe426a40	-0.18985844
99	0x3d506ff8	0.05088803
100	0xbe3318f0	-0.17489982
101	0xbe33cecf	-0.1755936
102	0xbe2d403d	-0.16919036
103	0xbe18ce5c	-0.1492247
104	0xbe1b1ffc	-0.1514892
105	0xbc848b4e	-0.016179707
106	0xbea96deb	-0.33091673
107	0xbda001fd	-0.07812879
108	0xbe854746	-0.2603094
109	0xbe6e3301	-0.23261644
110	0xbdcd1e97	-0.100156
111	0xbe787cba	-0.2426633
112	0xba50a776	-0.0007959524
113	0x3e025934	0.12729341
114	0xbde8946f	-0.113564365
115	0x3d898fca	0.06716879
116	0xbe01bcf1	-0.12669732
117	0xbe71a853	-0.23599367
118	0x3cf58deb	0.029974898
119	0xbd0ef5ed	-0.0349025
120	0x3dde2f3a	0.108488515
121	0xbe6bdace	-0.23032686
122	0xbe5bc81f	-0.21463059
123	0x3d6aa543	0.057286512
124	0xbdd9783a	-0.106186345
125	0xbe533fca	-0.20629802
126	0xbdb92cf9	-0.09041781
127	0xbc76fb3a	-0.0150745455
128	0x3ca4bbb1	0.02010903
129	0xbe3d609d	-0.18493886
130	0xbe264152	-0.16235855
131	0xbc58c3d7	-0.013230286
132	0xbe260ee3	-0.16216616
133	0x3d2a2667	0.04154053
134	0xbd22ae80	-0.039717197
135	0xbcd3bae9	-0.025845962
136	0x3e1d355e	0.15352389
137	0xbdc356f7	-0.095380716
138	0xbc89e7ae	-0.016834106
139	0x3da636e3	0.081159376
140	0xbead6031	-0.3386245
141	0xbd9e5268	-0.077305615
142	0x3d95ccb7	0.07314437
143	0x3e070791	0.1318648
144	0xbe888921	-0.2666712
145	0xbe3e32ec	-0.18574113
146	0xbdf03ed7	-0.11730736
147	0xbea4e888	-0.32208657
148	0x3d7a5aff	0.061121937
149	0xbda2e6c2	-0.0795417
150	0xbce1b6e1	-0.027553024
151	0x3e205560	0.15657568
152	0x3df1df5d	0.11810181
153	0xbe65c5b4	-0.22438699
154	0x3aca0e44	0.0015415628
155	0xbe34de01	-0.17662813
156	0xbc45a1b1	-0.012062476
157	0xbe820a2f	-0.25398394
158	0x3daf3db5	0.085566916
159	0xbe4f1587	-0.20223056
160	0xbe6ddf5e	-0.23229739
161	0xbe8f6270	-0.2800479
162	0xbd645029	-0.05574051
163	0x3e04e6d6	0.12978682
164	0x3c3297dc	0.010900464
165	0xbe915c8f	-0.2839093
166	0xbe86fe17	-0.2636573
167	0x3cc6920f	0.024239568
168	0xbe36504e	-0.17804071
169	0x3e13c3c1	0.14430143
170	0xbd83aede	-0.06429838
171	0xbe1371b9	-0.1439885
172	0x3d5dd1e2	0.054155238
173	0xbcca7b84	-0.0247171
174	0xbe8eef03	-0.27916726
175	0xbe0c6e5e	-0.13713977
176	0xba365463	-0.00069553236
177	0xbdbf52f6	-0.093419954
178	0xbc9ed4a1	-0.019388499
179	0xbdf057e2	-0.11735512
180	0xbea8544c	-0.32876813
181	0x3e3cfeca	0.1845657
182	0xbe956cb3	-0.29184493
183	0xbea15591	-0.31510594
184	0x3d3f6a57	0.046732273
185	0xbdd5761f	-0.104229204
186	0xbdae4a0a	-0.085102156
187	0xbe311b86	-0.17295656
188	0xbd30ca18	-0.04316148
189	0xbe74c474	-0.23903066
190	0xbd80660d	-0.06269465
191	0x3c27cbc3	0.010241452
192	0x3c4e554c	0.012593579
193	0x3d1bf38a	0.038074054
194	0xbe704754	-0.2346471
195	0xbe2565a5	-0.16152056
196	0x3e3f6bea	0.1869351
197	0xbd345d2b	-0.044034164
198	0xbcf35fad	-0.029708708
199	0xbe251a7f	-0.16123389
200	0xbd0008aa	-0.031258263
201	0x3da8c824	0.08241299
202	0xbe854ba0	-0.2603426
203	0x3da4ef55	0.080534615
204	0x3e1ed095	0.15509255
205	0xbc9b12e9	-0.018929916
206	0x3d346ff1	0.04405207
207	0xbd857dac	-0.06518111
208	0x3c9abb89	0.018888252
209	0xbe4a0ed2	-0.19732216
210	0xbe2e4f89	-0.17022528
211	0xbdf87aeb	-0.1213282
212	0xbe82e5ec	-0.2556604
213	0xbe147fb1	-0.14501835
214	0xbde5cacd	-0.11220322
215	0xbe427ddf	-0.18993329
216	0xbe1c39f3	-0.15256481
217	0xbd35df3f	-0.044402357
218	0xbea258a7	-0.3170826
219	0xbce70b28	-0.028203562
220	0xbe8b4ada	-0.27205545
221	0xbd958ec6	-0.073026225
222	0xbe4ceb6d	-0.20011683
223	0x3d104214	0.035219267
224	0xbe4f4dd0	-0.20244527
225	0xbea3188a	-0.3185466
226	0xbe83d6ea	-0.25749904
227	0xbe4bcbb5	-0.19901927
228	0xbdbd6067	-0.09246903
229	0xbb08d789	-0.0020880422
230	0xbe539f8c	-0.20666331
231	0xbe5b81ad	-0.21436186
232	0xbe6a8276	-0.2290133
233	0xbe1cc1c0	-0.15308285
234	0x3cdc2539	0.026873218
235	0x3d4222b3	0.047396373
236	0x3cb44a43	0.022008067
237	0xbdc23be9	-0.09484083
238	0xbdaa0670	-0.08302009
239	0xbe4a4073	-0.19751148
240	0xbd0b5f9f	-0.03402674
241	0xbe66d615	-0.22542603
242	0x3d6a70e9	0.057236586
243	0x3d020a09	0.03174785
244	0xbd127169	-0.035752688
245	0xbe061025	-0.13092096
246	0xbe06b369	-0.13154377
247	0xbe8a414f	-0.27002952
248	0xbe8bf792	-0.2733732
249	0xbe6d3de1	-0.23168136
250	0x3d603a62	0.05474318
251	0xbdd7665d	-0.10517571
252	0xbd8390fa	-0.064241365
253	0xbdb6e570	-0.089304805
254	0x3dc1ce71	0.09463204
255	0xbe1d2b35	-0.15348513

bn1.weight f4 [400]
0	0x3e36e5f2	0.17861155
1	0x3cd11616	0.025523227
2	0x3f576b68	0.84148264
3	0x3e138de3	0.14409594
4	0x3e754632	0.23952559
5	0x3e5ee33c	0.2176637
6	0x3e97533e	0.29555696
7	0x3dd61eb4	0.10455075
8	0x3f8ace8b	1.0844282
9	0x3ea241cb	0.3169082
10	0x3e51e144	0.20496088
11	0x3e84e6df	0.2595739
12	0x3ece9d58	0.4035442
13	0x3d1723d5	0.036899406
14	0x3ee1e4c2	0.4411984
15	0x3e99f229	0.30067566
16	0x3c615335	0.013752748
17	0x3e8e478c	0.2778896
18	0x3c824a58	0.01590459
19	0x3e9dc4d3	0.30814227
20	0x3e33a5d3	0.17543726
21	0x3e4f8409	0.20265211
22	0x3e0683ff	0.1313629
23	0x3e35d5b2	0.177573
24	0x3ea22335	0.31667486
25	0x3e7a87d8	0.24465883
26	0x3e3caf3d	0.18426223
27	0x3e3aec15	0.1825412
28	0x3d92b64e	0.07163678
29	0x3e81bb9e	0.25338453
30	0x3eaf74a3	0.34268674
31	0x3eaca9a6	0.3372318
32	0x3e72a468	0.23695529
33	0x3e01666f	0.12636732
34	0x3e31a0ef	0.17346548
35	0x3f165e05	0.5873721
36	0x3e37ea34	0.17960435
37	0x3b7ffa3e	0.0039059068
38	0x3df8e9f1	0.12153996
39	0x3db4cea9	0.0882848
40	0x3e73dc25	0.23814447
41	0x3e410e72	0.18853167
42	0x3c26b1de	0.010174243
43	0x3e1e35f2	0.15450266
44	0x3e04493f	0.12918566
45	0xbc017ea4	-0.007903729
46	0x3b52048a	0.0032046163
47	0x3f10a3a9	0.56499726
48	0x3d629e9e	0.05532705
49	0x3dcff29d	0.10153697
50	0x3e03eb9b	0.12882845
51	0x3e5dbec3	0.21654801
52	0x3e8f74ab	0.28018698
53	0x3df398dc	0.1189439
54	0x3c80f22c	0.015740477
55	0x3eceaa89	0.40364483
56	0x3e41da02	0.1893082
57	0x3e4f54a9	0.20247139
58	0x3f030e96	0.5119413
59	0x3dc175b7	0.094462804
60	0x3e397b6b	0.18113486
61	0x3db8da44	0.09026006
62	0x3ea0524b	0.31312785
63	0x3e360c7a	0.17778197
64	0x3e9a8ae7	0.301841
65	0x3e73cd1c	0.23808712
66	0x3e398234	0.18116075
67	0x3eb94bcc	0.3619064
68	0x3c90a691	0.01765755
69	0x3e811c62	0.25216967
70	0x3e38ef47	0.18060027
71	0x3da37385	0.07981018
72	0x3ec4421c	0.38331687
73	0x3e8b416c	0.2719835
74	0x3da5df36	0.08099215
75	0x3e1e653e	0.15468308
76	0x3e1d61f2	0.15369394
77	0x3e8ca55c	0.2746991
78	0x3d234387	0.03985932
79	0x3e36edb7	0.17864119
80	0x3d565904	0.052330986
81	0x3e428ea4	0.18999726
82	0x3ea5a8cc	0.32355344
83	0x3e8215b2	0.25407177
84	0x3d8ec0ef	0.06970393
85	0x3ee3d5d8	0.44499087
86	0x3e992a56	0.29915112
87	0x3e9de6b5	0.30840078
88	0x3e9fc199	0.3120239
89	0x3ed0d056	0.40783948
90	0x3f0af03b	0.5427281
91	0x3dc2c83c	0.09510848
92	0x3d88107b	0.066437684
93	0x3e871a15	0.26387087
94	0x3bfd0b64	0.007722305
95	0x3f07ca3e	0.5304297
96	0x3eb672b8	0.35634398
97	0x3d6845f4	0.056707337
98	0x3e6850f5	0.22687133
99	0x3e80c53a	0.25150472
100	0x3e8a99d6	0.27070493
101	0x3e36a7e5	0.17837484
102	0x3e0b0a1f	0.1357808
103	0x3e2bf40a	0.16792312
104	0x3e2a9715	0.16659196
105	0x3e4273f0	0.18989539
106	0x3e5474d5	0.20747693
107	0x3ebc577d	0.36785498
108	0x3e9d9cd1	0.30783704
109	0x3e70f9a4	0.2353273
110	0x3e3d2f67	0.18475114
111	0x3e960009	0.29296902
112	0x3e31bd40	0.1735735
113	0x3d1b3ce9	0.037899885
114	0x3e973b76	0.29537553
115	0x3ed3e544	0.41385853
116	0x3e582dd1	0.21111228
117	0x3e475080	0.19464302
118	0x3b76e8a5	0.0037675288
119	0x3e7cc84f	0.24685787
120	0x3c6f7a97	0.01461663
121	0x3e723cf3	0.23656063
122	0x3e247fc5	0.16064365
123	0x3d85665e	0.065136656
124	0x3e2c9227	0.16852628
125	0x3ec86df2	0.39146382
126	0x3f0bf3d0	0.54668903
127	0x3ecfbd4b	0.40574107
128	0x3e4d1e43	0.20031075
129	0x3e432702	0.19057849
130	0x3e8a87c0	0.27056694
131	0x3b87bf57	0.0041426825
132	0x3e4ec2ef	0.20191549
133	0x3aae0bff	0.0013278722
134	0x3e96daa7	0.29463693
135	0x3eaaa149	0.33326176
136	0x3e84e1a3	0.25953397
137	0x3de109f0	0.109882236
138	0x3c8458ad	0.016155565
139	0x3e3217aa	0.1739184
140	0x3eb22c7a	0.34799558
141	0x3ed80c40	0.42196846
142	0x3e9e748e	0.309483
143	0x3e7909d7	0.2432016
144	0x3e2cc50b	0.16872041
145	0x3e33ab3d	0.17545791
146	0x3e912fc8	0.28356767
147	0x3da5acfb	0.08089634
148	0x3e9d5f9d	0.3073701
149	0x3daca54b	0.08429965
150	0x3ea63c16	0.32467717
151	0x3e2ff36b	0.171827
152	0x3e231340	0.15925312
153	0x3de2bbd8	0.110709846
154	0x3f2ace50	0.6672106
155	0x3ec889a5	0.39167514
156	0x3ea2562a	0.31706363
157	0x3e537f69	0.20654072
158	0x3e01fd14	0.12694198
159	0x3e00e333	0.1258667
160	0x3ea65c6e	0.32492393
161	0x3df127fa	0.11775203
162	0x3e55491d	0.20828672
163	0x3b5e8b14	0.0033957409
164	0x3ebf26c6	0.3733427
165	0x3e6b4245	0.22974499
166	0x3e7cb2e4	0.24677616
167	0x3e7f9e4a	0.24962726
168	0x3e6706b3	0.2256115
169	0x3e00a11d	0.1256146
170	0x3ec0679c	0.37579048
171	0x3e75bbd1	0.23997428
172	0x3e390df0	0.18071723
173	0x3e1745a7	0.14772664
174	0x3dc1b8ff	0.09459113
175	0x3e63d216	0.2224811
176	0x3e972a04	0.29524243
177	0x3e3d613a	0.1849412
178	0x3e0131af	0.12616609
179	0x3f190f85	0.59789306
180	0x3e113ae9	0.14182629
181	0x3e94015c	0.28907287
182	0x3e375604	0.17903906
183	0x3e973912	0.2953573
184	0x3e1d6655	0.15371068
185	0x3e623dac	0.22093838
186	0x3ed77cb6	0.42087334
187	0x3e9117c3	0.2833844
188	0x3f3edf60	0.74559593
189	0x3e701b68	0.23447955
190	0x3e0e6c1e	0.13908431
191	0x3e94f701	0.290947
192	0x3f0db0fc	0.5534818
193	0x3d830dd4	0.06399122
194	0x3f031a38	0.5121188
195	0x3dbb666e	0.09150396
196	0x3e35ec26	0.17765865
197	0x3e5da17d	0.21643634
198	0x3e837c5d	0.2568082
199	0x3d7c43dc	0.061588153
200	0x3eb013ca	0.34390098
201	0x3e43ce12	0.19121578
202	0x3ba6bf7d	0.005088745
203	0x3e555880	0.20834541
204	0x3cabee7c	0.020987742
205	0x3e32ed6b	0.1747338
206	0x3ed6e1e8	0.41969228
207	0x3dabba40	0.08385134
208	0x3e9ec3b7	0.31008694
209	0x3dff7745	0.12473921
210	0x3e276d41	0.16350271
211	0x3f3e2b91	0.7428523
212	0x3e55cffa	0.20880118
213	0x3f1d4ff7	0.6145014
214	0x3e81a217	0.25318977
215	0x3df96892	0.12178148
216	0x3e386818	0.18008459
217	0x3e0483c1	0.12940885
218	0x3e73f7a4	0.23824936
219	0x3eb81e5d	0.35960665
220	0x3ee50484	0.44730008
221	0x3e3ef8c9	0.18649592
222	0x3ee435cb	0.4457229
223	0x3e79ca87	0.24393664
224	0x3e32acfa	0.17448798
225	0x3e6ce7dd	0.23135324
226	0x3dfcdb4a	0.123465136
227	0x3e79344a	0.24336353
228	0x3e605f03	0.21911244
229	0x3e950fb8	0.29113555
230	0x3e8d6885	0.27618805
231	0x3e23f854	0.16012698
232	0x3dc24d8f	0.094874494
233	0x3ef41454	0.4767176
234	0x3e8941e9	0.26808098
235	0x3e1ebef4	0.1550253
236	0x3ea7c33c	0.3276614
237	0x3ef953ff	0.48696896
238	0x3eb446e4	0.35210335
239	0x3e940530	0.28910208
240	0x3e562aa8	0.2091471
241	0x3e98c96f	0.29841182
242	0x3e8b2ef6	0.27184266
243	0x3ec4671b	0.38359913
244	0x3deae570	0.11469543
245	0x3e87e57b	0.26542267
246	0x3e2c60ac	0.16833752
247	0x3e208b27	0.15678082
248	0x3e4a2fe4	0.19744831
249	0x3ea5c8d6	0.32379788
250	0x3ee47a07	0.4462435
251	0x3e4d2c36	0.20036396
252	0x3e7605cc	0.24025649
253	0x3e28dadb	0.16489737
254	0x3e1ae001	0.15124513
255	0x3ea95d77	0.3307912

bn1.bias f4 [400]
0	0xbe33bba5	-0.1755205
1	0xbebc3487	-0.36758825
2	0x3e5724be	0.2101011
3	0x3d031bd5	0.032008965
4	0xbd7e84b1	-0.062138263
5	0x3cdfe68c	0.027331613
6	0xbe01c668	-0.12673342
7	0x3bcbf403	0.006224157
8	0xbda829fc	-0.08211133
9	0x3e8574dc	0.2606572
10	0xbd4714f5	-0.04860397
11	0x3d86b9e8	0.065784276
12	0x3d871892	0.06596483
13	0xbc2b5fd5	-0.01045986
14	0x3e15e1c1	0.146369
15	0x3e2d3ca9	0.16917671
16	0xbe62ac9e	-0.2213616
17	0x3d93b824	0.072128564
18	0x3ebc0e12	0.36729485
19	0xbe4dff87	-0.20117007
20	0xbd469310	-0.048480093
21	0xbe0ef940	-0.13962269
22	0xbd090ef9	-0.033461545
23	0x3e404bfb	0.18778984
24	0xbd8fa4f2	-0.07013883
25	0xbcd77243	-0.026299601
26	0x3e60f2fd	0.21967693
27	0xbdf18e0f	-0.11794674
28	0xbda88a59	-0.08229513
29	0x3e24e58c	0.1610319
30	0x3dbd8b76	0.09255116
31	0x3d536a45	0.05161502
32	0x3e161bdf	0.1465907
33	0xbaa2aa4d	-0.0012410373
34	0x3c9b7352	0.018975887
35	0x3e190660	0.14943838
36	0xbddd1c64	-0.10796431
37	0x3eb7a699	0.3586929
38	0xbc9dd8db	-0.019268444
39	0x3d09a9de	0.033609264
40	0x3de4da0a	0.111744
41	0xbdcfaa40	-0.101398945
42	0x3e8c4556	0.2739665
43	0x3d716e7e	0.058943264
44	0xbdb49d7f	-0.088191025
45	0xbed14151	-0.40870145
46	0x3ed06e8c	0.4070934
47	0x3d2f84d0	0.04285127
48	0xbbde3893	-0.0067816465
49	0x3b0a5ea2	0.0021113534
50	0x3cf68b12	0.03009561
51	0xbdbfc790	-0.093642354
52	0xbe699c79	-0.22813596
53	0xbdb9b91f	-0.09068512
54	0x3e9a1b21	0.30098823
55	0xbe88fe94	-0.26756728
56	0x3df0c115	0.117555775
57	0xbc94f98d	-0.018185401
58	0x3bb4afd3	0.005514124
59	0x3cc3fb6c	0.023923598
60	0xbd4f8041	-0.05065942
61	0xbcf25984	-0.0295837
62	0xbd67207c	-0.056427464
63	0x3cbada19	0.022809075
64	0x3e3dce53	0.18535738
65	0xbd85f8e4	-0.06541613
66	0x3d8f1854	0.06987062
67	0xbd9af0f5	-0.0756549
68	0xbe778102	-0.24170306
69	0x3c4da101	0.012550593
70	0x3e21fa2b	0.15818088
71	0xbe0b4406	-0.13600168
72	0x3e33188a	0.1748983
73	0xbd1da3fc	-0.038486466
74	0xbc18d54e	-0.0093282
75	0xbe039102	-0.12848285
76	0x3cfc0314	0.030763187
77	0x3df7028a	0.12061031
78	0x3cd4597a	0.025921572
79	0x3cbf1140	0.023323655
80	0xbe7cdced	-0.24693651
81	0x3c0820f4	0.008308638
82	0x3e3985cb	0.18117444
83	0xbd893081	-0.066987045
84	0xbc991fe2	-0.01869196
85	0x3e683692	0.22677067
86	0x3cca5805	0.024700174
87	0x3d9806d3	0.074231766
88	0x3e57dfd6	0.2108148
89	0x3daeb32d	0.08530269
90	0xbd910be3	-0.07082345
91	0xbeccb3cd	-0.39980927
92	0x3ebbce11	0.36680654
93	0x3d9d5216	0.07681672
94	0x3ebb12c5	0.36537758
95	0x3c6a8a1b	0.0143151535
96	0x3e5c88f8	0.21536624
97	0xbe97ad2e	-0.29624313
98	0xbdd24c4f	-0.10268461
99	0xbcf17204	-0.029473312
100	0x3e009425	0.12556513
101	0xbce06946	-0.027393948
102	0xbc2ccc94	-0.010546822
103	0xbe7d576b	-0.24740379
104	0xbcf8afa2	-0.030357186
105	0xbdfa0b1e	-0.12209152
106	0x3cd349ef	0.02579209
107	0xbe0307f9	-0.1279601
108	0x3d37aafe	0.044840805
109	0xbdfdb488	-0.12387949
110	0x3c2660a5	0.010154878
111	0x3dc437b0	0.09580934
112	0xbd9ab715	-0.075544514
113	0xbe8d9b34	-0.27657473
114	0xbce39f9f	-0.027786074
115	0xbd8c6910	-0.068559766
116	0xbccca53c	-0.024981134
117	0x3e024e55	0.12725194
118	0xbe9555d4	-0.29167044
119	0xbd4264dc	-0.04745947
120	0x3ea065ad	0.31327572
121	0xbcf27e17	-0.02960114
122	0x3d37e4ab	0.04489581
123	0xbde9ba03	-0.11412432
124	0x3e064655	0.13112767
125	0x3de6f8a3	0.112778924
126	0x3e3c821b	0.18409006
127	0x3e76b57b	0.24092667
128	0x3cd2e42b	0.025743565
129	0x3d92fa65	0.07176665
130	0x3e2e3db0	0.1701572
131	0xbe564cd7	-0.2092775
132	0x3c6f0d83	0.014590624
133	0x3eaf01e5	0.34181133
134	0x3e09d68d	0.13460751
135	0x3e436fc4	0.19085604
136	0xbd8f6c28	-0.07003051
137	0xbd5d1220	-0.053972363
138	0x3e8ca8c0	0.27472496
139	0xbe237303	-0.15961842
140	0x3d07d544	0.03316237
141	0x3d11d469	0.03560296
142	0x3dd7a934	0.1053032
143	0x3d216d29	0.039410744
144	0xbdee09a0	-0.116229296
145	0xbe7b6b71	-0.24552704
146	0xbdca682c	-0.098831505
147	0xbd9befb0	-0.07614076
148	0xbd242ac2	-0.04007984
149	0xbe0de8b2	-0.13858297
150	0x3d8cca7c	0.06874558
151	0x3d96dec0	0.07366705
152	0xbdd042a8	-0.10168964
153	0x3b22e650	0.0024856515
154	0x3e933b9f	0.28756425
155	0x3bd73397	0.0065674293
156	0x3dfb3bca	0.12267263
157	0xbc7c69af	-0.015406056
158	0x3cefa2f4	0.029252507
159	0x3c57bf14	0.013168115
160	0x3ddc8dff	0.10769271
161	0xbb753906	-0.0037418022
162	0x3d6e2ceb	0.058148306
163	0xbe9edc45	-0.31027427
164	0xbe396983	-0.18106656
165	0x3d46509d	0.048416723
166	0x3b319d51	0.0027101825
167	0x3ebadbf5	0.3649594
168	0xbcfa3a4a	-0.030545373
169	0xbd7bc026	-0.061462544
170	0x3da4924f	0.08035719
171	0x3d49e829	0.04929367
172	0xbd3c9063	-0.046036135
173	0x3d709a9d	0.0587412
174	0xbb286680	-0.002569586
175	0x3c0e8d73	0.008700716
176	0x3e09d3f4	0.1345976
177	0xbd82d714	-0.06388679
178	0xbcc35da5	-0.023848364
179	0x3e82e863	0.25567922
180	0x3c063893	0.008192199
181	0xbb5b019b	-0.0033417705
182	0xbd70f1c9	-0.058824334
183	0xbdacd8cd	-0.08439789
184	0xbe14b974	-0.1452387
185	0x3d5b5bf6	0.053554498
186	0x3dbe0e72	0.09280099
187	0x3dec0cd7	0.115258865
188	0x3c0d0cc3	0.008609
189	0xbcfeb6bc	-0.031092994
190	0x3e3589d1	0.17728354
191	0x3d295fdb	0.04135118
192	0x3c27225a	0.010201061
193	0xbd23c6f1	-0.039984647
194	0xbe45966e	-0.19295666
195	0xbde9c889	-0.11415202
196	0xbd816d31	-0.06319655
197	0x3ca44e68	0.020056918
198	0xbc8a96ed	-0.01691767
199	0x3d3c1eb4	0.04592772
200	0x3e07655b	0.13222258
201	0x3d38926a	0.045061506
202	0x3eb440cc	0.35205686
203	0x3d3e0757	0.04639372
204	0xbea93036	-0.33044595
205	0xbd5e96c7	-0.05434301
206	0xbe7139e6	-0.23557243
207	0x3c084b51	0.008318738
208	0x3dc6991c	0.09697172
209	0x3d698642	0.057012804
210	0xbe208ddb	-0.15679114
211	0x3db07ba5	0.08617333
212	0x3cff9701	0.031199934
213	0x3db03dcd	0.086055376
214	0xbdce4257	-0.10071247
215	0x3c2ad56f	0.010426863
216	0xbc67bb64	-0.0141437985
217	0x3d6924a5	0.056919713
218	0x3e3bff80	0.18359184
219	0x3c5faa40	0.013651431
220	0x3d0b88d3	0.034066033
221	0xbcbc8ee8	-0.023017362
222	0x3d0a2f79	0.03373668
223	0xbe38b3c4	-0.18037325
224	0xbd4df685	-0.050283927
225	0xbcea004c	-0.028564595
226	0xbd00fb45	-0.03148963
227	0xbd2977ae	-0.0413739
228	0x3e29f322	0.16596654
229	0x3df584fa	0.11988254
230	0x3e77116e	0.24127743
231	0xbe955a96	-0.29170674
232	0x3d6c3165	0.057664294
233	0x3e6eccc8	0.23320305
234	0x3d9c24c8	0.07624203
235	0x3e44fcc7	0.19237052
236	0xbdc8af76	-0.097990915
237	0xbd34e727	-0.044165757
238	0x3d8e5650	0.069500566
239	0x3e6acfd9	0.2293085
240	0x3ddc7b8e	0.10765754
241	0x3e0a69ef	0.13516973
242	0xbd9b25a7	-0.07575541
243	0xbde309c5	-0.11085848
244	0xbcc1e5ae	-0.02366909
245	0x3dbcc7a1	0.09217764
246	0xbdca13ea	-0.098670796
247	0xbd88fd2a	-0.06688912
248	0x3cb0b5c2	0.021571044
249	0x3e04c67f	0.12966345
250	0x3de00588	0.10938555
251	0xbd73b0fb	-0.059494954
252	0x3ec51a78	0.38496757
253	0xbdc1350f	-0.09433948
254	0xbde44e84	-0.11147788
255	0x3cca1642	0.024668816

bn1.running_mean f4 [400]
0	0x3d91588d	0.07096968
1	0x3f44e525	0.76912147
2	0x3e1aae18	0.15105474
3	0x3dd20322	0.10254504
4	0x3d889c93	0.06670489
5	0x3efae401	0.49002078
6	0x3e0d1316	0.13776812
7	0x3ca7af9a	0.020469476
8	0x3ebd9a5c	0.3703183
9	0x3ee241fb	0.44190964
10	0x3ce5b086	0.028038274
11	0x3e217884	0.1576863
12	0x3e4a449c	0.19752735
13	0x3bc292c6	0.005937907
14	0x3f2f6d18	0.6852584
15	0x3eb37e52	0.35057312
16	0xbc961146	-0.018318783
17	0x3dc53a05	0.09630207
18	0x3f944dfa	1.1586297
19	0x3cd5fde7	0.026122047
20	0x3e726271	0.23670365
21	0x3e735fb8	0.23766983
22	0x3e9a5277	0.3014104
23	0x3f06fccd	0.52729493
24	0x3eacfff8	0.3378904
25	0x3d12f74c	0.035880372
26	0x3f35d36c	0.7102573
27	0x3d4d05f8	0.05005452
28	0x3d8a57e8	0.06755048
29	0x3db67918	0.089098155
30	0x3e5979cd	0.2123787
31	0x3e422460	0.18959188
32	0x3e86e220	0.26344395
33	0x3d7d3890	0.06182152
34	0x3de23508	0.11045271
35	0x3e84c295	0.25929704
36	0x3d39a06f	0.045319017
37	0x3e6a91eb	0.22907226
38	0x3d54a949	0.051919255
39	0x3e0c1a68	0.13681948
40	0x3dc06a7e	0.09395312
41	0x3db16298	0.086613834
42	0x3f162467	0.58649296
43	0x3da1746a	0.07883532
44	0x3dfda414	0.12384811
45	0x3f2272a6	0.6345619
46	0x3e9a7867	0.30169985
47	0x3e34d1b3	0.17658119
48	0xbc39fa9a	-0.011351252
49	0x3ccf6748	0.025317803
50	0x3da23b80	0.07921505
51	0x3eb7aff6	0.35876435
52	0x3e4a4b13	0.19755201
53	0x3d0e98bd	0.03481363
54	0x3eba9e65	0.3644897
55	0x3d281096	0.041031443
56	0x3e4c5316	0.1995357
57	0x3e5ef8c5	0.21774586
58	0x3e917399	0.28408507
59	0x3d20f2c4	0.03929402
60	0x3dc077cf	0.09397852
61	0x3d7d6fdf	0.061874267
62	0x3dacae0f	0.084316365
63	0x3d084566	0.03326931
64	0x3e884b6b	0.2662004
65	0x3c767fff	0.015045165
66	0x3e499ca1	0.19688655
67	0x3dd13d5f	0.10216784
68	0x3ef6b5d0	0.48185587
69	0x3d98fe1a	0.07470341
70	0x3c328735	0.010896494
71	0x3d7631ca	0.060106076
72	0x3ef4d554	0.47819006
73	0x3efa2094	0.4885298
74	0x3cad1049	0.02112593
75	0x3dbc8a31	0.092060454
76	0x3e87a532	0.26493222
77	0x3e017139	0.12640847
78	0x3edbe351	0.42946866
79	0x3db82966	0.08992271
80	0x3d5d5045	0.05403163
81	0x3dac9fd6	0.08428924
82	0x3e4589fa	0.19290915
83	0x3ee0f5cd	0.4393753
84	0x3cb002d0	0.021485716
85	0x3ee37f98	0.44433284
86	0x3dc8b8e8	0.09800893
87	0x3e41f534	0.18941194
88	0x3e7d3d95	0.24730523
89	0x3e803447	0.25039884
90	0x3e80ed07	0.25180838
91	0x3ee29601	0.4425507
92	0x3f67eb7a	0.90593684
93	0x3f058c71	0.5216742
94	0x3f4d56d3	0.8021061
95	0x3eae795f	0.34076974
96	0x3e63ba7b	0.22239105
97	0x3f38c170	0.7217016
98	0x3ea1549e	0.3150987
99	0x3e524a81	0.20536233
100	0x3da2bcb7	0.07946151
101	0x3e353996	0.17697749
102	0x3e72f874	0.2372759
103	0x3e53b486	0.20674333
104	0x3de445f4	0.11146155
105	0x3d3776a5	0.044790883
106	0x3d95c7f0	0.07313526
107	0x3dedac98	0.11605185
108	0x3e08a386	0.13343629
109	0x3e11a22e	0.14222023
110	0x3b7c6bb0	0.0038516335
111	0x3e4f0e45	0.20220287
112	0x3e35f4e4	0.177692
113	0x3f49c34d	0.7881363
114	0x3df55f06	0.11981015
115	0x3ed93bb5	0.42428365
116	0x3e1436a1	0.14473964
117	0x3e5c5892	0.21518162
118	0x3eec44de	0.46146291
119	0x3e919a9a	0.28438264
120	0x3f38715a	0.7204796
121	0x3d0f7118	0.035019964
122	0x3dc4d17a	0.09610267
123	0x3ed91fd9	0.4240711
124	0x3ddc9614	0.10770813
125	0x3e92176c	0.28533494
126	0x3e88f792	0.2675138
127	0x3ead1d24	0.33811295
128	0x3d432d33	0.047650527
129	0x3e7c9c87	0.24669085
130	0x3e30535a	0.17219296
131	0x3ede2889	0.433903
132	0x3dfafca9	0.12255222
133	0x3f2675a4	0.65023255
134	0x3e4d4b07	0.20048152
135	0x3ed426a9	0.41435745
136	0x3e7d2800	0.2472229
137	0x3e23be5f	0.1599059
138	0x3f7422e5	0.95365745
139	0x3e773f60	0.2414527
140	0x3d76ef88	0.06028703
141	0x3e6ec9f9	0.23319234
142	0x3ed13844	0.4086324
143	0x3f674e42	0.90353787
144	0x3da102b2	0.07861842
145	0x3d069032	0.03285236
146	0x3cf0d66e	0.029399123
147	0x3d22755b	0.0396627
148	0x3e26366d	0.162317
149	0x3c73eb57	0.014887652
150	0x3e297360	0.16547918
151	0x3e8cdce1	0.27512267
152	0x3f22e152	0.6362506
153	0x3c8571f9	0.016289698
154	0x3ead3381	0.33828357
155	0x3e1aa1e2	0.15100816
156	0x3de35a7c	0.11101243
157	0x3ddb2e45	0.107021846
158	0x3e42a7a3	0.19009261
159	0x3b495fc7	0.0030727254
160	0x3e4c993c	0.1998033
161	0x3d80f096	0.06295888
162	0x3ddb15fd	0.10697553
163	0x3f348aff	0.7052459
164	0x3d8636b4	0.065534025
165	0x3dae2a63	0.085041784
166	0x3d46e645	0.048559446
167	0x3f1d6ce7	0.61494297
168	0x3e8fad01	0.2806168
169	0x3ea3d6cc	0.31999815
170	0x3f07e4c2	0.5308343
171	0x3e159d20	0.1461072
172	0x3e0f77f1	0.14010598
173	0x3de1389a	0.10997124
174	0x3dfc46b8	0.12318176
175	0x3d46ef9e	0.04856836
176	0x3e1c8139	0.1528367
177	0x3d1e149c	0.038593873
178	0x3e06ef6e	0.13177273
179	0x3e6a0996	0.22855219
180	0x3d215a21	0.039392594
181	0x3e17758e	0.14790937
182	0x3cc3507a	0.023842085
183	0x3d899a35	0.06718866
184	0x3e13d76a	0.14437643
185	0x3ea340da	0.31885415
186	0x3e5dc740	0.21658039
187	0x3df3ba6e	0.11900793
188	0x3e44be7a	0.19213286
189	0x3c869ea1	0.016433062
190	0x3f0b24dd	0.54353124
191	0x3dce5966	0.10075645
192	0x3e90b880	0.28265762
193	0x3ea9b597	0.33146355
194	0x3dc90b40	0.09816599
195	0x3dac10e7	0.08401661
196	0x3dfe2c39	0.124107786
197	0x3d963ebd	0.07336185
198	0x3eca8570	0.3955493
199	0x3ca42ec9	0.02004184
200	0x3e72acdb	0.23698752
201	0x3ece2824	0.40265
202	0x3eba5d0b	0.3639911
203	0x3eb69626	0.3566143
204	0x3f1f8db8	0.6232562
205	0x3ed00507	0.40628836
206	0x3e4b4652	0.19851044
207	0x3d5ba6ea	0.05362598
208	0x3f0109d7	0.5040564
209	0x3e365911	0.17807414
210	0x3cb38634	0.021914579
211	0x3de7a18e	0.11310111
212	0x3e8bc65e	0.2729978
213	0x3e1adb0c	0.15122622
214	0x3e3443fa	0.17604056
215	0x3e098c1d	0.13432355
216	0x3cbf9bbf	0.023389695
217	0x3e1c345a	0.15254346
218	0x3c52bd3d	0.012862501
219	0x3e435589	0.19075598
220	0x3e13127b	0.14362518
221	0x3f2c1cde	0.6723155
222	0x3d79a352	0.06094677
223	0x3e498d39	0.19682778
224	0xbb0ba630	-0.0021308772
225	0x3da8fd86	0.08251481
226	0x3e07c90d	0.13260289
227	0x3e83f106	0.25769824
228	0x3e075ee0	0.13219786
229	0x3e2e06d5	0.16994794
230	0x3db799d6	0.08964889
231	0x3dddbd40	0.10827112
232	0x3f267209	0.65017754
233	0x3e475573	0.1946619
234	0x3e6ade8f	0.22936462
235	0x3eeb2f46	0.45934504
236	0x3d11eb85	0.035625
237	0x3ddf18ca	0.108934
238	0x3e874d0d	0.26425973
239	0x3e224b69	0.15849079
240	0x3ecf15d6	0.40446347
241	0x3e1e42ec	0.15455216
242	0x3e52649b	0.2054619
243	0x3ddfff88	0.109374106
244	0x3dc3e8a8	0.0956586
245	0x3e7d0f5e	0.24712893
246	0x3dc3fa46	0.0956922
247	0x3d901359	0.0703494
248	0x3d1d7c81	0.038448814
249	0x3e1e3f9c	0.15453953
250	0x3eebc612	0.46049553
251	0x3d0908e1	0.033455733
252	0x3f758708	0.95909166
253	0x3e2fee45	0.17180736
254	0x3db3ad51	0.08773292
255	0x3e29ee35	0.16594775

bn1.running_var f4 [400]
0	0x3d22f618	0.039785475
1	0x3f57a6b2	0.8423873
2	0x3d99e871	0.07515038
3	0x3d7f31f2	0.06230349
4	0x3d01a98a	0.031655826
5	0x3f01913e	0.50612247
6	0x3d8fcc76	0.0702142
7	0x3c603788	0.013685115
8	0x3e84cb97	0.25936577
9	0x3e785b2c	0.2425353
10	0x3c08ec6b	0.008357148
11	0x3deeedcc	0.1166645
12	0x3dba51e7	0.09097653
13	0x3bbdefe8	0.0057964213
14	0x3f201102	0.6252595
15	0x3e9a3dd0	0.30125284
16	0x388ff3f7	6.864213e-05
17	0x3d7c855b	0.061650615
18	0x3f6a0d57	0.91426605
19	0x3be30d8a	0.006929104
20	0x3ddd5c2c	0.10808596
21	0x3deda772	0.11604203
22	0x3e696a05	0.2279435
23	0x3f000a30	0.50015545
24	0x3e8a0bab	0.26962027
25	0x3c655b6d	0.013998848
26	0x3f3c5c5a	0.7357842
27	0x3ccd5d13	0.025068795
28	0x3d2955b4	0.0413415
29	0x3d531105	0.051529903
30	0x3d58a309	0.052889857
31	0x3d8a2bfe	0.06746672
32	0x3e453126	0.1925703
33	0x3cdbcb74	0.026830412
34	0x3dc218e3	0.09477403
35	0x3dea19a2	0.1143067
36	0x3cbfd9f7	0.023419363
37	0x3e75550a	0.23958221
38	0x3ccb44f7	0.024813158
39	0x3d8da4ef	0.06916224
40	0x3d2cb17f	0.04216146
41	0x3d250795	0.040290434
42	0x3f2e45f4	0.6807549
43	0x3d4f623c	0.050630793
44	0x3d901e7c	0.070370644
45	0x3f4ad42f	0.79230016
46	0x3e86f4e0	0.263587
47	0x3def64d7	0.116891555
48	0x37f87d8f	2.9622372e-05
49	0x3c5180eb	0.012787084
50	0x3d8d9c08	0.06914526
51	0x3eb2d7cc	0.34930265
52	0x3dc32b06	0.095296904
53	0x3ca12fc7	0.019676102
54	0x3e95e785	0.29278198
55	0x3c60142a	0.0136766825
56	0x3e1fa0e5	0.1558872
57	0x3dea9bfe	0.114555344
58	0x3e135c52	0.14390686
59	0x3cefe6c6	0.029284846
60	0x3d0d1c7d	0.034450997
61	0x3d13558a	0.03597025
62	0x3d4491d8	0.04799065
63	0x3cd6fc2b	0.02624329
64	0x3df263f7	0.11835473
65	0x3c2d450f	0.010575547
66	0x3e17c48b	0.14821069
67	0x3d0a2e8f	0.033735808
68	0x3eae02ab	0.3398641
69	0x3d32cceb	0.043652456
70	0x3c483b17	0.012221119
71	0x3d0f36d9	0.034964416
72	0x3e97e86f	0.2966952
73	0x3db10184	0.08642867
74	0x3ca09b7b	0.019605389
75	0x3d794b7e	0.06086301
76	0x3e5d20f3	0.215946
77	0x3d9dc9ab	0.07704481
78	0x3ec3e403	0.38259897
79	0x3d5c265e	0.053747527
80	0x3cf5242e	0.029924478
81	0x3d4039ef	0.04693025
82	0x3e25e8cc	0.16202086
83	0x3e03e9a5	0.12882097
84	0x3c9545e0	0.018221796
85	0x3db90fd9	0.09036226
86	0x3d7520b3	0.059845638
87	0x3dcb03fc	0.09912869
88	0x3e23880d	0.15969868
89	0x3e02e60d	0.1278307
90	0x3e19ca1d	0.15018506
91	0x3e9caaf6	0.30599183
92	0x3f8dd335	1.108008
93	0x3eb61397	0.3556182
94	0x3fa0a42c	1.2550101
95	0x3e3d28a2	0.18472531
96	0x3e02dad3	0.12778787
97	0x3f3ff337	0.7498049
98	0x3e1266f2	0.14297083
99	0x3dc1126a	0.0942734
100	0x3d263c4c	0.040584847
101	0x3e17f94c	0.14841193
102	0x3dd120c0	0.10211325
103	0x3e2657fa	0.16244498
104	0x3dafb284	0.08578971
105	0x3c522f30	0.012828633
106	0x3d2e530c	0.04255967
107	0x3d0fc97d	0.035104264
108	0x3d9b736a	0.07590373
109	0x3d8cb7b6	0.068709776
110	0x3b59b3b2	0.003321868
111	0x3df7ff0d	0.12109194
112	0x3db6720b	0.08908471
113	0x3f5e1e9c	0.86765456
114	0x3d4d7777	0.05016276
115	0x3e92e3fe	0.2868957
116	0x3dd9e2a3	0.10638931
117	0x3e0a09fc	0.13480371
118	0x3ebeb23a	0.3724535
119	0x3dec748d	0.11545668
120	0x3efed4e6	0.49771804
121	0x3c8bf197	0.017082972
122	0x3d9710a4	0.07376221
123	0x3ebf1a9a	0.37324983
124	0x3da4376c	0.080183834
125	0x3e27bce3	0.16380648
126	0x3e6245f9	0.22097005
127	0x3e6f7d58	0.23387659
128	0x3ca9156d	0.0206401
129	0x3e27f517	0.16402088
130	0x3dfdda52	0.12395157
131	0x3f0671df	0.52517503
132	0x3da281ae	0.07934891
133	0x3f2baf19	0.6706405
134	0x3de0b34e	0.109717
135	0x3e8d1768	0.2755692
136	0x3daa2ec2	0.083096996
137	0x3dcca06f	0.09991538
138	0x3f5ad1ca	0.8547636
139	0x3dff90e6	0.12478809
140	0x3ccfa0c3	0.025345212
141	0x3db91b3d	0.090383984
142	0x3e1ce6c4	0.15322405
143	0x3f1192f9	0.5686489
144	0x3d327d30	0.04357642
145	0x3cae6d65	0.021292398
146	0x3c4407f1	0.011964784
147	0x3cd698d5	0.026195923
148	0x3dab008b	0.08349713
149	0x3c4aef15	0.012386103
150	0x3d979ad2	0.074025765
151	0x3d91c81c	0.07118246
152	0x3eb05bdb	0.3444508
153	0x3c16f177	0.009212843
154	0x3e08dcb3	0.1336544
155	0x3d5996d9	0.053122375
156	0x3d87ef1d	0.06637404
157	0x3d855298	0.06509894
158	0x3dc67ab2	0.09691371
159	0x3b98ccb9	0.0046630767
160	0x3e2bb031	0.1676643
161	0x3cf07ae8	0.029355481
162	0x3d84b27a	0.06479354
163	0x3edb164c	0.4279045
164	0x3cf63075	0.030052403
165	0x3d5ca3cc	0.053867146
166	0x3cbeb89a	0.023281384
167	0x3e3f8a24	0.1870504
168	0x3e3d8ebc	0.1851148
169	0x3e22f302	0.15913013
170	0x3ed18d20	0.40927982
171	0x3e06ed66	0.13176498
172	0x3d94f50b	0.07273301
173	0x3dc71987	0.09721666
174	0x3d8111da	0.06302233
175	0x3cc61426	0.02417953
176	0x3dab8747	0.083754115
177	0x3cbf23ac	0.02333244
178	0x3dbb964e	0.09159528
179	0x3e405436	0.18782124
180	0x3d16085e	0.036629073
181	0x3d6f6bb4	0.058452323
182	0x3c9541f9	0.018219935
183	0x3d16f876	0.036858045
184	0x3d92c2bb	0.07166048
185	0x3e5ab5c8	0.21358407
186	0x3de8117f	0.11331462
187	0x3d7c99f7	0.06167027
188	0x3daf174a	0.08549364
189	0x3c05ea43	0.008173528
190	0x3ec3a496	0.38211507
191	0x3d1b0a7d	0.0378518
192	0x3db913cf	0.09036981
193	0x3e821aa9	0.25410965
194	0x3d673153	0.056443524
195	0x3d8c64d1	0.06855167
196	0x3d7132b8	0.05888626
197	0x3cd8dcc5	0.026472459
198	0x3e653a11	0.22385432
199	0x3c826748	0.015918389
200	0x3d616dd4	0.05503638
201	0x3e125709	0.14291014
202	0x3eb6b77d	0.35686865
203	0x3e6addfb	0.22936241
204	0x3f1647ff	0.5870361
205	0x3e756057	0.23962532
206	0x3d60f3ec	0.054920122
207	0x3d284e78	0.04109046
208	0x3de856a3	0.1134465
209	0x3dea3e4e	0.11437665
210	0x3c8f22fd	0.017472738
211	0x3d8c6019	0.06854267
212	0x3e4c7192	0.19965199
213	0x3d9c40d8	0.076295555
214	0x3de96a7c	0.113972634
215	0x3d282159	0.041047428
216	0x3c4ae808	0.012384422
217	0x3dd92203	0.1060219
218	0x3bd85927	0.0066024247
219	0x3d813dda	0.063106254
220	0x3d9e9203	0.07742693
221	0x3e80e1b9	0.25172213
222	0x3cd64970	0.026158065
223	0x3dbd082e	0.09230076
224	0x3b5e6c2a	0.0033938983
225	0x3d0c0931	0.034188453
226	0x3dab0502	0.083505645
227	0x3e1c1662	0.15242913
228	0x3dada5c8	0.08478886
229	0x3d8b2cfa	0.06795688
230	0x3cf79ba3	0.03022558
231	0x3dbd33cc	0.09238395
232	0x3f4ac862	0.7921201
233	0x3dc04606	0.09388356
234	0x3e0f3c1f	0.13987778
235	0x3eafb54d	0.3431801
236	0x3c3ee162	0.011650415
237	0x3d62cd1b	0.055371385
238	0x3e200ea0	0.15630579
239	0x3d965d39	0.073419996
240	0x3e8d4088	0.27588296
241	0x3d9dffaa	0.0771478
242	0x3d8d3e15	0.06896607
243	0x3d137373	0.035998773
244	0x3d7cb55c	0.061696395
245	0x3dc110aa	0.094270065
246	0x3d771318	0.060320944
247	0x3d24f794	0.04027517
248	0x3ca5b6d4	0.02022878
249	0x3dfde7b5	0.1239771
250	0x3d9805c3	0.07422974
251	0x3c91ec7c	0.01781296
252	0x3e6ee10b	0.23328035
253	0x3decf95c	0.11570999
254	0x3d44c62e	0.04804056
255	0x3dfe17e4	0.124069005

fc2.weight f4 [280, 404]
0	0x3dd84b15	0.10561196
1	0x3e0ff338	0.14057624
2	0xbea2eb3e	-0.318201
3	0x3cd74e0d	0.026282335
4	0x39a6ec9e	0.0003183828
5	0x3d3d6f19	0.04624853
6	0xbd612ec7	-0.05497625
7	0x3d4cc9c8	0.04999712
8	0xbe76c324	-0.24097878
9	0xbd421ea4	-0.047392502
10	0xbdc3ff42	-0.09570171
11	0xbdb5b765	-0.0887287
12	0xbce8c85d	-0.028415853
13	0x3c850db1	0.01624188
14	0xbe2f9167	-0.1714531
15	0xbcd5e80a	-0.026111621
16	0xbd647fef	-0.05578607
17	0x3e689a94	0.22715217
18	0xbd715f5c	-0.058928832
19	0xbc942d37	-0.018087966
20	0xbdd27904	-0.10276988
21	0xbb2006ae	-0.0024418044
22	0x3e4a48ca	0.1975433
23	0xbe010831	-0.12600781
24	0x3d73826a	0.059450544
25	0xbe431647	-0.19051467
26	0x3adaebcc	0.0016702353
27	0xbd5bfd67	-0.05370846
28	0x3d369116	0.04457196
29	0x3c4766cc	0.012170505
30	0xbdb8f92e	-0.09031902
31	0x3e26e364	0.1629768
32	0xbd3acf83	-0.045608055
33	0x3d8ac64e	0.06776105
34	0x3d064590	0.032781184
35	0xbdca45d1	-0.09876598
36	0x3e244319	0.1604122
37	0x3d1abc44	0.0377772
38	0xbdf98ba2	-0.12184836
39	0x3df94579	0.12171454
40	0x3cff53d6	0.031167906
41	0x3da17bee	0.07884966
42	0xbe2cad87	-0.1686307
43	0xbda392da	-0.07986994
44	0x3da845da	0.08216448
45	0xbcf54a02	-0.029942516
46	0x3dcf3820	0.10118127
47	0xbe22ba17	-0.158913
48	0xbd12d749	-0.035849843
49	0xbae2ed9a	-0.0017313242
50	0x3d20f725	0.039298195
51	0x3cdedf09	0.02720596
52	0x3e24d395	0.16096337
53	0xbde013e2	-0.10941292
54	0xbd62f4a7	-0.0554091
55	0x3e16e8be	0.14737222
56	0x3baf77cc	0.005354857
57	0xbdea4565	-0.11439017
58	0xbc9d887d	-0.019230122
59	0x3c80068b	0.01562812
60	0x3babdb2d	0.0052446336
61	0x3d0eda51	0.03487617
62	0xbc148edd	-0.009067264
63	0xbb42887c	-0.0029683402
64	0xbd8eaf9d	-0.06967089
65	0x3cffcc8f	0.03122547
66	0x3cf58ead	0.02997526
67	0xbe0f937b	-0.14021103
68	0x3c229e12	0.009925382
69	0x3d456ce5	0.048199553
70	0xbdaa95ac	-0.08329329
71	0xbdf2ed1d	-0.11861632
72	0xbd77b0f2	-0.060471483
73	0xbd1df9da	-0.038568355
74	0xbb8acb67	-0.004235673
75	0x3d092af6	0.033488236
76	0x3dbaf1fb	0.09128185
77	0xbc98ce44	-0.018653043
78	0xbe06a825	-0.1315008
79	0xbe0b221d	-0.13587232
80	0x3e0212a3	0.12702422
81	0xbe37eb0e	-0.1796076
82	0x3a93e322	0.0011282901
83	0x3c2c6685	0.010522489
84	0x3e78e18b	0.24304788
85	0x3b9dece3	0.004819499
86	0xbd429787	-0.04750779
87	0xbdb320bc	-0.08746478
88	0x3b05763c	0.0020364663
89	0xbe9380b8	-0.28809142
90	0xbdec3c74	-0.11534968
91	0x3ccccb2b	0.024999222
92	0xbd2ce726	-0.042212628
93	0xbc43e16f	-0.011955603
94	0x3d1d3c39	0.03838751
95	0xbe53a431	-0.20668103
96	0xbd49dfdd	-0.04928576
97	0xbdb13a43	-0.08653691
98	0xbd9c3dfe	-0.076290116
99	0x3db4fa66	0.08836822
100	0x3dbec7fa	0.09315486
101	0xbc8170c8	-0.015800849
102	0x3d98f719	0.07469005
103	0x3d006e08	0.031354934
104	0x3cdf8d34	0.02728901
105	0x3cc41e43	0.023940211
106	0xbdcfebe8	-0.101524174
107	0xbb7acbf2	-0.0038268534
108	0xbdbdfcef	-0.09276759
109	0x3d8e4f4d	0.06948719
110	0x3e11a640	0.14223576
111	0xbdb8f946	-0.0903192
112	0x3a573bbd	0.0008210501
113	0xbd6c28de	-0.05765616
114	0xbd7476ce	-0.059683613
115	0xbd99bada	-0.07506342
116	0x3d69f9b6	0.05712291
117	0xbdbc50bc	-0.09195086
118	0x3cd5d611	0.026103051
119	0xbdac6907	-0.0841847
120	0xbe066ff2	-0.13128641
121	0x3d30d2fa	0.043169953
122	0xbde22502	-0.11042215
123	0x3e1e007c	0.15429872
124	0x3cf97c18	0.03045468
125	0xbdf8968d	-0.1213809
126	0xbd961f10	-0.073301435
127	0xba329627	-0.00068125356
128	0x3c2d4911	0.010576502
129	0xbcc215b1	-0.023691984
130	0xbdf1b639	-0.11802334
131	0x3de63ae8	0.11241704
132	0x3debd80d	0.11515818
133	0xbcd1b5e2	-0.025599424
134	0x3e0416d2	0.1289933
135	0xbdd6549a	-0.10465355
136	0x3c899d14	0.016798533
137	0xbcf827ed	-0.030292476
138	0xbdbb71e1	-0.0915258
139	0x3cffa746	0.031207692
140	0xbc9a32ee	-0.018823113
141	0x3d243868	0.040092856
142	0x3d7a8be3	0.061168563
143	0x3d0936a9	0.033499394
144	0x3e737697	0.23775707
145	0xbb233e50	-0.0024908967
146	0xbd8921b8	-0.066958845
147	0x3dd37cef	0.103265636
148	0xbc9b83d6	-0.018983763
149	0x3d222ffe	0.03959655
150	0xbb941cec	-0.0045200493
151	0x3c79df5d	0.015251008
152	0x3d7c8c6d	0.061657358
153	0x3c9ff2ee	0.019525018
154	0xbdab6758	-0.08369321
155	0x3c0451ff	0.00807619
156	0xbe1a62e6	-0.1507679
157	0x3d84c3ae	0.064826354
158	0x3cafc8d4	0.021458067
159	0x3cd8f2ff	0.026483057
160	0x3d343836	0.04399892
161	0xbd6b8926	-0.05750384
162	0xbded3178	-0.11581701
163	0x3da5775e	0.08079408
164	0xbd3fa4db	-0.046788078
165	0xbcd7946e	-0.026315894
166	0xbe31389b	-0.1730675
167	0xbe396107	-0.18103419
168	0xbe4168f8	-0.18887699
169	0x3d8a163b	0.067425214
170	0xbd54279b	-0.051795583
171	0x3db8dd15	0.09026543
172	0x3cd57cc7	0.026060475
173	0x3989411f	0.00026179195
174	0xbda73fc3	-0.081664585
175	0xbbd7cf87	-0.0065860185
176	0xbcbe3614	-0.023219146
177	0xbcffbd21	-0.031218113
178	0xbd36b661	-0.044607524
179	0x3c3b0b1f	0.011416226
180	0x3cffa879	0.031208264
181	0xbda00a48	-0.07814461
182	0x3c3a1d8e	0.011359585
183	0x3d873775	0.066023745
184	0xbcc38c11	-0.0238705
185	0xbc7a1609	-0.015264043
186	0x3d70080b	0.05860142
187	0xbde9b82f	-0.11412083
188	0x3ce3b1d6	0.02779476
189	0xbe0e6fe2	-0.13909867
190	0xbe705c90	-0.2347281
191	0xbe3ef007	-0.1864625
192	0x3d9dd922	0.077074304
193	0x3db47d2f	0.088129394
194	0xbe05436d	-0.13014002
195	0x3b1c8e31	0.0023888464
196	0x3dc0b405	0.09409336
197	0xbd39117d	-0.045182694
198	0x3d66b4de	0.056324832
199	0xbd98b733	-0.074568175
200	0xbd58e0b5	-0.052948672
201	0xbd5f459f	-0.054509755
202	0x3d201b7a	0.039088704
203	0xbd497e6e	-0.04919284
204	0x3d8592c9	0.06522138
205	0x3d977f0c	0.07397279
206	0x3db9672c	0.090528816
207	0x3ce5ad7f	0.028036831
208	0x3d7bd36f	0.061480936
209	0x3cb202d6	0.021729868
210	0x3db05b93	0.086112164
211	0xbe1ace16	-0.15117678
212	0xbd73c86b	-0.059517305
213	0x3d1279cd	0.03576069
214	0xbd31957b	-0.043355446
215	0xbd795930	-0.06087607
216	0x3cd51e5f	0.026015459
217	0xbda84c74	-0.08217707
218	0x3d49e289	0.049288306
219	0xbc556ceb	-0.013026456
220	0x3d385f8e	0.045013003
221	0x3d7c2da1	0.061566953
222	0xbe0177f9	-0.12643422
223	0x3b06aac6	0.0020548566
224	0xbd974a83	-0.07387259
225	0xbd04ba1f	-0.03240406
226	0xbd862832	-0.065506354
227	0x3cd8d158	0.02646701
228	0x3dbbb617	0.0916559
229	0xbd33f82c	-0.043937847
230	0x3c97f3f4	0.018548943
231	0x3bf23aa0	0.0073922426
232	0x3ceb9807	0.028759016
233	0x3d0f897c	0.035043225
234	0xbc3e3259	-0.0116086835
235	0x3b2ee9a8	0.0026689563
236	0xbbe94473	-0.0071187555
237	0xbe03e2cf	-0.1287949
238	0xbd86d0c5	-0.065827884
239	0xbe289a12	-0.16465023
240	0x3ca00c6e	0.019537177
241	0x3dc3483a	0.095352605
242	0xbd7eedfe	-0.062238686
243	0xbc900414	-0.01758007
244	0xbdc3c83a	-0.095596746
245	0xbd10edb3	-0.035382938
246	0xbd9a3219	-0.075290866
247	0x3d2e81d6	0.04260429
248	0xbcdddf28	-0.027083948
249	0x3d7489ea	0.059701838
250	0xbc1e9ba4	-0.009680662
251	0x3dde3d2f	0.108515136
252	0xbc46aaf6	-0.012125721
253	0x3de9336e	0.113867626
254	0x3dfcf599	0.123515315
255	0xbca28cbf	-0.019842504
