checkpoint_actor.pth (torch_old, 307638 bytes, 10 tensors)

fc1.weight f4 [256, 33]
-0.17906804 0.20009458 -0.1355065 -0.7197821 0.20631509 0.3913575 -0.88680166 -0.14030875
-0.08016435 0.43032128 0.032440368 0.21260285 -0.03112482 0.22409193 -0.050969232 0.31293684
1.3557186 0.34442347 0.15890649 -0.35267255 0.028427629 -0.0047898726 0.23179756 0.6388784
0.065586105 0.14363724 0.055383597 1.5834651 1.0025871 0.011622071 -1.515634 -0.062118463
-5.5641274 -0.5351956 1.626417 -1.4475859 0.7623239 -0.9462438 1.2042475 -1.5165814
0.13126571 0.75689244 0.25214052 0.9090012 0.031515222 -0.91149384 0.7956005 -0.83198684
0.043937683 0.22721785 -0.054377753 1.7419113 0.6601381 -0.37855643 0.108020835 -0.036295585
0.1511875 0.1191524 0.6705849 0.3855573 0.62161016 0.1614289 0.049656577 -0.5905585
0.047461435 -1.0298221 0.02292889 -1.0203295 1.2267863 0.113145515 0.06417193 0.3439506
0.4777011 -0.03503583 2.618753 -0.53577566 -0.6000187 -0.08918018 0.03189242 -0.45087874
1.0008608 -0.49686337 -0.20250465 0.9467482 -1.1494774 -1.386774 0.2653033 0.5229811
-0.04054925 -1.0477072 0.37301013 0.29849285 0.7159336 0.41417924 0.5639278 -0.007413268
-0.40604407 -0.029285222 -0.04619529 0.33108264 -0.5163209 -0.14082563 -2.4342592 0.9036664
3.3107083 1.2794452 -1.2722036 -0.62618 -0.017379258 -0.8082001 0.36514005 0.21352148
0.47655576 0.38623077 -0.8834894 -1.517332 0.61295617 -0.28201878 -0.55987483 0.74153346
0.45332563 -0.52365625 -0.5195906 0.25292018 -0.023474086 -0.23815523 0.37255514 0.3330195
-0.036512442 -0.27350682 -0.017319232 -1.6515942 0.24291092 0.5047432 1.1981448 0.34239697
0.30020067 -0.3792166 0.9096724 0.92502195 0.3055651 -1.8758997 -0.5937523 0.6168463
-0.15891176 -0.44208628 -0.74385905 -1.163916 -0.087086044 0.007970507 0.32769403 -0.40034762
0.08382808 -0.74987596 0.4469085 -0.71196765 -0.7546948 0.026777795 0.3130142 0.8403797
-0.47834376 0.016738057 -0.83299226 -0.046243675 -2.895889 0.04601262 -0.22550024 -0.65473163
-0.84741646 -0.55087024 -0.5707121 0.69886684 0.9025745 -0.3891386 -0.2244169 -0.857559
-0.29750934 -0.1409433 -0.2878345 -0.7590476 0.055169635 1.6934067 0.9472005 -1.1093867
0.08545453 -0.38237372 -0.6457311 0.1498106 -0.7703819 -0.39508247 -0.12087853 0.50761396
0.8922621 1.2955962 -0.013883434 -0.8979801 -0.009373806 2.4554405 0.24560778 -0.488281
-0.061771803 0.3619274 -0.5371314 -0.54162097 -0.6831438 -0.1967228 -0.64244735 0.019753776
0.1536418 -0.046737593 -0.28147396 -0.09946478 0.23297347 0.10595469 0.1334044 -0.26408246
0.54193294 0.2894775 -0.0056444607 -0.003351853 0.17351454 0.09659262 -0.056669284 0.036459554
0.65579295 0.3198162 0.64446425 -0.029108942 -0.31963664 0.058799878 -6.321188 -0.83980846
-0.10990387 0.3942524 0.2803579 0.28460348 -0.4353672 -0.66548884 0.51946217 0.0725549
-1.110615 -1.2253782 1.0535315 0.65731204 -0.13018699 0.8787876 -0.093181565 1.0307817
0.1945828 1.8640649 -1.0928082 -0.098994225 0.40764123 -0.36679107 -0.7190478 0.5831935
00000000: 9d5d 37be 98e5 4c3e 37c2 0abe a443 38bf
00000010: 4344 533e 0360 c83e 6f05 63bf 19ad 0fbe
00000020: 352d a4bd 1253 dc3e 31e0 043d 90b4 593e
00000030: 7af9 febc 5b78 653e 1dc5 50bd 4239 a03e
00000040: 3088 ad3f 4658 b03e 62b8 223e 7f91 b4be
00000050: 0fe1 e83c 5df4 9cbb 575c 6d3e 898d 233f
00000060: 0252 863d a415 133e e9d9 623d fcae ca3f
00000070: c654 803f 806a 3e3c 4b00 c2bf ee6f 7ebd
00000080: 550d b2c0 9402 09bf 6f2e d03f 7f4a b9bf
00000090: a927 433f 093d 72bf c824 9a3f 571f c2bf
000000a0: 856a 063e b4c3 413f 9018 813e 4db4 683f
000000b0: 1b16 013d a957 69bf 79ac 4b3f 17fd 54bf
000000c0: 00f8 333d ccab 683e 35bb 5ebd f3f6 de3f
000000d0: cffe 283f 26d2 c1be 073a dd3d aeaa 14bd
000000e0: e5d0 1a3e 2c06 f43d 74ab 2b3f c467 c53e
000000f0: d821 1f3f 9e4d 253e b264 4b3d d82e 17bf
00000100: ec66 423d 36d1 83bf 5ed5 bb3c 289a 82bf
00000110: 5507 9d3f d6b8 e73d 936c 833d 4b1a b03e
00000120: 3d95 f43e bb81 0fbd a699 2740 9828 09bf
00000130: d39a 19bf 19a4 b6bd a0a1 023d 94d9 e6be
00000140: 351c 803f e064 febe 615d 4fbe 175e 723f
00000150: 1322 93bf cf81 b1bf d6d5 873e 17e2 053f
00000160: f816 26bd 451b 86bf 2ffb be3e 0ed4 983e
00000170: 6d47 373f 4d0f d43e 935d 103f 00eb f2bb
00000180: 02e5 cfbe 90e7 efbc 4637 3dbd aa83 a93e
00000190: 9b2d 04bf 9834 10be e7ca 1bc0 ae56 673f
000001a0: a5e2 5340 dcc4 a33f 91d7 a2bf 554d 20bf
000001b0: f25e 8ebc 34e6 4ebf a3f3 ba3e 60a5 5a3e
000001c0: 1eff f33e 0ac0 c53e 5c2c 62bf ef37 c2bf
000001d0: b2ea 1c3f c464 90be f553 0fbf 23d5 3d3f
000001e0: 4c1a e83e 560e 06bf e403 05bf c17e 813e
000001f0: ba4c c0bc f7de 73be 8cbf be3e 8881 aa3e
00000200: 128e 15bd 1609 8cbe 10e1 8dbc 7067 d3bf
00000210: a4bd 783e da36 013f cf5c 993f a84e af3e
00000220: e7b3 993e ae28 c2be 4ae0 683f 3dce 6c3f
00000230: 0773 9c3e 7b1d f0bf 2700 18bf a4e9 1d3f
00000240: c4b9 22be 2259 e2be 8c6d 3ebf 33fb 94bf
00000250: 2b5a b2bd bb96 023c 83c7 a73e 5dfa ccbe
00000260: 0eae ab3d dff7 3fbf 31d1 e43e 8343 36bf
00000270: ae33 41bf 1b5d db3c 6643 a03e 2023 573f
00000280: 79e9 f4be 401e 893c fb3e 55bf 026a 3dbd
00000290: 3f56 39c0 bb77 3c3d 89e9 66be 7e9c 27bf
000002a0: 49f0 58bf d505 0dbf 301a 12bf f0e8 323f
000002b0: 1f0f 673f 2d3d c7be 8bcd 65be fd88 5bbf
000002c0: 2553 98be 7153 10be 0b5f 93be f250 42bf
000002d0: 8ef9 613d 8dc1 d83f bb7b 723f 6200 8ebf
000002e0: c902 af3d 7dc6 c3be a24e 25bf f367 193e
000002f0: c037 45bf 4048 cabe 2a8f f7bd fdf2 013f
00000300: 4a6b 643f 19d6 a53f 5877 63bc 06e2 65bf
00000310: 9894 19bc f025 1d40 9b80 7b3e f8ff f9be
00000320: 6e04 7dbd 8c4e b93e 7281 09bf aca7 0abf
00000330: 83e2 2ebf b471 49be 6e77 24bf acd2 a13c
00000340: 4754 1d3e eb6f 3fbd 5b1d 90be 31b4 cbbd
00000350: 9990 6e3e c6fe d83d 2a9b 083e d135 87be
00000360: 1ebc 0a3f 6536 943e 2bf5 b8bb c3aa 5bbb
00000370: ccad 313e 5ad2 c53d 0d1e 68bd 9d56 153d
00000380: 0ce2 273f f3be a33e 9cfb 243f e075 eebc
00000390: 6aa7 a3be 24d8 703d 2c47 cac0 b0fd 56bf
000003a0: 4815 e1bd 73db c93e 128b 8f3e 8cb7 913e
000003b0: 73e8 debe 7a5d 2abf 79fb 043f aa97 943d
000003c0: a228 8ebf 31d9 9cbf 1fda 863f 9a45 283f
000003d0: bd4f 05be 39f8 603f fad5 bebd a8f0 833f
000003e0: b740 473e ae99 ee3f 24e1 8bbf 7cbd cabd
000003f0: 5ab6 d03e 0acc bbbe 8413 38bf 2b4c 153f

fc1.bias f4 [256]
-1.4172521 -0.7843768 -0.4602785 -0.26427194 -0.70465225 -0.84328216 -0.38562086 -0.3286602
-0.4444869 -0.6555328 -1.9284823 -0.79023594 -0.11757714 -0.64684266 -1.344525 -0.98109186
-0.5597217 -0.15762241 -1.6195666 -1.1242119 -0.38729295 -1.5560564 -0.79561126 0.20258227
0.20038454 -0.9295548 0.25098005 -0.37118816 -0.94062585 -2.2422018 -0.26192528 -1.0994236
-0.113047175 -1.4741404 0.50057715 -1.2892922 -0.35322043 -0.4488622 -1.9340534 -0.8156267
-1.4107351 -0.5412954 -0.37744206 -0.5257018 -0.027529357 -0.4404104 -1.028956 -0.037533887
-0.16733566 -0.44194183 -0.95020676 -0.4192931 -1.2326211 0.032575764 -1.3979847 -1.5541071
-0.9934459 -0.9501157 -0.23188612 -0.8147923 -1.5732162 -1.9162419 0.17859869 -0.45862466
1.1145815 0.88562083 -0.6376574 -0.90274006 -1.9625323 -0.35781777 -0.24165337 0.6106377
-1.2253231 -1.0887374 -0.45581514 -0.55282927 -0.7719932 -2.1777065 0.3494419 -0.21942106
0.07983897 -0.59124625 -0.03415549 -2.223855 -0.8993614 -1.5926392 0.083390035 -1.3453693
0.1654616 -1.6958762 -1.1078485 -1.0178908 -0.57483923 -0.2657724 0.13663357 -1.4115483
-1.9899309 -1.4137979 -0.847187 0.8417684 0.64130735 -0.72140837 -1.494562 -1.2709552
-0.17236517 -0.4695644 -1.2705854 -1.4761735 0.051228125 -1.1003098 -0.65369964 -0.34324464
-1.058749 -0.2736704 -0.6627924 -1.4732718 -0.5484496 -0.9845815 -0.14362401 -0.83707285
0.18829167 0.03466453 -1.533125 -1.7852726 -1.4579477 -1.1522536 0.24769044 -1.8014206
-0.8655203 -1.1482942 0.025463104 -1.5080359 -0.7665014 0.2984582 -0.80637825 -0.73000735
0.47042355 0.4742558 0.088873364 -0.5567111 0.39499667 0.9116534 -1.4446462 -1.520151
0.082961425 0.18351427 -0.95916724 -1.4829919 -0.45754084 0.14913455 -1.2060953 -1.0931458
-1.2991594 -0.51605636 -0.46511355 0.44814447 -1.1077281 -1.2790798 -0.68425447 -1.6783893
-0.98200434 -0.30033794 -1.418094 -0.896822 -0.5547541 -1.6026012 -0.09532145 -0.59862554
0.82813036 -1.2363257 -1.2524598 0.1426594 -0.31831458 -0.96797144 -0.76960415 -0.74054414
-0.7070343 0.0072395015 -0.809002 -1.3394506 -0.6751066 0.59198993 0.41597635 -0.3990395
-1.6560951 -2.3244002 -1.0671458 0.04971963 -1.2294005 -0.6067448 0.1434836 -2.0069363
0.33965084 -0.44914418 -1.3555696 -0.5415403 -0.6706161 -1.1813124 -0.62672895 -2.134616
-1.2131878 -0.09489898 -0.24880865 -0.2793811 -0.52260953 -0.53685856 0.2870974 -0.7075154
-0.21659188 -2.201127 0.5847345 -0.60402924 -0.50172347 -0.9953277 -1.7134684 -0.45808744
-0.7461778 -1.0281898 -0.8731122 -0.45261905 -1.8734992 -2.362397 -1.1863178 -1.7415681
-2.0538037 -0.6135765 -0.25814417 -0.5155588 0.42076007 -0.47174802 -0.22411904 -1.506872
-0.34453937 -0.32243714 -1.7906173 0.48934287 -1.8546895 -0.7405034 -0.31423318 -0.44558802
0.33452836 -0.7309292 -1.6371311 -1.4233221 -1.0732601 -1.7855979 -0.13949928 -0.26943552
-0.08190496 -0.5971634 -0.9172624 -1.5227144 -0.23339558 -1.1375111 0.018677268 -1.1837443
00000000: 8468 b5bf ebcc 48bf a0a9 ebbe a74e 87be
00000010: 1764 34bf 57e1 57bf 1970 c5be 2646 a8be
00000020: c993 e3be ffd0 27bf 82d8 f6bf e74c 4abf
00000030: 49cc f0bd 7b97 25bf 6519 acbf d628 7bbf
00000040: ec49 0fbf c567 21be f54d cfbf 2de6 8fbf
00000050: 434b c6be db2c c7bf 2ead 4bbf ba71 4f3e
00000060: 9b31 4d3e 4ef7 6dbf 7580 803e 600c bebe
00000070: dbcc 70bf 3c80 0fc0 121b 86be eab9 8cbf
00000080: 4785 e7bd a2b0 bcbf d325 003f 8707 a5bf
00000090: 4fd9 b4be 44d1 e5be 108f f7bf e9cc 50bf
000000a0: f892 b4bf 5692 0abf 1640 c1be 6594 06bf
000000b0: 3f85 e1bc 797d e1be d5b4 83bf 22bd 19bd
000000c0: 0a5a 2bbe 3346 e2be c040 73bf 96ad d6be
000000d0: 87c6 9dbf 2a6e 053d 2af1 b2bf fbec c6bf
000000e0: 7852 7ebf c83a 73bf 8e73 6dbe 3a96 50bf
000000f0: 265f c9bf 6a47 f5bf 93e2 363e dad0 eabe
00000100: 9baa 8e3f 0cb8 623f 843d 23bf f919 67bf
00000110: 4234 fbbf e433 b7be fb73 77be c152 1c3f
00000120: 63d7 9cbf bf5b 8bbf 9a60 e9be 3886 0dbf
00000130: 59a1 45bf 8b5f 0bc0 0cea b23e eaaf 60be
00000140: 9d82 a33d ea5b 17bf a1e6 0bbd a453 0ec0
00000150: 8c3c 66bf 9adb cbbf 65c8 aa3d 1035 acbf
00000160: c46e 293e 7912 d9bf fbcd 8dbf 3f4a 82bf
00000170: aa28 13bf 5213 88be ace9 0b3e 9dad b4bf
00000180: 0eb6 febf 54f7 b4bf 3fe1 58bf 227e 573f
00000190: b82c 243f 38ae 38bf cf4d bfbf a9ae a2bf
000001a0: 7f80 30be bf6a f0be 8ba2 a2bf 41f3 bcbf
000001b0: 95d4 513d f4d6 8cbf dc58 27bf c3bd afbe
000001c0: 1685 87bf 871e 8cbe c3ac 29bf 2c94 bcbf
000001d0: 3167 0cbf 880d 7cbf 2c12 13be 684a 56bf
000001e0: 88cf 403e 65fc 0d3d 713d c4bf d083 e4bf
000001f0: 089e babf 0c7d 93bf 90a2 7d3e f394 e6bf
00000200: bd92 5dbf 4efb 92bf 0098 d03c 5207 c1bf
00000210: 7039 44bf 83cf 983e ce6e 4ebf c3e1 3abf
00000220: 5bdb f03e a8d1 f23e 3d03 b63d 9e84 0ebf
00000230: 013d ca3e 1e62 693f 2bea b8bf 4f94 c2bf
00000240: aee7 a93d 2aeb 3b3e fc8b 75bf aed2 bdbf
00000250: cb42 eabe bab6 183e 5561 9abf 34ec 8bbf
00000260: db4a a6bf 451c 04bf 5d23 eebe 3173 e53e
00000270: 09ca 8dbf e3b8 a3bf 4d2b 2fbf 76d5 d6bf
00000280: a364 7bbf e5c5 99be 1b84 b5bf 2096 65bf
00000290: 5d04 0ebf 0922 cdbf e437 c3bd 863f 19bf
000002a0: 5a00 543f ec3f 9ebf 9a50 a0bf 4e15 123e
000002b0: 21fa a2be facc 77bf c704 45bf 4d94 3dbf
000002c0: 3300 35bf 5739 ed3b c11a 4fbf 1e73 abbf
000002d0: c9d3 2cbf a78c 173f dafa d43e e84e ccbe
000002e0: edfa d3bf f9c2 14c0 3c98 88bf d0a6 4b3d
000002f0: ff5c 9dbf a153 1bbf 5ded 123e a571 00c0
00000300: b7e6 ad3e 3af6 e5be 4e83 adbf 63a2 0abf
00000310: 7fad 2bbf 3f35 97bf 4f71 20bf 8c9d 08c0
00000320: bd49 9bbf 655a c2bd b2c7 7ebe 0a0b 8fbe
00000330: bdc9 05bf 906f 09bf 6efe 923e bb1f 35bf
00000340: 43ca 5dbe 44df 0cc0 29b1 153f a9a1 1abf
00000350: f370 00bf cccd 7ebf ef52 dbbf 708a eabe
00000360: 8205 3fbf b99b 83bf 4884 5fbf afbd e7be
00000370: d2ce efbf 8331 17c0 43d9 97bf b4eb debf
00000380: 8571 03c0 5913 1dbf 792b 84be a9fb 03bf
00000390: dd6d d73e f588 f1be 767f 65be 2fe1 c0bf
000003a0: 7767 b0be 7b16 a5be f332 e5bf 268b fa3e
000003b0: 7766 edbf a191 3dbf 2ce3 a0be 1d24 e4be
000003c0: 4d47 ab3e 2d1e 3bbf 838d d1bf 6b2f b6bf
000003d0: 9660 89bf 798e e4bf e6d8 0ebe 74f3 89be
000003e0: cabd a7bd b3df 18bf b5d1 6abf 4ee8 c2bf
000003f0: 40ff 6ebe f799 91bf 1201 993c ef84 97bf

bn1.weight f4 [256]
0.49977776 0.2497255 0.27252123 0.17843102 0.38392657 0.23478955 0.6192827 0.33313352
0.21867669 1.1949105 0.30826533 0.20422618 0.27688217 0.1777711 0.15720052 0.28002948
0.3270658 0.19914928 0.20795499 0.15839724 0.55519426 0.07227876 0.21155153 0.41847196
0.9644768 0.39603072 0.25575495 0.12202448 0.31971583 0.32267576 0.27634776 0.35262385
0.20357023 0.25606525 0.25609124 0.3064299 0.18342274 0.39478496 0.28524905 0.2518145
0.3870995 0.24193574 0.30902275 0.36754632 0.28226808 0.30069783 0.15947278 0.33595964
0.5923176 0.25337142 0.116314694 0.17932813 0.20376034 0.20173757 0.10788967 0.2962743
-0.42012817 1.1322043 0.13808505 0.26457086 0.17288463 0.14958975 0.25317192 0.2513895
0.28657484 0.377562 0.48746318 0.29063702 0.25198406 -0.25004688 0.22893691 0.2204919
0.7568804 0.27669865 0.29557294 0.27883172 0.10893138 0.33842772 0.29557976 0.2367373
0.13607702 0.26019937 0.23632726 0.29299885 0.41410032 0.25977612 0.2946568 0.278465
0.1316809 0.22047275 0.47270688 0.27267808 0.13294406 -0.24857563 0.29791898 0.36296946
0.38845387 0.52894884 0.62500674 0.16674575 -0.22830503 -0.29223374 0.4748526 0.37470838
0.19491665 0.29840934 0.22597077 0.15914911 0.22336297 0.20192353 0.2363458 0.24377112
0.2915924 0.13004133 0.34777975 0.32223123 0.21865056 0.370013 0.187505 0.49310127
0.17418043 0.39246407 0.34601358 0.2985506 0.2162553 0.32272914 0.51677996 0.4084495
0.3632056 0.573266 0.38365495 0.15860415 0.3701972 0.18981326 0.3057672 0.13816682
0.20722394 -0.5108051 0.18381089 0.62911004 0.26554042 0.46712714 0.19987522 0.2974262
0.38753742 0.21639907 0.48846772 -0.310224 0.26299724 0.08047877 0.32205015 0.46848473
0.18967912 0.7312325 0.30848378 0.21709661 0.2157217 0.39748052 0.15869063 0.2528088
0.29411614 0.13707204 0.35628018 0.21211618 0.47025588 0.21008033 0.25323758 0.30107957
0.30244967 0.22109841 0.30314425 0.23079553 0.21776396 0.23540425 0.20570332 0.27770048
0.15706347 0.2583061 0.10492847 0.19515792 0.5122168 0.18268168 0.1923108 0.27214277
0.19638622 0.1732245 0.28610972 0.112051114 0.513015 0.1596954 0.61431783 0.27610686
0.26229906 0.85956955 0.12479778 0.19610195 0.32341644 0.19453864 0.202672 0.18814528
0.25103518 0.2158134 0.33015186 0.18991141 0.25713694 0.20964713 0.61095035 0.23807089
0.22424585 0.24979237 0.55349183 0.27735 0.24812391 0.22369178 0.2696671 0.20507202
0.23812726 0.10170904 0.2799697 0.23095395 0.5381936 0.2956691 0.35674393 0.33655053
0.19076985 0.28214926 0.63456005 1.5023402 0.44546548 0.20574489 0.3091988 0.4367338
0.3389748 0.20805919 0.25014666 0.1212141 0.33326945 0.5602647 0.3686636 0.3407018
0.23867565 0.30343506 0.2635918 0.2685831 0.9004872 0.20085968 0.38437805 0.2465514
0.32585528 0.28607902 0.32170734 0.093285665 0.20022513 0.38825652 0.16665787 0.4329849
00000000: dfe2 ff3e 0bb8 7f3e e787 8b3e 9fb6 363e
00000010: 0692 c43e ac6c 703e 5089 1e3f 7a90 aa3e
00000020: c8ec 5f3e d4f2 983f f4d4 9d3e ab20 513e
00000030: 80c3 8d3e a109 363e 2cf9 203e 0660 8f3e
00000040: 2b75 a73e caed 4b3e 27f2 543e e332 223e
00000050: 3621 0e3f e306 943d f7a0 583e f541 d63e
00000060: f4e7 763f 8ac4 ca3e 50f2 823e f8e7 f93d
00000070: cbb1 a33e c235 a53e 747d 8d3e 1d8b b43e
00000080: b774 503e fc1a 833e 641e 833e 61e4 9c3e
00000090: 2cd3 3b3e 4121 ca3e 2a0c 923e d5ed 803e
000000a0: e831 c63e 01be 773e 3b38 9e3e 082f bc3e
000000b0: 7185 903e 11f5 993e d54c 233e e702 ac3e
000000c0: 20a2 173f e6b9 813e 6636 ee3d cba1 373e
000000d0: 8da6 503e 4b94 4e3e 42f5 dc3d 44b1 973e
000000e0: 0a1b d7be 12ec 903f 2b66 0d3e d575 873e
000000f0: ab08 313e 0e2e 193e c09f 813e 20b6 803e
00000100: f0b9 923e ce4f c13e c694 f93e 60ce 943e
00000110: 0e04 813e 2506 80be 706e 6a3e a1c8 613e
00000120: eac2 413f 72ab 8d3e 5655 973e 08c3 8e3e
00000130: 6a17 df3d 6646 ad3e 3b56 973e 436b 723e
00000140: c657 0b3e da38 853e c6ff 713e f203 963e
00000150: f504 d43e 6001 853e 42dd 963e f792 8e3e
00000160: 5cd7 063e 9cc3 613e a306 f23e 769c 8b3e
00000170: 7d22 083e 9c8a 7ebe d688 983e 22d7 b93e
00000180: 6de3 c63e 3169 073f 7100 203f 66bf 2a3e
00000190: cbc8 69be a99f 95be e11f f33e c7d9 bf3e
000001a0: 3b98 473e 1cc9 983e e264 673e fcf7 223e
000001b0: 43b9 643e 0bc5 4e3e a204 723e 239f 793e
000001c0: 994b 953e 8e29 053e 3010 b23e 7efb a43e
000001d0: efe5 5f3e 5872 bd3e 5001 403e c577 fc3e
000001e0: 5b5c 323e 0df1 c83e b128 b13e a0db 983e
000001f0: 0872 5d3e c13c a53e b14b 043f 4b20 d13e
00000200: 16f6 b93e 90c1 123f 6c6e c43e 2069 223e
00000210: 7d8a bd3e 685e 423e 858d 9c3e 9a7b 0d3e
00000220: 8332 543e 1fc4 02bf ec38 3c3e 5b0d 213f
00000230: eaf4 873e 4a2b ef3e 17ac 4c3e 3f48 983e
00000240: 4e6b c63e b897 5d3e 7118 fa3e aed5 9ebe
00000250: 93a7 863e 0ed2 a43d c2e3 a43e 3bdd ef3e
00000260: 3e3b 423e 0e32 3b3f 96f1 9d3e 934e 5e3e
00000270: 26e6 5c3e 9182 cb3e cc7f 223e 2870 813e
00000280: 6496 963e 9d5c 0c3e 5b6a b63e fc34 593e
00000290: 61c5 f03e 4c1f 573e 5ba8 813e 1a27 9a3e
000002a0: afda 9a3e 9f67 623e b935 9b3e aa55 6c3e
000002b0: 84fd 5e3e d00d 713e e4a3 523e c22e 8e3e
000002c0: 3fd5 203e b240 843e bde4 d63d 7ad7 473e
000002d0: a420 033f e810 3b3e 1fed 443e 4c56 8b3e
000002e0: 7819 493e c361 313e f97c 923e 0e7b e53d
000002f0: f354 033f 3187 233e ef43 1d3f e15d 8d3e
00000300: 104c 863e c00c 5c3f fa95 ff3d f3ce 483e
00000310: d796 a53e 2335 473e 4089 4f3e 28a9 403e
00000320: af87 803e 30fe 5c3e aa09 a93e 2378 423e
00000330: 74a7 833e bdad 563e 3e67 1c3f dbc8 733e
00000340: b4a0 653e 92c9 7f3e a4b1 0d3f d200 8e3e
00000350: 3214 7e3e 750f 653e ce11 8a3e 66fe 513e
00000360: a2d7 733e d44c d03d 3058 8f3e 317f 6c3e
00000370: 0ec7 093f f161 973e 24a7 b63e 5a50 ac3e
00000380: 2c59 433e de75 903e 8772 223f af4c c03f
00000390: 0d14 e43e caae 523e 4e4f 9e3e 939b df3e
000003a0: 1b8e ad3e 780d 553e 3913 803e 193f f83d
000003b0: 4ba2 aa3e 826d 0f3f 7ac1 bc3e 7770 ae3e
000003c0: 6467 743e d75b 9b3e 81f5 863e b983 893e
000003d0: 5486 663f 29ae 4d3e 33cd c43e f877 7c3e
000003e0: 81d6 a63e f378 923e d3b6 a43e 8e0c bf3d
000003f0: d107 4d3e 8fc9 c63e 5ca8 2a3e 32b0 dd3e

bn1.bias f4 [256]
0.086112164 0.12018127 0.069892645 -0.028608777 0.22260967 0.032019977 0.33679488 0.14207122
0.06419634 1.0615562 0.050481096 -0.036921665 0.100350656 0.06055918 0.055648573 0.08052488
0.15243223 0.020101579 0.040477052 0.0449841 0.13427499 -0.050096087 0.042152323 0.35486352
0.8541124 0.04161372 0.07456895 0.018502014 0.01554273 0.13228868 0.028854975 -0.098087326
0.07815259 -0.063295126 0.077013075 0.101317056 -0.007599299 0.23878616 0.044976648 -0.0125293825
0.12901174 0.10218566 0.029937563 -0.3026958 -0.020778341 -0.06341378 0.013149784 0.07823117
0.2917517 -0.033338908 -0.0015786492 0.023042062 0.031273276 0.027981576 -0.07469174 0.078476936
-0.3240662 0.9702441 0.010679988 -0.14315051 -0.05320796 0.02432792 -0.12458234 0.033777975
0.09631836 0.06725286 -0.100817285 0.09376545 0.07052938 -0.062950775 -0.010527853 0.11526493
0.2813032 -0.14575751 0.16861853 0.104471125 0.024934702 0.17229465 -0.0025260334 0.008087261
0.01230587 0.06562824 0.006804787 -0.019495964 0.15635137 0.098940395 0.10442958 0.06641123
0.05506509 0.015487546 0.3087455 0.046520248 0.025957443 -0.07993414 0.031239223 0.07443321
0.14241199 0.47136563 0.17308398 0.10936029 0.3227005 -0.14640458 0.120171316 0.05947287
0.07476041 0.09095507 0.019523462 0.014403365 0.07189925 0.05841859 0.11260537 0.0010132119
0.10515238 -0.05588519 0.073529966 0.077327274 0.0989488 0.35954803 -0.014885197 0.015671007
-0.015406273 0.13407306 0.16482365 0.07783053 0.04186497 0.32480988 0.21669134 0.26521122
0.2475306 0.23552357 0.10163013 0.003097292 0.28216952 0.04318366 0.23189221 0.009228967
-0.08648563 -0.5996729 0.04555741 0.037184756 0.10644013 0.2679304 0.060395267 -0.013646128
-0.030309914 0.057629492 0.57227683 -0.064025976 0.04666383 0.06337917 0.23782381 0.22016643
0.058793977 0.3356069 0.18588166 0.06313473 0.02877995 -0.07054138 0.03450568 0.054564912
0.13257144 0.059199233 -0.0075296992 0.04079266 0.15743415 0.18726625 0.004797264 0.022856304
0.16566354 0.005096463 0.114240564 0.08271229 0.066351615 -0.06254538 -0.06181545 0.19034488
0.06913478 0.0525039 0.041470796 -0.042432584 1.3528779 0.0051538553 -0.008026363 0.012100234
-0.061160363 -0.08975344 -0.26190284 0.018983318 0.32199204 0.0348233 -0.16783558 0.14165509
0.060189225 0.75299233 0.042157557 -0.017081294 0.0036344724 -0.039653867 0.030168919 -0.008298188
0.05675488 -0.06373036 0.09208781 -0.060548656 0.06179919 -0.02644756 0.04760329 0.061182134
0.04232696 0.067689836 0.32739064 0.06379636 0.08981463 0.040529042 0.0035962109 0.029860951
-0.022878086 -0.03755782 0.028367765 0.01570214 0.063341245 0.0034542193 0.16087589 0.46825325
0.028560678 0.051321216 0.4936868 1.0313761 0.2628046 0.040235966 0.05414544 0.2614665
0.15359168 0.049419552 0.026415575 0.07404108 0.057938427 0.3098558 0.13053405 0.16755259
0.07803829 0.124302715 0.0112821115 0.022923693 0.53232807 0.01209548 0.20953226 0.08453342
0.2582668 0.125641 0.11290841 0.0059313322 -0.06432021 0.10498508 -0.043875407 0.11140982
00000000: 935b b03d 9921 f63d e023 8f3d f45c eabc
00000010: caf3 633e 6127 033d 6170 ac3e 1e7b 113e
00000020: 5f79 833d 13e1 873f 44c5 4e3d 2c3b 17bd
00000030: a584 cd3d e70c 783d c2ef 633d 3aea a43d
00000040: 3217 1c3e 11ac a43c 44cb 253d 3f41 383d
00000050: 627f 093e 8e31 4dbd eaa7 2c3d acb0 b53e
00000060: 1ca7 5a3f 2673 2a3d 9bb7 983d 8991 973c
00000070: efa6 7e3c af76 073e 4561 ec3c 02e2 c8bd
00000080: 770e a03d e0a0 81bd 08b9 9d3d 517f cf3d
00000090: 8a03 f9bb 5c84 743e 6f39 383d 0a48 4dbc
000000a0: a71b 043e b746 d13d 9f3f f53c f2fa 9abe
000000b0: 5737 aabc 15df 81bd 3172 573c aa37 a03d
000000c0: 7b60 953e 618e 08bd adea ceba b5c2 bc3c
000000d0: 6818 003d 9e39 e53c fcf7 98bd 84b8 a03d
000000e0: 01ec a5be eb61 783f 1efb 2e3c 0c96 12be
000000f0: 97f0 59bd 594b c73c 0725 ffbd c65a 0a3d
00000100: 8f42 c53d debb 893d 4b79 cebd 1a08 c03d
00000110: b571 903d 56ec 80bd 047d 2cbc 0510 ec3d
00000120: f906 903e 7541 15be 56aa 2c3e f5f4 d53d
00000130: dc43 cc3c 026e 303e cf8b 25bb 6e80 043c
00000140: 8f9e 493c 1968 863d b1fa de3b 00b6 9fbc
00000150: 931a 203e 43a1 ca3d 2ddf d53d 9c02 883d
00000160: ef8b 613d 7abf 7d3c e413 9e3e 048c 3e3d
00000170: b4a4 d43c 83b4 a3bd 66e9 ff3c 7070 983d
00000180: 73d4 113e d656 f13e ed3c 313e 4af8 df3d
00000190: 0039 a53e 15eb 15be 611c f63d d399 733d
000001a0: fc1b 993d a746 ba3d abef 9f3c 17fc 6b3c
000001b0: ea3f 933d 5548 6f3d a59d e63d c0cd 843a
000001c0: 225a d73d dee7 64bd e196 963d c35d 9e3d
000001d0: aba5 ca3d ae16 b83e 0be1 73bc 7c60 803c
000001e0: 986a 7cbc 734a 093e 88c7 283e 9d65 9f3d
000001f0: 9a7a 2b3d 7b4d a63e 56e4 5d3e c4c9 873e
00000200: a978 7d3e 172d 713e 7523 d03d f0fb 4a3b
00000210: 8678 903e 59e1 303d 2775 6d3e 1835 173c
00000220: 611f b1bd 2a84 19bf 689a 3a3d 0b4f 183d
00000230: 48fd d93d 2c2e 893e 0761 773d 0294 5fbc
00000240: 7f4c f8bc e70c 6c3d bc80 123f 0d20 83bd
00000250: 9222 3f3d f0cc 813d 1688 733e 4f73 613e
00000260: f4d1 703d abd4 ab3e c357 3e3e c84c 813d
00000270: eec3 eb3c 0078 90bd d455 0d3d 757f 5f3d
00000280: cfc0 073e e57a 723d b2bb f6bb 3416 273d
00000290: 6b36 213e b9c2 3f3e 5e32 9d3b 253d bb3c
000002a0: b4a3 293e 3b00 a73b f5f6 e93d 1065 a93d
000002b0: 5be3 873d cb17 80bd 3332 7dbd c5e9 423e
000002c0: 8996 8d3d 540e 573d 48dd 293d cacd 2dbd
000002d0: 1a2b ad3f ace1 a83b 0281 03bc 0f40 463c
000002e0: 4a83 7abd a7d0 b7bd 2118 86be e782 9b3c
000002f0: 24dc a43e e0a2 0e3d 17dd 2bbe 080e 113e
00000300: fa88 763d 1bc4 403f 67ad 2c3d 12ee 8bbc
00000310: 5430 6e3b 186c 22bd cf24 f73c 20f5 07bc
00000320: ce77 683d 1085 82bd 8998 bc3d de01 78bd
00000330: 2621 7d3d 8ea8 d8bc abfb 423d 1e9a 7a3d
00000340: 095f 2d3d f8a0 8a3d bf9f a73e aaa7 823d
00000350: bcf0 b73d c801 263d 68ae 6b3b f49e f43c
00000360: d36a bbbc 3bd6 19bd 8463 e83c c6a1 803c
00000370: 0eb9 813d 2f60 623b a6bc 243e e4be ef3e
00000380: 15f8 e93c 3236 523d 84c4 fc3e 2204 843f
00000390: 538e 863e 78ce 243d 9cc7 5d3d f0de 853e
000003a0: 2347 1d3e 286c 4a3d 7a65 d83c daa2 973d
000003b0: d850 6d3d 6ba5 9e3e b8aa 053e e892 2b3e
000003c0: 8ad2 9f3d 6c92 fe3d 9bd8 383c 78ca bb3c
000003d0: a746 083f 1f2c 463c a08f 563e dc1f ad3d
000003e0: 8c3b 843e 09a8 003e 863c e73d 9f5b c23b
000003f0: 50ba 83bd 6b02 d73d b3b6 33bd d52a e43d

bn1.running_mean f4 [256]
1.3644798 2.2260063 1.7278287 3.0405395 3.1497176 4.1675005 2.3085246 2.2048876
2.2557232 1.5121739 0.5582419 1.5526398 2.5833936 1.8157524 1.3314259 1.4143013
3.3758054 1.397309 1.6216174 1.848071 3.5429554 1.6731508 1.4597806 1.6290746
3.0276327 2.2091327 3.0536723 1.6132996 1.683363 1.8701533 1.7072755 1.2511106
2.0293632 2.2862296 3.3580046 1.231385 1.3195577 2.9479194 1.0412822 1.1575617
2.9932842 2.247944 0.8063168 2.4199333 1.2753335 1.0833576 2.9227934 2.7225964
2.148247 1.5217668 2.5264823 2.2042613 5.0151854 1.7058649 0.98712516 1.2894455
3.324242 1.5603178 1.2574127 2.701079 0.71796393 0.97585446 2.9653401 1.6364626
6.120974 7.207212 1.4023575 2.2761831 0.9831627 1.143505 1.2825204 1.5142577
1.3221042 1.5698301 1.4495548 1.8972178 1.495466 1.3482628 1.1011122 2.2452288
1.8277646 3.6595266 5.769368 1.0675331 0.70255494 1.5887433 3.407915 0.89700425
1.7426012 0.88049984 1.1943555 1.9000913 2.2606754 1.5087782 3.0961382 1.269124
1.2727906 3.6429415 1.2039361 3.6698394 8.62056 3.1344564 1.5861319 0.94097364
2.1515224 1.0574882 3.2902625 1.5598812 2.2289279 1.8734162 3.2277834 1.2974335
1.3771595 2.8024232 2.3451898 2.9559903 4.5346394 1.5681403 1.2613121 1.6094218
4.19651 2.9824395 1.4355471 0.99325657 1.5195276 1.5964618 1.4826839 1.851795
1.9452412 1.7384565 2.141386 0.90866953 1.9489477 3.0070853 1.3808091 1.6259046
3.1473088 4.5798116 3.057239 0.83538246 1.7365768 2.7800186 1.846053 1.6100265
1.7382641 1.8640952 1.573942 2.5818884 3.7445066 4.0167236 2.2278073 1.7276868
1.0829756 1.2338136 4.1904664 3.6582248 3.2392757 2.2618093 4.130582 0.4364152
1.6323557 1.7968134 0.91368246 3.0564299 1.3571868 1.3108915 2.5291557 1.4563621
2.4652529 1.0729177 1.2810168 2.4911697 2.7377431 1.9355905 0.9792558 2.8382952
1.5806965 2.225192 1.4881926 1.0477108 1.0631648 2.1853955 1.2292151 1.4098886
1.6619656 0.88401616 2.621946 2.34879 3.5236006 3.5464375 2.2969959 2.0078397
2.3422482 2.1626668 2.4594433 1.405381 2.5176394 1.2946501 0.6551927 0.7151812
0.5189126 2.0277972 2.5796826 1.5129284 0.9919509 1.4647766 1.3361984 2.1684167
1.6498929 1.263356 4.213957 0.61940914 0.9733065 1.1085161 0.8892206 1.8274753
3.2227745 1.4030209 1.908056 4.4537754 0.7622691 0.6464894 3.343305 2.29884
0.84214514 3.0057156 2.2858021 2.1051347 3.087491 4.8619194 3.2498186 1.893957
1.2502733 1.4500351 1.6102718 3.4523187 1.492821 3.1952987 2.0277753 3.9058657
4.0499167 1.32823 1.8704075 1.5538704 1.430324 0.6908215 2.612899 5.3580813
4.223531 1.7200686 1.5369549 0.6205099 2.0587018 2.3220506 1.7954981 3.6960626
00000000: 46a7 ae3f e376 0e40 7e29 dd3f 3398 4240
00000010: f994 4940 2a5c 8540 debe 1340 e11c 0d40
00000020: c55d 1040 ea8e c13f f1e8 0e3f e7bc c63f
00000030: 5256 2540 936a e83f 2a6c aa3f d307 b53f
00000040: 320d 5840 05db b23f 2991 cf3f 978d ec3f
00000050: c8bf 6240 ce29 d63f 17da ba3f 8485 d03f
00000060: bcc4 4140 6e62 0d40 5e6f 4340 9a80 ce3f
00000070: 7078 d73f 2f61 ef3f 0188 da3f 6424 a03f
00000080: 16e1 0140 9651 1240 8ce9 5640 069e 9d3f
00000090: 44e7 a83f b6aa 3c40 bc48 853f fb2a 943f
000000a0: f891 3f40 51de 0f40 c76a 4e3f 30e0 1a40
000000b0: 213e a33f 76ab 8a3f 0c0f 3b40 053f 2e40
000000c0: e17c 0940 41c9 c23f e3b1 2140 9e12 0d40
000000d0: 667c a040 c859 da3f 3cb4 7c3f 8d0c a53f
000000e0: 62c0 5440 7eb8 c73f e6f2 a03f 7ade 2c40
000000f0: 7ccc 373f 99d1 793f 22c8 3d40 9b77 d13f
00000100: 05df c340 7ba1 e640 7380 b33f fcac 1140
00000110: 8db0 7b3f 5f5e 923f a129 a43f 32d3 c13f
00000120: b63a a93f 31f0 c83f 038b b93f 08d8 f23f
00000130: 6e6b bf3f e093 ac3f 3ff1 8c3f d4b1 0f40
00000140: 31f4 e93f af35 6a40 aa9e b840 eda4 883f
00000150: a4da 333f f15b cb3f 481b 5a40 12a2 653f
00000160: 8e0d df3f 7068 613f a4e0 983f 3136 f33f
00000170: e8ae 1040 a51f c13f 2127 4640 a872 a23f
00000180: cdea a23f f425 6940 941a 9a3f a6de 6a40
00000190: d0ed 0941 ef9a 4840 5f06 cb3f a6e3 703f
000001a0: 8bb2 0940 c65b 873f a993 5240 30aa c73f
000001b0: c1a6 0e40 1acc ef3f 0194 4e40 4d12 a63f
000001c0: c346 b03f e75a 3340 9717 1640 f22e 3d40
000001d0: c41b 9140 d2b8 c83f ad72 a13f 8901 ce3f
000001e0: cf49 8640 4ae0 3e40 02c0 b73f 1046 7e3f
000001f0: e17f c23f dc58 cc3f 96c8 bd3f 9e07 ed3f
00000200: aafd f83f be85 de3f 780c 0940 919e 683f
00000210: 1e77 f93f 1674 4040 5abe b03f a41d d03f
00000220: 826d 4940 d18d 9240 cea9 4340 a0db 553f
00000230: 2648 de3f d3eb 3140 774b ec3f 5915 ce3f
00000240: 707f de3f ac9a ee3f ee76 c93f a93d 2540
00000250: ffa5 6f40 0089 8040 6594 0e40 d724 dd3f
00000260: f29e 8a3f 9bed 9d3f 4d18 8640 5b20 6a40
00000270: 4b50 4f40 7cc1 1040 ba2d 8440 d071 df3e
00000280: 08f1 d03f fbfd e53f 18e7 693f 8c9c 4340
00000290: 4cb8 ad3f 4bcb a73f b0dd 2140 136a ba3f
000002a0: b4c6 1d40 5e55 893f 5cf8 a33f 536f 1f40
000002b0: 2f37 2f40 6ec1 f73f 82b0 7a3f a1a6 3540
000002c0: 4354 ca3f 8c69 0e40 187d be3f 631b 863f
000002d0: c915 883f 85dd 0b40 ec56 9d3f 3b77 b43f
000002e0: 4abb d43f e24e 623f f7cd 2740 9352 1640
000002f0: ac82 6140 d5f8 6240 fb01 1340 7280 0040
00000300: 65e7 1540 2269 0a40 8567 1d40 86e3 b33f
00000310: 0121 2140 18b7 a53f b5ba 273f 1d16 373f
00000320: 75d7 043f 6ec7 0140 8519 2540 a3a7 c13f
00000330: 7ff0 7d3f cd7d bb3f 8d08 ab3f 57c7 0a40
00000340: b12f d33f a6b5 a13f bcd8 8640 9991 1e3f
00000350: 9d2a 793f dbe3 8d3f f6a3 633f b6ea e93f
00000360: f041 4e40 3096 b33f 2e3b f43f 5485 8e40
00000370: 1124 433f 5480 253f b6f8 5540 3220 1340
00000380: d396 573f a55d 4040 954a 1240 87ba 0640
00000390: 7499 4540 d894 9b40 07fd 4f40 2f6d f23f
000003a0: f508 a03f c09a b93f 631d ce3f caf2 5c40
000003b0: c214 bf3f c67f 4c40 12c7 0140 b4f9 7940
000003c0: eb98 8140 7103 aa3f 8369 ef3f 3ae5 c63f
000003d0: db14 b73f aed9 303f bd39 2740 6775 ab40
000003e0: 2a27 8740 352b dc3f f0ba c43f bdd9 1e3f
000003f0: c5c1 0340 7a9c 1440 e2d2 e53f 4a8c 6c40

bn1.running_var f4 [256]
6.5805006 10.586582 12.629273 15.685852 17.363462 32.46856 12.2123575 24.960106
15.333083 6.056787 2.0540745 9.34447 15.739083 12.55936 6.6030564 10.56352
24.46646 6.716424 10.10844 12.098676 18.871275 11.952746 8.015033 8.627755
14.622451 14.950882 24.795223 10.005711 9.861186 15.544268 7.9240365 7.2983403
13.979333 14.195202 12.432279 7.0448556 7.110142 13.236618 6.304543 9.386005
17.842194 14.222056 2.7867267 12.575386 10.917682 5.8830657 22.172142 14.702703
13.986389 12.520016 16.85419 16.337349 32.94769 12.183225 4.5381384 10.456067
28.058634 6.347755 9.442976 24.429588 5.639523 6.290152 20.994715 13.628501
29.08289 48.687576 6.155571 16.128174 4.6215234 8.34781 10.817339 7.659376
6.5494995 8.180321 7.9157033 13.2020445 9.415825 6.0720067 4.503022 12.431175
9.584775 24.500332 42.74554 4.821043 2.9311635 9.677409 25.53609 7.5287104
8.378253 3.8907082 6.373562 13.520978 15.308179 8.136527 23.011375 8.080584
5.67916 29.832567 5.245934 12.950699 57.59311 23.656713 7.6221294 5.5373006
16.681608 6.859606 27.55446 9.674057 15.155109 8.756129 22.484001 10.060232
8.741109 14.980883 12.892132 21.593666 36.142143 10.73444 10.698086 9.475218
21.470634 22.23132 6.5837965 7.834124 9.244665 10.550195 8.349187 13.506359
17.391285 12.702994 16.207825 6.8921914 9.6541605 21.24589 7.833916 10.883181
10.199088 32.143436 20.785849 4.7533092 9.741894 14.794081 11.42413 8.695637
8.646121 8.591088 13.810954 25.573885 25.639725 30.258282 14.386588 8.458328
5.8334546 5.205123 14.465911 27.240696 19.203587 10.93672 40.230907 1.7820861
8.512936 11.957011 7.6018577 25.908073 12.441993 7.39421 16.455658 9.892745
15.396632 6.3503113 6.8831387 18.557777 17.379597 10.038001 7.228629 22.802332
11.381115 17.52915 10.691771 5.4870057 4.745541 14.809286 7.2844086 7.1904397
8.96655 3.9771523 19.293245 16.211544 25.723766 22.73082 13.790761 15.331708
12.297492 10.8946705 23.719929 12.269254 13.992841 11.149771 3.380653 3.5508125
1.9609355 9.066403 19.75396 7.3277507 6.913921 6.650613 8.415775 17.39575
9.342473 5.7062488 20.693718 2.372135 3.9628706 5.1218047 5.2597837 10.265778
29.324144 9.107927 13.433722 43.067196 2.9536061 2.6633556 19.914515 12.181528
4.6513963 21.240345 19.273392 10.323089 19.143261 36.989662 26.072763 13.334885
9.54173 8.197107 8.902319 23.59435 11.013917 23.392252 9.714347 32.914696
29.380054 12.915662 14.270495 9.383016 6.630889 4.1602607 21.242815 45.147556
32.47862 13.00594 14.761566 2.9182565 11.661535 12.706118 8.840496 31.282429
00000000: 7693 d240 a462 2941 8111 4a41 40f9 7a41
00000010: 5fe8 8a41 cedf 0142 d165 4341 4cae c741
00000020: 4f54 7541 33d1 c140 f575 0340 f382 1541
00000030: 49d3 7b41 23f3 4841 3d4c d340 2e04 2941
00000040: 4fbb c341 f2ec d640 2cbc 2141 2d94 4141
00000050: 5ff8 9641 733e 3f41 933d 0041 490b 0a41
00000060: 8ff5 6941 d036 6f41 9e5c c641 6417 2041
00000070: 6bc7 1d41 52b5 7841 b591 fd40 018c e940
00000080: 59ab 5f41 8c1f 6341 9dea 4641 756f e140
00000090: 4986 e340 30c9 5341 d1be c940 142d 1641
000000a0: d0bc 8e41 8b8d 6341 bb59 3240 c834 4941
000000b0: d3ae 2e41 1342 bc40 8c60 b141 463e 6b41
000000c0: 40c8 5f41 fc51 4841 62d5 8641 e4b2 8241
000000d0: 6fca 0342 7dee 4241 6e38 9140 0d4c 2741
000000e0: 1578 e041 cf20 cb40 6e16 1741 cc6f c341
000000f0: f976 b440 ed48 c940 2df5 a741 570e 5a41
00000100: c2a9 e841 14c0 4242 70fa c440 8006 8141
00000110: 85e3 9340 a190 0541 d213 2d41 9c19 f540
00000120: 8095 d140 98e2 0241 714d fd40 933b 5341
00000130: 38a7 1641 e14d c240 c218 9040 18e6 4641
00000140: 3d5b 1941 ae00 c441 6ffb 2a42 fc45 9a40
00000150: 2f98 3b40 abd6 1a41 ea49 cc41 32eb f040
00000160: 530d 0641 5d01 7940 38f4 cb40 ed55 5841
00000170: 4dee 7441 372f 0241 4c17 b841 124a 0141
00000180: aebb b540 19a9 ee41 b1de a740 1036 4f41
00000190: 585f 6642 f340 bd41 7ce8 f340 9131 b140
000001a0: ef73 8541 e481 db40 896f dc41 f0c8 1a41
000001b0: 547b 7241 1b19 0c41 3cdf b341 b6f6 2041
000001c0: 95db 0b41 b2b1 6f41 2c46 4e41 d4bf ac41
000001d0: 8e91 1042 44c0 2b41 5c2b 2b41 7e9a 1741
000001e0: dcc3 ab41 bed9 b141 76ae d240 25b1 fa40
000001f0: 26ea 1341 99cd 2841 4596 0541 0c1a 5841
00000200: 5a21 8b41 773f 4b41 a0a9 8141 d58c dc40
00000210: 7177 1a41 95f7 a941 71af fa40 8221 2e41
00000220: 772f 2341 e192 0042 6b49 a641 1c1b 9840
00000230: ccde 1b41 8eb4 6c41 3dc9 3641 5421 0b41
00000240: 8356 0a41 1975 0941 abf9 5c41 5197 cc41
00000250: 281e cd41 f610 f241 772f 6641 5055 0741
00000260: a9ab ba40 5e90 a640 5f74 6741 f2ec d941
00000270: f2a0 9941 cefc 2e41 73ec 2042 661b e43f
00000280: fc34 0841 eb4f 3f41 6b42 f340 bc43 cf41
00000290: 6712 4741 5e9d ec40 30a5 8341 af48 1e41
000002a0: 9b58 7641 c035 cb40 ac42 dc40 5476 9441
000002b0: 6a09 8b41 a79b 2041 ee50 e740 2d6b b641
000002c0: 0c19 3641 b33b 8c41 7e11 2b41 8d95 af40
000002d0: 79db 9740 d6f2 6c41 e019 e940 1518 e640
000002e0: fd76 0f41 aa89 7e40 9158 9a41 3eb1 8141
000002f0: 46ca cd41 b8d8 b541 f5a6 5c41 ad4e 7541
00000300: 87c2 4441 9250 2e41 6ac2 bd41 dd4e 4441
00000310: ade2 5f41 7665 3241 9e5c 5840 8340 6340
00000320: efff fa3f fd0f 1141 1c08 9e41 ef7c ea40
00000330: d73e dd40 d2d1 d440 04a7 0641 7f2a 8b41
00000340: c57a 1541 9799 b640 bc8c a541 0fd1 1740
00000350: ac9f 7d40 d3e5 a340 2650 a840 a040 2441
00000360: d997 ea41 12ba 1141 86f0 5641 cf44 2c42
00000370: e207 3d40 6b74 2a40 ed50 9f41 8ae7 4241
00000380: 3dd8 9440 3aec a941 e82f 9a41 5f2b 2541
00000390: 6625 9941 6af5 1342 0595 d041 b05b 5541
000003a0: edaa 1841 5a27 0341 e66f 0e41 3bc1 bc41
000003b0: 0139 3041 5523 bb41 f76d 1b41 a6a8 0342
000003c0: 5a0a eb41 8da6 4e41 f353 6441 d520 1641
000003d0: 3e30 d440 db20 8540 49f1 a941 1997 3442
000003e0: 1bea 0142 5518 5041 602f 6c41 b7c4 3a40
000003f0: a695 3a41 424c 4b41 ac72 0d41 6a42 fa41

fc2.weight f4 [256, 256]
-0.4567635 -0.087265655 -0.31968755 -0.51590526 -0.05916427 -1.3416333 0.6249535 0.27172136
0.05837381 -0.69550866 0.26425648 1.0562814 0.122240655 0.40090916 -0.024846852 0.027422601
0.8680333 -0.3505783 0.35462642 -0.37715125 0.030631935 -0.07986878 0.038623076 -0.9843076
0.67386484 -0.08151415 -1.3372695 1.0893254 0.16741924 0.5260879 0.17557035 -0.54365236
-0.25258356 0.14198643 0.044477846 -0.95726484 0.6061799 0.43008408 0.0046305936 -0.34702992
0.26140034 -1.2270814 0.16253155 0.028012624 0.79830015 0.9250351 0.61945397 0.22243088
0.1496533 -0.021173285 -0.27874532 0.1855666 0.25008675 0.18296248 0.85501635 -0.50104654
-0.08343659 -0.09935383 0.11583277 0.91440415 0.46594593 1.4828744 0.49357536 0.27649254
-0.8625656 0.6495472 -0.24058473 -0.13575922 0.69396734 0.86965144 0.17508733 0.4226318
-0.33608904 -0.19252522 -0.029416043 -0.32767144 0.7690143 0.5349881 0.40100643 -0.19826518
-0.2545792 -0.056127362 0.03276871 0.11079064 0.71860874 -0.94478256 -0.19079885 -0.707611
-0.71427184 -0.52334595 -0.9718654 0.4728792 0.12023739 -0.51421154 0.52666515 -0.44996548
1.1484963 -0.057715982 0.49974146 -0.19835362 -0.37462467 0.5837777 -0.41612768 1.3055995
-0.57390994 0.119903855 0.30476132 -0.6660956 0.12370102 -0.77832246 -0.29853308 0.07668433
-0.29020053 0.20448087 -0.106931366 1.2486063 -0.11816394 0.100490354 0.22834422 -0.09860918
-1.2283891 -0.51183695 -0.24859014 0.018815085 -0.64719003 -0.69733393 0.8634041 0.77169675
0.15492919 -1.821398 0.66516906 0.38011566 -0.6782973 0.5723064 -1.2303386 0.40806055
-1.5274987 1.0270598 -0.5389712 0.48821822 0.45731473 0.1331416 0.4988099 0.2588144
0.16382147 0.4823608 -0.6348521 -0.5734636 0.901305 0.12168441 -0.3958714 -0.5832897
-0.32037723 0.42677817 -0.5897699 -0.25757903 0.5398934 -1.6557529 -0.50964636 -0.21308443
-0.3265117 -0.20256358 0.8163966 0.47839263 -0.1700951 -0.41436666 0.12845452 0.3048279
-0.37893578 0.26949778 0.14902684 0.6638257 0.047859263 0.27823606 -0.35513657 -0.8422661
-0.28406522 0.6501071 0.27151933 -0.76653713 -0.8283722 -0.73471904 0.251966 1.3898919
0.74995667 -0.032430146 0.63874173 0.3138965 -0.3251159 -0.38097674 0.6449768 -0.48359406
-0.3640713 -0.18386288 0.24203782 0.34605482 0.4174175 -0.19184716 -0.5667401 -0.7891838
0.16973883 -0.054966386 -0.86952996 0.26666325 0.7551905 -0.6682457 0.81585044 0.11414164
-0.48995644 0.47278076 0.28127486 1.1283336 -0.83294624 -0.17357269 -0.5600102 -1.270896
-0.63547546 -0.37841794 0.2987343 -1.0568596 -0.3550479 0.007449534 -0.64668226 -0.60573995
0.81905305 -0.3967442 0.3301814 -0.5064587 0.003311044 -0.7294611 0.7367293 -0.1537654
-0.5591065 0.44592395 -0.19940619 -0.25563684 0.658849 0.1486163 0.04763039 -0.7586253
0.16361302 -1.1518298 0.76971817 -0.2105587 -0.4911811 0.5682279 -0.17461963 0.41986486
0.6394537 0.29410467 0.55572927 -0.7509403 -1.3372312 -0.034049578 -0.3449331 0.6142422
00000000: e8dc e9be 56b8 b2bd 16ae a3be 5e12 04bf
00000010: 3c56 72bd a4ba abbf f4fc 1f3f 101f 8b3e
00000020: 6019 6f3d db0c 32bf a04c 873e 3b34 873f
00000030: 4f59 fa3d f743 cd3e a08b cbbc 5da5 e03c
00000040: 6e37 5e3f 007f b3be 9891 b53e f819 c1be
00000050: d3ef fa3c 3e92 a3bd 3b33 1e3d 95fb 7bbf
00000060: 6882 2c3f e4f0 a6bd a62b abbf 046f 8b3f
00000070: f36f 2b3e b2ad 063f b7c8 333e cd2c 0bbf
00000080: a252 81be e464 113e 672e 363d 4f0f 75bf
00000090: 9b2e 1b3f fb33 dc3e 3cbc 973b e8ad b1be
000000a0: 44d6 853e 0111 9dbf ac6e 263e bb7a e53c
000000b0: 665d 4c3f 1acf 6c3f 8994 1e3f ecc4 633e
000000c0: b73e 193e 9973 adbc b5b7 8ebe 2c05 3e3e
000000d0: 5f0b 803e 845a 3b3e 5ae2 5a3f 9644 00bf
000000e0: cee0 aabd 057a cbbd bb39 ed3d 6416 6a3f
000000f0: 7790 ee3e d4ce bd3f e9b5 fc3e 6e90 8d3e
00000100: 19d1 5cbf ba48 263f d85b 76be 7704 0bbe
00000110: d8a7 313f 7aa1 5e3f 184a 333e 3263 d83e
00000120: dd13 acbe 5525 45be eaf9 f0bc 8dc4 a7be
00000130: 1fde 443f fbf4 083f b750 cd3e 0706 4bbe
00000140: 3458 82be cee5 65bd 7c38 063d 34e6 e23d
00000150: bef6 373f 45dd 71bf c660 43be ff25 35bf
00000160: 85da 36bf 00fa 05bf 2ccc 78bf 391d f23e
00000170: 053f f63d 5ea3 03bf 87d3 063f e061 e6be
00000180: ed01 933f 9867 6cbd 1dde ff3e 361d 4bbe
00000190: cece bfbe 7572 153f b00e d5be e21d a73f
000001a0: c3eb 12bf 2790 f53d ad09 9c3e 3e85 2abf
000001b0: f656 fd3d 2440 47bf 54d9 98be ad0c 9d3d
000001c0: 2a95 94be 6f63 513e d5fe dabd 55d2 9f3f
000001d0: f0ff f1bd e3cd cd3d 11d3 693e 9cf3 c9bd
000001e0: db3b 9dbf bf07 03bf 6a8e 7ebe 1822 9a3c
000001f0: 3fae 25bf 7a84 32bf 0d08 5d3f eb8d 453f
00000200: c2a5 1e3e 9223 e9bf 8548 2a3f 859e c23e
00000210: e4a4 2dbf ac82 123f bc7b 9dbf 50ed d03e
00000220: 1485 c3bf b276 833f 04fa 09bf bdf7 f93e
00000230: 2825 ea3e 4656 083e 0364 ff3e 5283 843e
00000240: d1c0 273e fff7 f63e ab85 22bf 83ce 12bf
00000250: edbb 663f ad35 f93d a8af cabe 7952 15bf
00000260: 7c08 a4be ab82 da3e 29fb 16bf 66e1 83be
00000270: 7436 0a3f b6ef d3bf 2f78 02bf ce32 5abe
00000280: 8b2c a7be d46c 4fbe 5eff 503f e1ef f43e
00000290: 692d 2ebe de27 d4be 9589 033e 6712 9c3e
000002a0: df03 c2be 9dfb 893e 7e9a 183e 7bf0 293f
000002b0: 1308 443d f574 8e3e 76d4 b5be c09e 57bf
000002c0: ff70 91be 6b6d 263f 9504 8b3e c73b 44bf
000002d0: 3310 54bf 8c16 3cbf b001 813e fae7 b13f
000002e0: 29fd 3f3f 79d5 04bd 9484 233f 0bb7 a03e
000002f0: 9775 a6be 620f c3be 331d 253f a499 f7be
00000300: 8e67 babe 8d46 3cbe c3d8 773e 192e b13e
00000310: bfb7 d53e 9573 44be e115 11bf f307 4abf
00000320: 04d0 2d3e 6f24 61bd 8499 5ebf 1688 883e
00000330: 2a54 413f 2612 2bbf 93db 503f 18c3 e93d
00000340: 92db fabe 5210 f23e 4203 903e 3c6d 903f
00000350: f73b 55bf 0abd 31be d45c 0fbf b8ac a2bf
00000360: 85ae 22bf ffbf c1be b4f3 983e 2d47 87bf
00000370: d7c8 b5be 381b f43b f88c 25bf c611 1bbf
00000380: 76ad 513f 0e22 cbbe 890d a93e 47a7 01bf
00000390: 1afe 583b f6bd 3abf 4b9a 3c3f ad74 1dbe
000003a0: 9b21 0fbf 2550 e43e 2331 4cbe d5e2 82be
000003b0: 54aa 283f df2e 183e 1518 433d 4535 42bf
000003c0: 2c8a 273e 296f 93bf 400c 453f b39c 57be
000003d0: 177c fbbe 6277 113f 7dcf 32be 87f8 d63e
000003e0: 3db3 233f e394 963e 4644 0e3f a03d 40bf
000003f0: 642a abbf 9277 0bbd 129b b0be fa3e 1d3f

fc2.bias f4 [256]
-0.41975674 0.18734777 -0.7729345 0.35704106 -0.211121 0.60244125 -1.1971717 0.17494436
0.25776017 -0.38778517 -0.3769463 -0.82448614 0.31186408 -1.297449 -0.0050368737 -0.42968783
0.7659692 -0.22892447 -0.57448834 -0.7976188 -0.25121737 -0.30301446 -0.50304484 -1.0484151
-0.77979755 -0.1403839 -0.5964903 -0.5112671 -0.69898695 -0.017167075 -0.805029 -0.18362968
-0.18467373 -0.112326756 0.3001503 -0.23129463 -0.76812077 -1.112822 -0.08873399 -0.7422971
0.17634767 -0.4288261 -0.6365905 -0.45702782 -0.48670483 0.20864671 -0.51271844 -0.5327446
-0.5995539 -0.31951752 -0.88478255 -0.91833645 -0.35332853 0.11741295 -0.85152245 -0.3894393
-0.17579839 0.1131209 -0.4164843 -0.548358 -0.2734863 -1.440142 -1.3052428 -0.87994903
-0.060613934 0.16590554 0.21138042 -0.39826015 -0.37213612 -0.080983296 -0.35952508 -0.587881
-0.5060192 -0.3725616 0.22975238 -0.18766375 -0.88176787 -0.2611507 -0.21092694 -0.5371327
-0.94224405 -0.29792327 -0.7235826 -1.3922032 -0.5399823 -0.67843586 -0.122080415 0.03213501
-0.49332908 -0.7766156 -0.76811993 -0.7250737 0.2585541 -0.21593367 -0.50309336 -0.19957587
0.2673653 -0.2614644 -0.44092715 -1.3352691 -1.187974 -0.4317455 -0.9287803 -1.2966368
-0.3765483 -0.38415304 -0.50025326 -0.41982633 -1.2252696 -0.2827412 -0.11834692 -0.4289735
-0.39867902 -0.65692025 0.01730387 -0.19801404 -0.25342104 -0.17669827 -0.7829682 -0.18768953
-0.1763167 -0.060924593 -0.17344171 0.24274755 -0.7026578 0.0053069997 -0.6676939 -0.81001776
-0.8172414 0.19770092 -0.3832145 -0.63235253 -0.34140182 -1.2417462 -1.1441709 -0.71499854
-0.54071724 -0.3262716 -1.7853618 -0.22695251 -0.9642245 -0.9794586 -0.058201283 -0.62360674
-0.13456726 -1.3428742 -0.7570762 -0.39161506 0.40499637 -1.1149206 0.24783237 -0.6520839
-0.3468953 -1.1827946 0.35122678 -0.5664355 0.032732815 -0.85566723 -1.1014453 0.15878937
-0.61942244 -0.30958536 -0.34971341 -0.7658432 -0.19989659 -0.31524977 -1.2993518 -0.609506
-0.23166919 -0.33212724 0.24961875 0.13819073 -0.3210682 -0.40043154 -0.59900075 0.31878433
-0.4688435 -0.54929096 0.13633667 -0.30876544 -0.28241834 -0.2281603 0.17309266 -0.52165014
0.089694336 -0.04971232 -0.1509471 -0.7808818 -0.23836154 -0.19941647 -0.18839897 0.28423426
0.20710802 -1.1728282 -0.020777667 -0.40050045 -0.65964997 -0.8515101 -0.45594937 -0.3959274
-0.96570593 -0.70652485 -0.17193478 0.15671198 -0.3357872 -0.58289975 0.25918856 -0.26171952
-0.6069721 -0.07609604 -0.01198785 -0.91049445 -0.10626451 -0.19754006 -0.1934525 -0.060299337
-0.9374895 -0.8480541 -0.38069782 0.22973132 -1.1675107 -0.30247775 -0.9917561 -0.3940232
-1.4094628 -0.65284216 0.25404873 -0.36496642 -0.24930333 -0.15370576 -0.8210003 -1.2074625
-0.2491019 -0.15892754 -0.22460516 -0.90432185 -0.31100032 -0.869034 -0.7264801 0.12331244
-0.07906638 -0.21082205 -0.17611748 -0.6639128 -0.62088 -0.15178268 -0.0813148 -1.1954337
-0.42329267 -0.14799337 -0.48383254 -0.5206798 -1.0762976 0.08761066 -0.0060347896 -0.64891654
00000000: 5bea d6be 18d8 3f3e 09df 45bf 16ce b63e
00000010: 1a30 58be 9739 1a3f ec3c 99bf 9d24 333e
00000020: 24f9 833e c78b c6be 1bff c0be 8611 53bf
00000030: a6ac 9f3e cf12 a6bf 5c0c a5bb 0b00 dcbe
00000040: 8f16 443f 2d6b 6abe ab11 13bf bf30 4cbf
00000050: 909f 80be b624 9bbe 8cc7 00bf 7732 86bf
00000060: d0a0 47bf ccc0 0fbe 97b3 18bf 67e2 02bf
00000070: cff0 32bf f7a1 8cbc 6116 4ebf 6b09 3cbe
00000080: 1c1b 3dbe 920b e6bd 4dad 993e 80d8 6cbe
00000090: 90a3 44bf f470 8ebf 2bba b5bd 2f07 3ebf
000000a0: 7c94 343e 188f dbbe 98f7 22bf 8dff e9be
000000b0: 6031 f9be 7ca7 553e 8441 03bf f361 08bf
000000c0: 5d7c 19bf cd97 a3be 1c81 62bf 1918 6bbf
000000d0: 7ae7 b4be 3376 f03d 60fd 59bf 9764 c7be
000000e0: 7e04 34be eeab e73d 6e3d d5be 3161 0cbf
000000f0: 6506 8cbe 9356 b8bf 3212 a7bf 5744 61bf
00000100: 5146 78bd 24e3 293e 1c74 583e c1e8 cbbe
00000110: a088 bebe 92da a5bd ac13 b8be 5f7f 16bf
00000120: 798a 01bf 65c0 bebe 3544 6b3e ed2a 40be
00000130: 8abb 61bf 8bb5 85be 3bfd 57be 8781 09bf
00000140: e836 71bf 6689 98be b63c 39bf b733 b2bf
00000150: 483c 0abf f9ad 2dbf 4c05 fabd 00a0 033d
00000160: a195 fcbe 48d0 46bf 82a3 44bf 6e9e 39bf
00000170: 3461 843e b71d 5dbe baca 00bf 9e5d 4cbe
00000180: 1be4 883e a9de 85be 34c1 e1be 19ea aabf
00000190: 880f 98bf bf0d ddbe 8cc4 6dbf 32f8 a5bf
000001a0: f0ca c0be b5af c4be 9910 00bf 7af3 d6be
000001b0: a2d5 9cbf 74c3 90be df5f f2bd 6aa2 dbbe
000001c0: a81f ccbe ed2b 28bf d8c0 8d3c 31c4 4abe
000001d0: 67c0 81be 64f0 34be 9b70 48bf af31 40be
000001e0: 5d8c 34be 118c 79bd b49a 31be d092 783e
000001f0: 62e1 33bf 57e6 ad3b fded 2abf 535d 4fbf
00000200: bb36 51bf 1c72 4a3e b134 c4be dbe1 21bf
00000210: 38cc aebe 8af1 9ebf 3174 92bf 250a 37bf
00000220: 726c 0abf 120d a7be bc86 e4bf 3d66 68be
00000230: 6bd7 76bf ccbd 7abf 7864 6ebd b1a4 1fbf
00000240: 00cc 09be 4de3 abbf bfcf 41bf c581 c8be
00000250: af5b cf3e b8b5 8ebf c5c7 7d3e f8ee 26bf
00000260: 439c b1be d065 97bf ffd3 b33e eb01 11bf
00000270: d812 063d 020d 5bbf 29fc 8cbf ae99 223e
00000280: 7892 1ebf f981 9ebe a30d b3be 4d0e 44bf
00000290: b1b1 4cbe 6b68 a1be 2951 a6bf 9608 1cbf
000002a0: b03a 6dbe 950c aabe 0f9c 7f3e df81 0d3e
000002b0: 0d63 a4be 5d05 cdbe 1d58 19bf b337 a33e
000002c0: 410c f0be 559e 0cbf d79b 0b3e 8116 9ebe
000002d0: 2399 90be dba2 69be 343f 313e dd8a 05bf
000002e0: aab1 b73d 259f 4bbd e091 1abe dfe7 47bf
000002f0: 0c15 74be d533 4cbe a9eb 40be 2787 913e
00000300: 2014 543e 3c1f 96bf ed35 aabc 650e cdbe
00000310: d2de 28bf 91fc 59bf 3272 e9be ffb6 cabe
00000320: 8138 77bf d0de 34bf ac0f 30be 1b79 203e
00000330: 4dec abbe eb38 15bf 5db4 843e 1a00 86be
00000340: 8662 1bbf 3ed8 9bbd b068 44bc 2a16 69bf
00000350: 35a1 d9bd f147 4abe 6a18 46be 70fc 76bd
00000360: 50ff 6fbf 131a 59bf d3ea c2be b03e 6b3e
00000370: fe70 95bf 5dde 9abe bae3 7dbf 69bd c9be
00000380: 4769 b4bf aa20 27bf ad12 823e e1dc babe
00000390: 5f49 7fbe 0b65 1dbe 132d 52bf 228e 9abf
000003a0: 9214 7fbe e7bd 22be e5fe 65be a381 67bf
000003b0: 6f3b 9fbe 0379 5ebf 9afa 39bf 3c8b fc3d
000003c0: 8eed a1bd bce1 57be 2458 34be 30f6 29bf
000003d0: fef1 1ebf eb6c 1bbe 6088 a6bd f903 99bf
000003e0: d1b9 d8be 938b 17be e6b8 f7be 454b 05bf
000003f0: 1fc4 89bf 386d b33d 7cbf c5bb 651f 26bf
