checkpoint_actor.pth (torch_old, 307865 bytes, 10 tensors)

fc1.weight f4 [256, 33]
000000 e2 e8 81 3f c7 14 52 3f ea 3b d9 3a 31 ca 91 3e
       1.0149195 0.82062954 0.0016573642 0.28474572
000010 9e 87 05 bf 18 59 58 bf 59 65 cf 3f 0f 93 1e 3f
       -0.5216006 -0.84510946 1.6202804 0.61943144
000020 21 e6 10 3f 45 8d c7 be 6d 78 77 3e 93 ab 6b 3e
       0.5660115 -0.38974968 0.24167033 0.23014669
000030 88 78 c1 3c fa 4d 56 bf 17 86 84 3d 50 f8 69 3f
       0.023617044 -0.8371273 0.06470888 0.9139452
000040 87 cf 9c be a9 6c 69 be 17 a6 fb be 5f 5e be 3d
       -0.3062708 -0.22795357 -0.49150154 0.092953436
000050 77 27 f6 3e 63 88 62 bf 79 3b 5c be ba ab de be
       0.48076984 -0.8848936 -0.21507062 -0.43490392
000060 e5 ed 94 3d c7 04 54 3f 0f 14 7d be ca 91 e5 3f
       0.07271937 0.8281979 -0.24714683 1.7935116
000070 c5 4e af 3f 62 1f 56 bd e0 7c dc bf ec de 26 3d
       1.3695914 -0.052276023 -1.7225609 0.04073994
000080 f6 0f 72 40 21 db 0d 3f a3 e3 9f 3f 00 ca 33 bf
       3.7822242 0.5541249 1.2491344 -0.702301
000090 22 a6 97 bf 4a d1 03 c0 84 9b 42 bf 00 d0 29 3f
       -1.1847575 -2.059649 -0.7601855 0.6633301
0000a0 5a 05 f9 3e 96 47 91 be e4 70 02 40 07 b0 ea 3e
       0.48636895 -0.28374928 2.0381403 0.45837423
0000b0 ce 59 ca 3e 52 c3 46 be cb 40 46 bb ec 80 8c 3e
       0.3952164 -0.19410446 -0.0030251022 0.2744211
0000c0 10 9c 85 3f 28 21 0d 3f 09 f1 57 3f 69 c9 cb be
       1.0438251 0.5512872 0.84352165 -0.398021
0000d0 d6 32 38 3e 90 c3 1f bf 5f fb 21 bf c3 65 fe bd
       0.17988142 -0.6240778 -0.63274187 -0.12421753
0000e0 ca fa 79 bd 4f 18 df bf 99 b8 ce 3f 6a 1a 84 be
       -0.061030187 -1.7429293 1.6150085 -0.25801402
0000f0 9e b8 55 3f 60 45 1e bf 80 cd 65 ba 8a 32 49 bf
       0.8348483 -0.6182461 -0.00087662786 -0.7859274
000100 2a 22 4f bd d8 f8 98 bf 93 cb 32 3f 81 0c c7 3e
       -0.05056969 -1.1950941 0.6984188 0.38876727
000110 7e 1a 95 be 94 49 a4 3e 2c 49 7c be b4 9c 2f 3e
       -0.29121774 0.32087386 -0.24637288 0.17149621
000120 a3 63 93 3f 1b 2d f2 bd 17 c8 3a bf c5 94 ae bf
       1.1514782 -0.118250094 -0.7296156 -1.3639151
000130 6b ee fb 3d 77 2b e4 3e ff 39 c4 bd dd 02 ca bf
       0.12301334 0.4456441 -0.095813744 -1.5782124
000140 b6 c4 af be d8 82 80 bf 97 df 2e 3f 4f e3 0d 3d
       -0.34329766 -1.003993 0.6830992 0.034640606
000150 86 0a 02 bf dd 6d 58 be 91 41 93 be 73 b7 80 3e
       -0.5079731 -0.2113566 -0.2876096 0.2513996
000160 09 6d 66 3e 3a 2b 1b bf 5a b7 9e be 4b 42 cb be
       0.22502531 -0.60612833 -0.3099926 -0.39699015
000170 3f b9 58 3f 2f 2e b7 3f b1 0b 1d bf 80 92 60 3d
       0.84657663 1.4310969 -0.61345965 0.054827213
000180 25 6b ad bf 28 c1 bc 3c f0 72 8e c0 2c 3a 6f bf
       -1.3548323 0.023041323 -4.4515305 -0.9344814
000190 60 ea af 3f 87 e2 b1 bf ad d9 ca bd a3 76 d1 3f
       1.37434 -1.3897256 -0.099047996 1.636433
0001a0 93 37 09 c0 6c e9 dd bd 1a bf a7 3d 8f f5 00 bf
       -2.144017 -0.10835537 0.081907466 -0.5037469
0001b0 62 6f 1c bf 6e 82 9d 3f 0e 02 4d 3f 6b bc fd 3e
       -0.61107457 1.2305429 0.8008126 0.49557814
0001c0 56 1e 8f be ef f2 dd 3f a5 76 ad 3e 18 a6 54 3e
       -0.27952832 1.7339762 0.3387958 0.20766485
0001d0 b4 c0 a2 3f 9c a9 80 3f 94 e2 3d bf 33 3c 27 3f
       1.2715058 1.0051761 -0.74173856 0.6532623
0001e0 c1 98 3a 3e fe b4 33 3e 79 19 ac bf 28 10 4d be
       0.18222333 0.17549512 -1.3445274 -0.20025694
0001f0 57 08 a1 be b2 45 12 3f 1d 2e 96 be ca 99 19 be
       -0.31451675 0.57137597 -0.29332057 -0.15000072
000200 b8 f0 1d bd 8b 60 a1 3e c0 ce 41 bb 83 58 00 c0
       -0.038559645 0.3151897 -0.0029572695 -2.0054023
000210 06 d6 61 bf 92 c2 e5 bf 07 f5 85 bd 16 86 28 3c
       -0.882172 -1.7950003 -0.06540876 0.010285875
000220 ac be 24 bf 08 df 1c bb 04 98 1a 3f d7 aa 07 bd
       -0.6435344 -0.0023936648 0.6038821 -0.03312191
000230 e6 8b af bf 26 c9 e8 3e 0a 34 87 3b ae 2b ef be
       -1.3714569 0.45465964 0.0041260766 -0.46713012
000240 f4 3e 5c be 37 6a 7e 3f 28 1c 19 40 9c 8f a0 3e
       -0.2150839 0.9938082 2.3923435 0.31359565
000250 45 33 a8 bc 38 e2 d0 bd 7c 0d 09 3f cd d0 eb 3e
       -0.02053226 -0.10199398 0.535362 0.4605774
000260 bc 30 91 bd 3c 64 8b bf 74 99 ad bf 12 23 bb 3d
       -0.070893735 -1.0889964 -1.3562455 0.091375485
000270 d8 04 21 3f c9 9a 8f bd 19 e3 47 bf 15 c7 d0 3e
       0.62898016 -0.07011945 -0.780809 0.40776888
000280 1b 19 2d bf a8 bd 06 3c 05 2e cf be c4 ae 87 bc
       -0.6761643 0.0082239285 -0.40464798 -0.016562827
000290 c6 67 01 40 fd 81 1b c0 98 ab c3 be 7a b2 89 3f
       2.0219588 -2.4298089 -0.38216853 1.0757592
0002a0 06 90 fa 3c 31 40 03 3f b5 0b db 3f f9 36 d8 bf
       0.030586254 0.51269823 1.7112948 -1.6891776
0002b0 f1 8a 97 3f dc 99 c0 bf ce ff 4b bf 1e 59 57 3f
       1.1839277 -1.5046954 -0.796872 0.8412036
0002c0 c3 c9 2f bf 88 85 b6 3e ff 5f 8e 3f 3e ff a5 3d
       -0.6866724 0.3564875 1.1123046 0.08105324
0002d0 9f 29 84 bf 0b f1 5d bf 04 13 dc 3d 7c 16 0b 3f
       -1.0325202 -0.8669593 0.107458144 0.54331183
0002e0 d2 02 31 bf 75 68 95 bd 0f 60 ca bf a0 44 7c be
       -0.6914493 -0.07295314 -1.5810565 -0.24635553
0002f0 ce 4d 5b 3e c8 8d 5e 3e f8 39 07 bf 32 b2 cd be
       0.21416399 0.21733773 -0.5282283 -0.40175015
000300 2d 42 68 bf 5b cf e8 bc 18 45 17 3d bd 83 68 3f
       -0.90725976 -0.028419187 0.036931127 0.90826017
000310 74 b1 39 bd 4a de 41 40 26 87 98 bf 85 57 26 bf
       -0.045335248 3.0291924 -1.1916244 -0.64977294
000320 b4 cb 1d bf ea 92 2d 40 5d 94 6a 3e 91 ca 31 40
       -0.6163895 2.712092 0.22908159 2.7779887
000330 e7 e9 08 40 03 e3 74 be c8 03 6d 3e 6d 7d c5 3e
       2.1392763 -0.23914723 0.23145974 0.38572255
000340 23 01 48 bf 0e f4 84 3d f8 82 9b be a0 52 62 3f
       -0.78126734 0.06491862 -0.3037336 0.88407326
000350 50 68 44 bf 37 df 18 3f d0 04 8c bd cf d8 6d be
       -0.7672167 0.597156 -0.068368554 -0.23227237
000360 7d 03 3a bf 91 a0 32 3f 0b d4 2d bf f1 a2 6c be
       -0.7266157 0.69776255 -0.67901677 -0.23109032
000370 66 1a 4a 3f 9c 59 23 3f 13 05 cf be 78 4c bc 3e
       0.7894653 0.6380861 -0.4043356 0.3677709
000380 d5 aa 27 3e 14 94 af 3f fe a8 76 bf 54 59 f6 3c
       0.16373761 1.3717065 -0.9635161 0.030071892
000390 b8 d5 a8 bf d0 56 f9 bb 6d 01 80 40 bf d4 cc 3f
       -1.3190222 -0.007609226 4.000174 1.6002425
0003a0 c6 a2 5a 3e f4 43 3c 3f 76 97 00 bf 42 00 54 bf
       0.21351156 0.7354119 -0.5023111 -0.82812893
0003b0 9e 38 b4 bf dd 32 11 bf bd cb 00 c0 75 3c d8 be
       -1.4079778 -0.56718236 -2.0124352 -0.42233625
0003c0 3d e8 3f 3f 0e 9b 30 3f d2 16 a8 be 93 79 c0 be
       0.7496374 0.68986595 -0.3282991 -0.37592754
0003d0 14 72 b1 3e a6 48 ea 3e e6 f7 7f be 79 54 49 3d
       0.34657347 0.4575855 -0.2499691 0.049152825
0003e0 31 52 cf 3e 99 a7 4d bd b6 d7 79 3f 71 b1 48 bf
       0.40492395 -0.05020866 0.97594774 -0.78395754
0003f0 22 1a 2b 3c a9 fa 01 c0 70 1e 12 3f c5 b4 11 3f
       0.010443242 -2.030924 0.57077694 0.5691646

fc1.bias f4 [256]
000000 c3 19 cf bf 30 22 70 bf 0a 04 b6 bf b4 a8 ac 3e
       -1.6179737 -0.93802166 -1.4219983 0.3372246
000010 e4 50 70 be 8c 3e 7b 3f cf ce b7 bf 50 76 b9 bf
       -0.23468357 0.98142314 -1.4359988 -1.4489231
000020 9a 48 f6 be 11 79 81 bf f9 33 7b bf f8 4e a1 be
       -0.48102266 -1.0115072 -0.9812618 -0.3150556
000030 0f cb 6c 3f cd a6 a6 bf b9 5f dc bf 0a dc 73 bf
       0.9249734 -1.3019654 -1.7216712 -0.9525763
000040 c3 a8 20 c0 1a da bf bf b6 f3 6d bf a7 cc 59 3f
       -2.5103004 -1.4988434 -0.9295 0.850779
000050 83 e4 ce bf 5e 69 82 bf 80 bf b1 bf e9 68 f5 bf
       -1.6163486 -1.0188406 -1.3886566 -1.9172641
000060 6b f5 d1 bf 1d 00 4b 3f 65 d2 f7 be 98 0a d7 be
       -1.6403021 0.7929705 -0.48402706 -0.4200027
000070 22 33 93 bf 2d 83 94 be ee 28 94 bf 16 97 d6 3e
       -1.149998 -0.2900633 -1.1574991 0.41912144
000080 49 66 02 be d3 20 e4 be d5 db 8b 3e ee e7 24 c0
       -0.12734331 -0.44556293 0.27316156 -2.5766559
000090 3f 23 03 c0 c7 29 cf bf 66 4b 0c c0 d0 dc 8a bd
       -2.0490263 -1.6184624 -2.192102 -0.06780398
0000a0 a6 ca 28 c0 f4 26 e3 bf fd fa e2 bf 84 0a 26 3f
       -2.6373687 -1.7746263 -1.7732846 0.64859796
0000b0 ee 7e 0f bf 73 60 83 3e 96 e6 d9 bf 68 ea 26 c0
       -0.56053054 0.25659522 -1.7023494 -2.608057
0000c0 9f 1d 06 c0 95 72 9b be b3 66 8b bf f4 b2 17 3e
       -2.095558 -0.30360857 -1.0890716 0.14814359
0000d0 a3 45 a8 be e9 6a d8 bf 0e d5 0e c0 01 f1 c6 bf
       -0.3286563 -1.6907626 -2.2317538 -1.5542299
0000e0 db 6a 3c be cf a8 fa be 5d c4 33 bf 97 dc 80 3f
       -0.18400137 -0.48956916 -0.702215 1.0067319
0000f0 d0 38 9d bf c0 b4 0d 3e 24 28 89 bf ac c8 96 bf
       -1.2282963 0.13838482 -1.0715375 -1.177999
000100 33 07 ee bf 69 c6 31 bf ed 46 fc bf e2 e1 a4 bf
       -1.8595947 -0.69443375 -1.9709145 -1.2881434
000110 71 ee b0 bf 9b 13 92 bf 1c 6b 24 3f 44 97 34 3f
       -1.3822767 -1.1412233 0.64225936 0.70543313
000120 75 bd d8 bf 5d b0 d3 bf ab 6f 7c bf 2d d3 33 bf
       -1.6932818 -1.6538197 -0.9860789 -0.70244104
000130 a1 63 25 c0 7b 1d 0b c0 6d 53 97 bf 42 55 f4 bf
       -2.5842059 -2.1736743 -1.1822335 -1.9088519
000140 44 24 7c bf 0b e2 ca bf 14 d3 26 c0 17 ba 6b c0
       -0.98492837 -1.5850233 -2.6066332 -3.683233
000150 29 8b 50 bf 9e fa bf bf df f4 a1 bf 40 0b 67 bf
       -0.8146234 -1.4998357 -1.2652854 -0.9025154
000160 85 d3 0c bf 7d 4c 10 c0 01 45 c6 bf a2 4d ed bf
       -0.55010253 -2.2546685 -1.5489808 -1.8539317
000170 5b 5c 00 bf 53 0c 0e bf 3f 23 4a be e8 3e 8e bf
       -0.50140923 -0.55487555 -0.19740008 -1.1112947
000180 77 9f c4 bd 46 79 cc bf 73 4f 02 c0 5b 90 a3 be
       -0.09600728 -1.597451 -2.0360992 -0.31946072
000190 0d 44 24 c0 b2 b0 4b c0 08 ea ce bf dd b1 38 bf
       -2.5666535 -3.1826596 -1.6165171 -0.721464
0001a0 ac c2 9a bf 44 cd 7a bf 12 22 b6 bf 86 96 73 bf
       -1.2090659 -0.9796946 -1.4229147 -0.95151556
0001b0 57 fe 4f bf 46 c1 f3 bf 49 75 18 c0 be f4 c6 bf
       -0.81247467 -1.9043357 -2.3821585 -1.5543439
0001c0 30 f7 a9 3f 24 0b f9 bd 6d 5e b6 bf 92 dc 30 c0
       1.3278561 -0.12160328 -1.4247566 -2.7634625
0001d0 3c dc a5 bf 0a 14 d5 bf 1c 6b c8 bf b3 bf 4a c0
       -1.2957835 -1.664674 -1.5657687 -3.1679504
0001e0 7a 95 0a c0 aa 43 89 bf 01 67 7d be 03 e1 85 bf
       -2.1653733 -1.0723774 -0.24746324 -1.0459293
0001f0 6f da 66 bf 58 f0 1a bf bc 5f 1d c0 58 ae 5a be
       -0.90177053 -0.60522985 -2.4589682 -0.2135557
000200 28 6d e0 bf 00 24 f0 b9 82 65 e8 bf cc 97 c5 3d
       -1.7533312 -0.0004580319 -1.8155978 0.096480936
000210 f5 d7 83 bf 30 a2 1a c0 ef cb fc bf c5 ce 29 c0
       -1.030028 -2.4161491 -1.9749736 -2.6532452
000220 55 2c 90 bf 70 e8 8c bf c5 b7 7c 3c 6d 79 0a c0
       -1.1263529 -1.1008434 0.015424673 -2.1636612
000230 95 d3 a2 bf a4 b5 be bf f8 6a 53 3f 4e 4d 53 be
       -1.272082 -1.4899182 0.82585096 -0.20634958
000240 f3 e4 82 be 47 df ea bf 63 84 2f c0 5b 22 d9 bf
       -0.255653 -1.8349389 -2.7424552 -1.696361
000250 02 74 98 be 01 c6 49 3e c2 4b 9f bf 61 07 94 bf
       -0.29776007 0.19704439 -1.2444994 -1.1564752
000260 35 9c 0e c0 ab db e2 bf d2 eb c9 bf 8c b6 40 c0
       -2.2282841 -1.7723287 -1.5775092 -3.0111418
000270 f5 6c e0 bd dd 17 1b c0 1c a4 81 bf f4 f5 06 c0
       -0.10958282 -2.4233315 -1.0128207 -2.1087618
000280 47 23 78 bf 89 47 d9 bf 41 31 08 c0 ca d8 b6 be
       -0.9692883 -1.6974956 -2.1280062 -0.35712272
000290 9f c0 05 bf 1f 43 df 3f 6c a2 9d 3f 33 01 a2 be
       -0.5224704 1.7442359 1.2315192 -0.3164154
0002a0 5a e9 6d bf b0 d0 7b bf 4e f6 61 bf e3 d7 f2 be
       -0.9293419 -0.98365307 -0.88266456 -0.47430333
0002b0 f5 e7 9d bf 93 0d f2 bf 56 5e 92 bf db c1 9d 3e
       -1.2336413 -1.8910393 -1.1435039 0.30811962
0002c0 ae 20 08 3d 7f 35 af bf ab 76 16 c0 8a a4 e3 bd
       0.03323429 -1.3688201 -2.350993 -0.11115368
0002d0 22 35 29 c0 7d 20 88 bf 6a 48 cb be 01 45 ce bf
       -2.643868 -1.0634915 -0.39703685 -1.6114808
0002e0 a5 31 16 c0 49 58 b2 bf 99 a0 00 bf ea c5 2e c0
       -2.34678 -1.3933192 -0.5024505 -2.7308297
0002f0 2c f6 d4 bf c0 98 c9 bf ac 22 cc bf aa 0c 27 3f
       -1.6637626 -1.5749741 -1.5948081 0.652537
000300 a5 f8 20 c0 68 4e 11 c0 70 99 7b bf 44 8f bf bf
       -2.515176 -2.2704105 -0.98281 -1.4965596
000310 d5 1d 44 3f 34 af 5e bf 9c 94 d2 bf 50 7e 06 c0
       0.7660802 -0.8698609 -1.6451602 -2.1014595
000320 9f a9 92 bf b7 ce 5a bf 56 c8 f9 bf 42 a7 e7 bf
       -1.1458014 -0.8547167 -1.9514263 -1.8097918
000330 50 46 41 c0 e7 ef c7 3e 3d 92 04 c0 ca e5 b7 bf
       -3.0199165 0.39050218 -2.0714257 -1.4367001
000340 98 05 0e c0 04 c8 5f bf 1c d7 92 3f e9 44 35 bf
       -2.2190914 -0.87414575 1.1471896 -0.70808274
000350 a9 95 db bd de 6d 1b c0 82 9a d9 be 65 82 15 c0
       -0.10721905 -2.4285808 -0.42500693 -2.3360837
000360 1c 3c 16 c0 74 c6 52 bf f5 cc b3 3d 70 50 58 bf
       -2.3474188 -0.82334065 0.08779327 -0.8449774
000370 6c 93 9e bf 9a 2b ed bf c6 d6 16 bf 2c 5f be 3c
       -1.238874 -1.8528931 -0.5892147 0.02323874
000380 3e 49 81 be aa 04 6e bf 51 74 ed bf 19 c5 e2 bf
       -0.25251192 -0.92975867 -1.8551122 -1.77164
000390 95 ee 12 bf 23 61 d9 bf 7f f2 0c 3e 9b a7 d7 be
       -0.573953 -1.6982769 0.1376438 -0.4212006
0003a0 49 1e 22 40 b1 95 3d bf e3 4c b8 bf fc 8e bb bf
       2.5330985 -0.74056536 -1.4398464 -1.465301
0003b0 c9 38 0d c0 7b 33 d5 3e 3c d2 9b bf 81 a8 f7 bf
       -2.206591 0.4164084 -1.2173533 -1.9348298
0003c0 29 24 c3 3e 7b 08 18 c0 f2 67 e8 bf 76 4c 0f c0
       0.38113526 -2.3755176 -1.8156722 -2.2390418
0003d0 23 58 b8 bf a0 37 40 bf c0 24 ac bf 70 a0 33 c0
       -1.4401897 -0.75084877 -1.3448715 -2.8066673
0003e0 1a ec 98 3b c6 b8 12 3f f6 3b 07 c0 f3 de b8 bf
       0.0046668174 0.5731319 -2.1130347 -1.4443039
0003f0 c1 3e c7 bf 2d d6 a5 bf ba e3 d4 bf aa 3a 1b c0
       -1.5566026 -1.2955986 -1.6631997 -2.4254556

bn1.weight f4 [256]
000000 b0 89 89 bf 84 5c ea 3e 0d 82 d9 3e 91 69 81 3d
       -1.0745144 0.4577371 0.42482033 0.06318963
000010 8b e7 b3 3e d7 0a 77 3e 76 29 61 3e 2b c3 69 3e
       0.3513759 0.24125229 0.21988472 0.22828357
000020 8b 19 a4 3e 35 dd 4b 3f c8 32 e9 3e fa f4 74 3e
       0.32050738 0.7963441 0.45546556 0.23921576
000030 e3 9f 26 3f 61 6c e5 3e 7a 36 a2 3e e4 f4 33 3e
       0.6508772 0.4480925 0.31682187 0.17573887
000040 3b ad 7a 3e 28 fb cb 3e 3b 9a e9 3e 25 ec 6f 3e
       0.24480145 0.39840055 0.4562548 0.23429926
000050 3a 6a 5b 3e 04 60 e5 3e 98 f4 48 3d 17 f0 06 3e
       0.21427241 0.44799817 0.049061388 0.13177525
000060 8e 42 38 3f d4 e3 5d 3e 96 ae c0 3e 43 67 4a 3e
       0.71976554 0.21668941 0.37633198 0.19765954
000070 7d 8e e6 3e 0f c6 ba 3e 2f ee cb 3e 3d 23 9e 3e
       0.45030585 0.36479232 0.39830157 0.3088626
000080 82 95 ab 3e 1a 53 3b 3f 3d 34 89 3e 4a 16 30 3e
       0.33512503 0.7317368 0.26797667 0.17196003
000090 d9 39 8f 3e d1 de 4c 3e 2c 48 92 3e a5 8d 8d 3e
       0.27973822 0.20006873 0.28570688 0.2764713
0000a0 07 2e 90 3e 95 2c d5 3e 89 6c cb 3e 0d 89 21 3f
       0.28160116 0.41635576 0.39731243 0.6309975
0000b0 3e 4c dd 3e 87 73 44 3f 7f 16 47 3e da 9f bc 3e
       0.4322223 0.7673878 0.19442175 0.36840707
0000c0 7a 42 82 3e 26 cc 92 3e fd f9 2f 3f 57 7d 06 3f
       0.25441343 0.28671378 0.68740827 0.52535003
0000d0 6b 27 98 3e 1d cf e9 3d b5 9b 2c 3e bd 3a 64 3e
       0.29717574 0.11416457 0.16856273 0.22288032
0000e0 83 41 e3 3e 38 45 3c 3f 4f 37 29 3e 0c 17 1d 3f
       0.4438592 0.7354312 0.16525005 0.6136329
0000f0 85 3b 23 3f 5b 6f 6e 3e 6b 37 1e 3f a5 be a3 3e
       0.63762695 0.23284666 0.6180331 0.31981388
000100 0a 06 f1 3d 25 65 d9 3e ae b0 8a 3f fc 7e 53 3f
       0.1176873 0.4245998 1.0835168 0.8261564
000110 37 59 22 3e 4e a7 fb 3e fd ec 4a 3f 0e b5 1c 3e
       0.15854345 0.4915108 0.79267865 0.15303442
000120 da 9b a5 3e dd 80 bd 3e c0 bb 6a 3e 3c b4 85 3e
       0.32345468 0.37012377 0.22923183 0.2611407
000130 16 22 01 3f 72 27 a8 3d a4 48 68 3e e1 04 20 3f
       0.50442636 0.082106486 0.2268396 0.62507445
000140 ac ca 28 3e fe da 1e 3f 53 f8 5c 3e 2f 8a 57 3e
       0.16483563 0.62052906 0.21579103 0.21048807
000150 32 4d 9b 3e 48 90 6c 3e b5 00 1d 3e d6 95 1a 3e
       0.30332333 0.23101914 0.15332301 0.1509622
000160 c8 a4 7f 3e c3 07 31 be 67 07 0a 3f ee 88 4f 3e
       0.24965203 -0.17288117 0.53917545 0.20267078
000170 7f ce b7 3d 41 9c c7 3e 7d 91 1d 3f 2e cc 09 3e
       0.08974933 0.389864 0.6155012 0.13456795
000180 b2 1c 82 3e 39 1a ef 3e 7c b5 2a 3e b6 f2 09 3f
       0.25412518 0.46699694 0.16670793 0.5388597
000190 77 3c f0 3e 0c 49 b4 3e de 52 58 3e 4d be ad 3e
       0.4692113 0.3521198 0.21125361 0.3393425
0001a0 06 88 47 3e e8 2f 68 3e 45 1a 8a 3e c8 3a e2 3e
       0.19485483 0.22674525 0.26973167 0.44185472
0001b0 44 25 56 3f d1 3e 0a 3f ce 7a 34 3e a0 1f 7b 3f
       0.8365061 0.540021 0.17624971 0.9809513
0001c0 b3 22 a8 3e a1 fa 07 3f 2b 15 3c 3e f0 09 92 3e
       0.32838973 0.53116804 0.1836745 0.28523207
0001d0 ff a0 88 3e 26 4e d0 3e 75 a8 b0 3e a2 97 bc 3e
       0.2668533 0.40684623 0.34503523 0.36834437
0001e0 3f 6b 5b 3e 90 59 07 3f a8 12 8b 3e d7 a8 ac 3e
       0.2142763 0.52871037 0.2716267 0.33722565
0001f0 4f fd 85 3f d2 e8 4b 3e c1 0a 52 3e 79 00 06 3f
       1.0467929 0.19913033 0.20511915 0.5234447
000200 9b 6e 0b 3f c4 2f 83 3f b5 2e ae 3d e2 94 cd 3d
       0.54465646 1.0248952 0.085050024 0.10038163
000210 f5 f4 ee 3e eb 25 06 3e 3a 04 8b 3e 4f 8e ff 3e
       0.46671262 0.13100402 0.27151662 0.4991326
000220 f7 1f 6d 3e ed c9 82 3e 24 f6 ab 3e 1a 07 a6 3e
       0.23156725 0.25544682 0.33586228 0.32427293
000230 2a d6 a0 3e 46 f0 48 3f 8b 31 01 3f 75 c7 c3 3e
       0.31413394 0.7849163 0.5046622 0.3823811
000240 40 96 60 3e 84 97 d4 3d 70 71 49 3f f0 db 4e 3f
       0.21932316 0.10380462 0.78688717 0.8080435
000250 12 dd 30 3e b8 03 11 3f 88 6f 7d 3f c8 4c 3e 3e
       0.17271832 0.566463 0.9899831 0.18583977
000260 6b ce c5 3d a9 e8 90 3e de 3d e9 3d b0 32 7b 3e
       0.09658512 0.28302506 0.11388753 0.24531054
000270 b3 4b fa 3e aa c9 21 3e 08 2e 0f 3f 4d 00 98 3e
       0.4888588 0.15799585 0.55929613 0.2968773
000280 be 57 8c 3e 96 9d 6d 3e 94 88 65 3e 42 42 ea 3e
       0.27410692 0.23204646 0.22415382 0.45753676
000290 6b b5 e2 3e e8 e8 16 3f 1e c9 39 3f f4 25 a8 3e
       0.44279036 0.58949137 0.72572505 0.32841456
0002a0 71 45 c5 3d c3 d2 b3 3d 96 79 da 3e ab 7c 9f 3e
       0.096323855 0.08780434 0.42670888 0.31149802
0002b0 23 98 14 3f 89 97 b7 3e 7e 5a 87 3e f3 fc 88 3e
       0.5804464 0.358578 0.26436228 0.26755485
0002c0 eb 27 93 3e 85 f1 f3 3e 16 cc 3a 3e f7 a6 a5 3e
       0.28741392 0.47645202 0.18241915 0.32353947
0002d0 14 13 4f 3e 82 eb a5 3e 25 d7 d6 3e ce b9 83 3e
       0.20222121 0.3240624 0.41961017 0.25727695
0002e0 48 38 4b 3e a2 69 05 3f ba c6 90 3e b2 97 d3 3e
       0.19845688 0.5211431 0.28276616 0.41326672
0002f0 6d 9a ca be 84 4c a3 3e e8 52 ad 3e 02 6b 63 3f
       -0.39570943 0.31894314 0.33852315 0.88835156
000300 18 46 51 3e 03 07 86 3e ec 30 3e 3e f8 0e f0 3e
       0.20436895 0.26177225 0.1857335 0.4688642
000310 46 5f 18 3f 3c 3f 43 3f 7d ab aa 3e 14 0c 07 3f
       0.59520376 0.76268363 0.3333396 0.52752805
000320 b7 db aa 3d ce 7c 2f 3f 1f fe 33 3f d2 94 74 3e
       0.083426885 0.6854981 0.70309633 0.23884895
000330 cc 1e a8 3e fc f4 01 3f 70 5f bc 3e 84 a3 dc 3e
       0.32835996 0.5076444 0.36791563 0.43093503
000340 79 ce d4 3e 4e b3 32 3f 36 0d 38 3f a1 70 a5 3e
       0.41563776 0.6980485 0.7189516 0.32312492
000350 76 3a a2 3e f8 91 87 3e 1b 09 03 3f c5 55 9c 3e
       0.31685227 0.26478553 0.5118577 0.30534187
000360 4a 77 50 3e d5 f9 7e 3e 9b fd 56 3e 25 a2 8a 3e
       0.20358005 0.24899991 0.2099518 0.2707683
000370 55 90 90 3e e2 a0 5e 3e 06 41 c5 3e 44 d9 0f 3f
       0.28235117 0.2174106 0.3852617 0.56190896
000380 bf b5 07 3f 1b 52 94 3e 75 f5 14 3f c2 ec 30 3e
       0.530117 0.28968892 0.5818704 0.17277816
000390 5e 92 97 3e 7f 92 33 3f d9 31 ac 3e 49 63 ac 3e
       0.29603857 0.7014541 0.3363178 0.336695
0003a0 44 c3 f7 3d 68 82 a9 3e 59 ca b9 3e 58 87 4f 3f
       0.12097791 0.33107305 0.36287192 0.81065893
0003b0 fa ed bd 3e b7 cd 8d 3e 2f 0e c3 3e ae ec 9b 3e
       0.37095624 0.2769601 0.3809676 0.3045401
0003c0 79 d9 bd 3e ea 92 8e 3e d7 62 00 3f 56 be 5a bf
       0.3707998 0.27846462 0.5015082 -0.8544668
0003d0 dd 21 5f 3e 06 84 83 3e 35 aa 27 3f bd 40 82 3e
       0.21790262 0.25686663 0.6549409 0.25440016
0003e0 08 5a fe 3e 72 58 93 3e ea 5d 43 3f d1 9e 46 3e
       0.49678063 0.28778416 0.76315176 0.19396521
0003f0 e0 67 b1 3e d5 d2 91 3f 68 38 85 3f 5a ae b8 3e
       0.34649563 1.1392466 1.0407839 0.3607052

bn1.bias f4 [256]
000000 fe 4d 6a bf 19 ee 6a 3d 56 8a ea 3d cc 34 18 bd
       -0.91525257 0.057355974 0.11452167 -0.037159726
000010 67 1a 38 3e fb b2 09 3e cd df 15 3d dc ca 00 3c
       0.17978822 0.13447182 0.036590386 0.007860865
000020 94 40 89 3e 99 5c a3 3f 95 8a 65 3e 30 54 bd 3a
       0.26807082 1.2762634 0.22416146 0.0014444645
000030 f2 01 86 bc 5d 21 cd 3e be fe 1a 3e d0 ea 0e be
       -0.01635835 0.40064517 0.15136239 -0.13956761
000040 b4 8f 41 3d 99 24 5d 3e 63 67 53 3e 6d 63 22 be
       0.047256187 0.21595992 0.20644908 -0.1585824
000050 87 89 b0 bd 95 12 99 3e 70 ba 25 bd af 37 02 be
       -0.08619981 0.2989699 -0.040461004 -0.12716554
000060 81 a9 b3 3f 8b 3f 1f bd 90 b1 bb 3d 9e c9 29 3d
       1.4036103 -0.03887896 0.09164727 0.041452043
000070 10 74 d6 bd 18 00 3c 3d d0 2c 22 3e 04 4a 80 3c
       -0.10471356 0.045898527 0.15837407 0.015660293
000080 48 da a6 bb 9d 67 1e 3f 85 b9 01 3d ba 39 20 3a
       -0.005091939 0.6187685 0.031671066 0.00061121176
000090 25 07 57 bd bf c5 b9 3c 92 51 13 3d e0 1e a3 3c
       -0.052497048 0.0226773 0.035966463 0.019912183
0000a0 77 52 df bc 4d 1a ca 3d 59 53 ab 3d 56 2d 0c 3f
       -0.027261002 0.09868298 0.08365507 0.5475668
0000b0 00 d6 54 3e b7 00 e5 3e b1 2a a6 3d ed 93 00 3c
       0.2078476 0.44727108 0.081136115 0.007847768
0000c0 f7 1f 8a 3d cb 1d ee bd 59 a3 de 3e 10 3b b5 3e
       0.06744378 -0.11626776 0.43484 0.35396624
0000d0 15 84 de 3d 12 61 c2 bb df a0 81 3d 6b 53 23 3a
       0.108650364 -0.005931982 0.06329512 0.0006230387
0000e0 d9 f1 be 3b 74 b2 12 3d ae a3 7a 3d 42 ba 0e 3c
       0.0058271703 0.035814717 0.061191253 0.0087113995
0000f0 0b a0 8f 3e 7d 9c 3d 3d 3d 7d cc 3e 66 b1 5c 3e
       0.2805179 0.046291817 0.399393 0.21552047
000100 89 59 69 3c b1 f5 93 3d 3e 8d be 3e 5e 8f 83 3f
       0.014242538 0.07224596 0.37217134 1.0278127
000110 e8 f6 26 3d ba ee a8 3e 85 69 4d 3f e4 f8 92 3c
       0.040762812 0.32994634 0.80239135 0.017940946
000120 a5 77 fa 3d c4 d8 4f 3e d0 53 13 3e f9 41 69 3d
       0.12229852 0.20297533 0.1438744 0.056947682
000130 6d fd 72 3e a6 25 a5 be c4 d9 43 3d 1d ba 51 3e
       0.23729487 -0.32255286 0.0478151 0.20481153
000140 2f 87 e5 bc eb e5 d6 3e b4 ad f9 3d 5f 18 2b 3d
       -0.028018562 0.41972288 0.12191334 0.04177129
000150 0d bf 09 3d 04 e2 e7 3d 3a 23 f5 3c cd c6 9a 3c
       0.033629466 0.11322406 0.029924024 0.018893624
000160 4a 01 9a bd 49 af 3b bd 9d 20 98 3e f1 06 fd 3c
       -0.07519777 -0.04582146 0.29712382 0.030887099
000170 16 db c2 3c 6b 1d 8c bc 8e 33 be 3d 13 43 8f bd
       0.023786109 -0.017103871 0.09287177 -0.06995215
000180 fe 44 08 3e 79 5a 37 3e 9f 3f c7 3c e3 80 ae 3e
       0.13307568 0.17905606 0.02432233 0.34082708
000190 78 75 58 3d c8 a5 3e 3e 5a 5d 7b bd 67 d6 72 bc
       0.052846402 0.18617928 -0.061368324 -0.014821625
0001a0 49 d9 a8 bc c3 25 88 bd 26 1c a6 3d 19 6a a0 3d
       -0.020611422 -0.066478275 0.08110838 0.078327365
0001b0 8e a5 06 3f ea c8 b4 3e 5a b6 ca bb 9f a5 ea 3e
       0.52596366 0.35309535 -0.006186289 0.45829484
0001c0 81 d3 f3 3d 53 65 8f 3e 2d 79 cc 3d 00 8f 25 be
       0.119055755 0.28006992 0.0998405 -0.16167831
0001d0 bc 88 ec be f3 a6 58 be ab f3 af 3d 18 d3 31 bd
       -0.4619807 -0.21157436 0.08591398 -0.043414205
0001e0 76 d6 99 3d 61 b5 7a 3e af 5a 47 3d d5 e7 32 3d
       0.07511608 0.24483253 0.048670467 0.043678124
0001f0 75 26 70 3f 02 34 a7 3d ac f3 3e bc b5 d2 5f 3d
       0.9380868 0.081642166 -0.011654776 0.054644305
000200 ec 0d 7d 3e 81 3b 1e 3f 9e d7 5d 3b 8d da af 3d
       0.24712342 0.61809546 0.0033850442 0.08586607
000210 b6 38 67 3e 00 7c 59 bb 1c 40 38 3d d7 df 78 3e
       0.22580227 -0.0033185482 0.044983014 0.24304138
000220 d0 93 18 39 cd f5 ad bd 48 ad 2c 3d 29 67 01 3d
       0.00014550914 -0.084941484 0.04215744 0.03159252
000230 97 65 08 3e bf 6e 01 3e fc 9d d1 3e 1d 6f 7b bd
       0.13320003 0.12639903 0.40940845 -0.061385263
000240 01 2f ec bb dd e7 7c bc c8 f1 b1 3e cb d2 d9 3d
       -0.0072077517 -0.01543614 0.34754777 0.10635909
000250 ae 53 d9 bd 6c 43 06 be 80 31 2e 3f 37 7d 6a be
       -0.10611664 -0.13111657 0.6804428 -0.22899328
000260 4b 92 45 3c 1f 26 1a bd 2d cf ab bc ff a4 d8 bd
       0.012058805 -0.03763401 -0.020972813 -0.105783455
000270 04 7e 0d 3e 66 7b 46 3d 4a 16 b5 3e a7 15 cd 3d
       0.13817602 0.048457526 0.35368568 0.100138955
000280 11 43 59 3d b2 46 dd 3d 2f 71 ae 3d 8a 35 28 bb
       0.053042475 0.108045 0.08517682 -0.0025666677
000290 3f 67 bb 3d 5a 7c 6d 3e 07 a4 29 3f 62 59 31 3e
       0.09150552 0.23191968 0.6626591 0.17319253
0002a0 91 ea 90 bd 12 82 14 be 05 c2 9e 3e 30 c4 08 bd
       -0.0707599 -0.14502743 0.310074 -0.033390224
0002b0 95 f4 24 3e ca f0 37 3e f9 3c 7b 3d 39 36 e8 3d
       0.16108926 0.17962947 0.061337445 0.11338467
0002c0 bf 8f 6d bd fc da 47 3e f7 f1 bd 3d fc a4 4f 3d
       -0.057998415 0.1951713 0.09274667 0.05069445
0002d0 88 1f 84 bd 18 c3 78 3e 88 28 f9 bd 68 33 f0 bc
       -0.064513266 0.24293172 -0.12165934 -0.029321387
0002e0 c4 da 30 3d b3 7b 03 3f 4d 92 a6 3e 67 97 64 3e
       0.04317738 0.51360625 0.32533494 0.2232338
0002f0 ad 7e 0d be 91 23 b9 3d bf 35 72 3d 61 1d 4a 3f
       -0.13817854 0.09039987 0.059133288 0.7895108
000300 0e 32 61 be 2b 35 ee be f4 3c 96 3c fb 18 56 3e
       -0.2199175 -0.4652494 0.018339612 0.20907967
000310 5d 81 27 bd 86 d0 b3 3e c6 fa 61 3d 28 bf 14 3e
       -0.040894855 0.35120028 0.055170797 0.14526045
000320 88 11 e5 3c 9b 27 e7 3e 67 b1 83 be 7b dc c0 3d
       0.027962461 0.45147404 -0.25721285 0.09417053
000330 89 79 8f bd f8 f9 7e 3c eb e3 60 3e 5c 1a 17 3f
       -0.07005603 0.015562527 0.21961944 0.59024596
000340 97 68 69 be 3b ac 69 3f 16 45 c6 3f 28 ae cd 3d
       -0.22793804 0.9127843 1.5489833 0.10042983
000350 a3 70 d9 3d 5f ff 35 3e 77 7b 31 3e 3c 72 18 3e
       0.10617187 0.17773198 0.17332254 0.14887327
000360 b3 31 bb 3c f5 7a 31 bd 29 21 a7 3d c5 e6 bf 3d
       0.022850847 -0.04333015 0.08160622 0.09370188
000370 d9 8a a0 3d d6 6b eb 3d 31 12 13 bd 80 00 0e 3f
       0.07838983 0.114951774 -0.03590602 0.5546951
000380 bd bd 20 3e 3f 1d f8 bd ec 5c 8b 3e 93 96 cf bd
       0.1569738 -0.12114953 0.2721933 -0.10136142
000390 7f b9 0b 3d 97 9c 06 3f 64 ef 2c 3c ad 02 f5 3d
       0.03411245 0.5258269 0.010555122 0.11963401
0003a0 4c 93 95 3d a4 47 40 3d 61 49 ef 3d 55 8e bf 3f
       0.07303485 0.04694332 0.11683918 1.4965311
0003b0 70 ae ee 3d f9 f8 3e bb c7 95 18 3e e9 93 9f 3d
       0.11654365 -0.0029140098 0.14900886 0.077918835
0003c0 82 3f 83 3e 6b d9 bb 3c 97 64 91 3e c4 7b 12 bf
       0.2563439 0.022930821 0.28397056 -0.572201
0003d0 fb 11 22 bd b1 ff ef bd 60 29 66 3e 08 e5 11 3e
       -0.03956793 -0.11718691 0.22476721 0.14247525
0003e0 b2 af 29 3e 7f 62 cc 3d 05 5f 94 3e ce 52 0e 3c
       0.16570929 0.09979724 0.28978744 0.008686734
0003f0 36 c9 3c 3e 89 a1 76 3f 49 5b 21 3f d7 7e 39 3e
       0.18436131 0.96340233 0.63029915 0.18114792

bn1.running_mean f4 [256]
000000 8d cd f2 3f 9a 91 91 3f 07 0b e1 3f 56 42 6d 3f
       1.8968979 1.1372559 1.758149 0.92679346
000010 1e eb 00 3f 28 d9 6b 40 0b c7 40 40 c9 da 9b 3f
       0.5035876 3.6851292 3.0121486 1.2176143
000020 ee 5d 66 40 47 3f d6 40 86 80 02 40 2f 40 2e 40
       3.599483 6.6952243 2.0390944 2.7226675
000030 a2 a1 ff 3f e1 80 c8 3f 47 16 d8 3f 57 2a 21 40
       1.9971201 1.5664331 1.6881799 2.5182092
000040 0b 01 a2 3f 05 e1 a5 3f 6a cf 23 3f 90 39 10 40
       1.2656568 1.2959296 0.63988364 2.2535133
000050 c7 30 0b 40 49 a8 06 40 7d a7 15 40 27 90 12 3f
       2.1748521 2.1040213 2.3383477 0.5725121
000060 3e c0 05 3f cd 83 89 40 35 83 6f 40 65 fa 09 3f
       0.52246463 4.297339 3.7423832 0.53897697
000070 05 56 03 3f d5 a7 30 3f b2 4c 3d 3f 16 96 8c 40
       0.5130313 0.6900609 0.7394515 4.393321
000080 61 36 11 3f 5e 48 45 40 be 0d d0 3f ea 20 f2 3f
       0.567236 3.082542 1.6254194 1.8916295
000090 cd 49 07 3f 4f 41 46 40 4c dd 2d 40 35 9b 06 40
       0.52846986 3.0977361 2.716632 2.103223
0000a0 5b 16 94 3f eb 8b 40 3f 4a 3c cb 3f 86 7c ef 40
       1.1569322 0.752135 1.5877774 7.4839506
0000b0 41 0e c5 40 6c 4c 1c 40 11 fb 17 40 55 ed 09 3f
       6.15799 2.4421644 2.3746989 0.53877765
0000c0 2b 84 d1 3f 7b 48 d0 3f cd 97 17 40 0b 79 c2 3f
       1.636846 1.6272119 2.3686402 1.5193189
0000d0 0f 80 4b 40 ee 25 a8 3e ea c4 20 40 d1 97 f0 3e
       3.179691 0.32841438 2.5120187 0.46990827
0000e0 a6 43 d4 3f a8 09 98 3f 8b 9e 98 3f e5 51 60 40
       1.6583145 1.1877947 1.1923383 3.5049984
0000f0 e2 7f 61 3f a6 40 41 40 6c 60 fa 3f 60 7a a5 3f
       0.8808576 3.0195708 1.9560676 1.2927971
000100 fb dc 25 40 40 18 95 3f 28 85 4b 3f 3e d9 da 3f
       2.5916126 1.1648026 0.79500055 1.7097547
000110 77 54 04 40 39 1d f3 3f d6 00 e8 3f 0a 55 0a 40
       2.0676553 1.8993293 1.8125255 2.1614404
000120 13 8a f0 3f bd ed 46 3f c1 b8 d9 3f a8 cd 0d 40
       1.8792137 0.7770651 1.7009507 2.2156773
000130 ed ac 6c 3f 50 a5 03 3f e6 bf 0c 40 2c 24 2f 40
       0.92451364 0.5142412 2.1992126 2.7365828
000140 7c bf ab 40 28 b0 8e 3f 39 79 14 40 17 1d d1 3d
       5.3671246 1.1147509 2.3198988 0.102106266
000150 ee 92 86 3f a3 21 b7 3f 5b 69 10 40 fe 3f 18 40
       1.0513589 1.430714 2.2564304 2.3789058
000160 2b 22 c1 3e 7d 02 dd 3f 0b 8f 9b 3f f2 e9 a4 3f
       0.3772138 1.7266384 1.2153028 1.2883894
000170 7f 29 21 3f 25 ee 53 40 0c d9 52 40 7b c3 4f 40
       0.62953943 3.3114102 3.2944975 3.2463062
000180 6b 93 d2 3f 59 75 0b 40 a3 1f d6 3f 7b 55 fe 3f
       1.6451238 2.1790373 1.6728405 1.9869837
000190 3d e1 24 3f 88 c0 1b 40 ad 9b d0 3e 2c 6f 87 3f
       0.64406186 2.4336262 0.4074377 1.0580802
0001a0 49 fa 1c 40 cf eb 62 40 45 bb 92 3f aa b9 33 3f
       2.4527762 3.5456426 1.14634 0.70205176
0001b0 1c e1 93 3f af d0 42 40 cf e0 43 40 82 43 9a 3f
       1.1553073 3.043987 3.0605962 1.2051852
0001c0 0b a3 30 40 1f 6a 35 3f 38 f7 d7 3f af 3c 80 3e
       2.7599514 0.7086505 1.687232 0.25046298
0001d0 40 cf 56 3f d0 85 6a 3f c6 86 9a 3f 02 3b 37 3f
       0.8390999 0.9161043 1.207238 0.71574414
0001e0 be f2 70 40 79 b7 a1 3f 96 dd f9 3f 0a c6 7a 40
       3.7648158 1.2634116 1.9520748 3.9183373
0001f0 66 57 11 40 cc 8e 9f 3f 17 48 0e 3f 56 7f ef 3f
       2.2709594 1.2465453 0.5557875 1.8710735
000200 c1 16 ab 3f 3b 7d eb 3f 87 0f 09 40 d5 8c 81 40
       1.3366319 1.8397592 2.1415727 4.0484414
000210 fc d5 91 40 b1 5b e1 3e 05 f8 7b 40 23 26 01 40
       4.557371 0.44015267 3.937013 2.0179527
000220 06 c3 e5 3f d3 b4 4d 40 00 a7 a5 40 4d d2 15 3f
       1.7950141 3.2141616 5.1766357 0.5852402
000230 f3 1c db 3f 7a 2f b4 3f b9 54 98 40 97 01 4b 3f
       1.711821 1.4076989 4.760342 0.792993
000240 97 d3 4c 40 28 55 28 3f 19 84 f6 3e e1 3b f2 3e
       3.2004144 0.6575494 0.48147658 0.4731131
000250 ff 4a 47 40 b2 01 64 40 33 9f bd 3f 6a b7 1e 3f
       3.1139524 3.5626035 1.4814209 0.6199862
000260 50 8c 08 3f 12 17 89 3f b5 9d 91 3e 3d 12 63 3f
       0.533391 1.0710166 0.28440633 0.88699704
000270 05 d8 fc 3e fe a4 f3 3e 9b 40 ff 3f 44 c6 07 40
       0.4938356 0.47586817 1.9941591 2.1214762
000280 82 ea 2a 40 de 73 03 40 35 2f 4b 3f 8e d4 18 40
       2.6705632 2.053947 0.7936891 2.3879733
000290 7e a4 58 3f 8a c0 3d 40 0e 87 11 40 57 4d d5 3f
       0.84625995 2.9648767 2.273868 1.6664227
0002a0 f2 0b 5c 3f a6 50 3f 3f 0b 35 2f 40 67 97 e4 3f
       0.8595573 0.74732435 2.7376125 1.7858704
0002b0 4c db 07 40 d2 39 54 40 43 c3 88 40 f7 a7 39 40
       2.1227598 3.316029 4.2738357 2.9008768
0002c0 16 ac ca 40 f4 84 04 40 39 30 04 40 67 36 5c 40
       6.3335066 2.0706148 2.0654433 3.4408205
0002d0 01 e3 c2 3e f1 86 5d 3f 7f b5 e5 3f 50 e5 8a 3f
       0.38063815 0.8653403 1.7946013 1.0851231
0002e0 eb 2e aa 3f 01 b5 b0 3f d2 c5 f4 3f 7e 93 b3 3f
       1.3295568 1.3805238 1.912287 1.4029386
0002f0 03 7d d2 3f 94 93 0b 40 fb 2d 8b 3f b6 d3 82 40
       1.64444 2.1808825 1.0873407 4.0883436
000300 40 c6 3b 40 53 87 cd 3f 80 cb 09 40 98 f9 62 3f
       2.9339752 1.6056923 2.1530457 0.886621
000310 5f 2a f7 3f 2d 9e b7 3f d9 9e 7c 3f 41 59 28 3f
       1.9309806 1.4345146 0.9867988 0.6576119
000320 87 0b f8 3e 56 8d 11 40 82 d9 5e 3f 79 7d f1 3f
       0.48446295 2.2742515 0.8705064 1.8866416
000330 63 14 33 3f a5 e2 de 3f 0d de 95 3f 64 1d 19 40
       0.6995298 1.7412916 1.170839 2.3924189
000340 37 09 fb 3e cd 10 06 40 d3 19 d5 40 b2 79 8a 3f
       0.49030468 2.0947754 6.6594024 1.0818388
000350 cc 1b fa 3f fe fd f8 3f 68 ba 1b 40 39 a3 36 3f
       1.9539733 1.9452512 2.4332523 0.7134281
000360 3a 69 1a 40 11 3b ef 3f 78 7a d8 3f 35 88 22 40
       2.4126725 1.8689901 1.6912374 2.5395634
000370 cb 37 c2 3f 35 36 05 40 0b 12 4b 3f aa ff 17 40
       1.5173277 2.0814335 0.79324406 2.3749795
000380 58 f4 32 40 86 7a 45 3f 67 bc bd 3e eb 65 0e 3f
       2.7961636 0.7714008 0.37057802 0.55624264
000390 54 ed 61 3f d8 1a 67 40 2c 5e bd 40 37 05 d1 3f
       0.8825276 3.6110134 5.9177456 1.6329716
0003a0 f4 e7 50 41 92 90 05 40 d0 af 0d 40 09 3a 6b 40
       13.056629 2.0869489 2.2138557 3.6754172
0003b0 42 22 27 3f bf 2f 8b 3f a8 c8 b4 3f 05 0a d0 3f
       0.6528665 1.0873946 1.4123735 1.6253058
0003c0 5f d5 13 40 bd 82 eb 3e 0c c4 6b 3f 01 c4 f2 3f
       2.3098981 0.45998183 0.9209602 1.8966066
0003d0 fe 94 80 3f bb 32 c4 3f dc 03 cd 3f ac 2d fa 3f
       1.0045469 1.5327982 1.6016803 1.9545188
0003e0 dc 0c 11 40 4c 60 28 40 47 3c 99 3f e7 03 7f 3f
       2.2664099 2.6308775 1.197152 0.9961533
0003f0 ae 3a 10 40 21 be 67 3f c5 e1 b9 3f 1b 64 f4 3f
       2.2535815 0.9052449 1.4522024 1.909305

bn1.running_var f4 [256]
000000 50 35 4d 41 c8 ed 15 41 c8 d2 03 41 41 cc b3 40
       12.825516 9.370552 8.23896 5.6186833
000010 64 ee 13 40 4f 16 7f 41 45 a0 5b 41 98 0d 12 41
       2.3114252 15.942946 13.726628 9.128319
000020 69 27 e1 41 aa 0b 70 42 7d e3 1f 41 db fe a2 41
       28.144243 60.01139 9.993039 20.374441
000030 c3 ed 00 41 a0 22 0e 41 f4 32 41 41 b1 61 97 41
       8.058047 8.883453 12.07494 18.9227
000040 6e 10 1f 41 70 65 3a 41 50 1f 13 40 8d ce 58 41
       9.941511 11.649765 2.2987862 13.550427
000050 29 e1 59 41 a1 5f 18 41 06 34 80 41 48 fe 6b 40
       13.617471 9.523347 16.025402 3.687395
000060 07 31 28 40 88 80 26 42 e3 0a 77 41 e6 a1 88 40
       2.6279924 41.62552 15.440158 4.269763
000070 c8 e2 48 40 36 a5 ad 40 75 96 1d 40 d6 bd 96 41
       3.1388416 5.4264174 2.4623082 18.842693
000080 60 c4 4f 40 b1 43 8b 41 8a e4 f0 40 57 9a 30 41
       3.2463608 17.408052 7.527898 11.037681
000090 93 d2 42 40 5a 9c cf 41 41 1e 96 41 ff da 4a 41
       3.0441024 25.951344 18.764772 12.678466
0000a0 5c d3 04 41 26 67 ba 40 b7 bb 36 41 2f c1 5e 42
       8.301601 5.8250914 11.420829 55.688656
0000b0 87 06 42 42 20 b5 06 41 fb ec d4 41 4c 9f d5 3f
       48.506374 8.41922 26.615713 1.6689239
0000c0 82 6d 3c 41 78 73 21 41 be 8c 5d 41 c3 cc cb 40
       11.776735 10.090691 13.846861 6.3687453
0000d0 2f e4 8a 41 91 c7 0c 40 d9 5e 9d 41 d0 5c 41 40
       17.361418 2.1996806 19.671312 3.0212898
0000e0 fb ee 5f 41 fd 5d 8e 40 2a 49 0a 41 21 f8 b1 41
       13.995845 4.448973 8.642862 22.246157
0000f0 ad f0 72 40 a2 60 95 41 9a 98 46 41 ed cf 15 41
       3.7959397 18.672184 12.412256 9.363263
000100 09 5c 9e 41 77 08 32 41 cc 4f 69 40 d5 70 01 41
       19.794939 11.127067 3.6454954 8.090047
000110 16 6e 82 41 1a 96 44 41 6c 8d b9 40 ee 1a 85 41
       16.303753 12.286646 5.7985134 16.63815
000120 ca 67 21 41 eb 03 80 40 17 59 0f 41 ab 25 2a 41
       10.087839 4.0004783 8.95925 10.634196
000130 55 c8 bf 40 07 f9 7c 40 10 9c 28 41 35 78 cc 41
       5.9932046 3.9526994 10.538101 25.558695
000140 ea c9 30 42 90 ac a1 40 fe 1c 9f 41 ca aa fc 3e
       44.19718 5.0523148 19.889156 0.49349052
000150 34 9a 0b 41 49 8f 03 41 f8 1c 7f 41 e8 97 96 41
       8.725147 8.222482 15.944572 18.824173
000160 c8 1b 31 40 ad 86 57 41 39 33 c6 40 f1 75 f6 40
       2.7673206 13.47038 6.193753 7.701897
000170 c2 89 79 40 b3 32 6a 41 87 fe 8f 41 dd 08 d4 41
       3.899033 14.637378 17.99928 26.504328
000180 69 22 0b 41 86 d8 7a 41 e1 ce 68 41 9d f3 1f 41
       8.695901 15.677862 14.550508 9.996976
000190 a0 a1 a1 40 6f d5 8c 41 5d ca 49 40 82 25 cd 40
       5.0509796 17.604216 3.1529763 6.4108286
0001a0 52 27 7e 41 15 25 b0 41 81 90 1e 41 32 8b 3e 40
       15.8846 22.018106 9.910279 2.9772458
0001b0 c2 b8 c5 40 6e 19 f0 41 63 bd b1 41 7c 4f e0 40
       6.1788034 30.012417 22.217474 7.0097027
0001c0 55 db 2b 41 16 ee 13 40 c7 0f 26 41 c7 9f 90 3f
       10.741048 2.3114066 10.378852 1.129876
0001d0 71 7b 8f 40 f7 64 eb 40 80 24 dd 40 a3 9e 87 40
       4.4838185 7.356075 6.9107056 4.238115
0001e0 7c 3e cc 41 01 71 37 41 3b 06 7b 41 7f 7b b7 41
       25.53051 11.465089 15.689021 22.9353
0001f0 cd 62 47 41 38 19 0e 41 40 a1 86 40 25 be 2d 41
       12.461621 8.881157 4.207184 10.858922
000200 3e 0b a8 40 0d d8 00 41 42 f8 15 41 f9 be 1f 42
       5.2513723 8.052747 9.37311 39.936497
000210 59 7d 29 42 56 2d 34 40 6e 63 04 42 79 89 47 41
       42.37241 2.815267 33.0971 12.471063
000220 8f c2 3d 41 75 79 a3 41 69 15 b6 41 cb 24 42 40
       11.86 20.434305 22.760454 3.0334957
000230 4f 67 03 41 e5 91 e1 40 1e b9 09 42 26 11 34 40
       8.212722 7.0490594 34.43078 2.8135467
000240 06 3e c6 41 f0 7c 84 40 e0 d6 d8 3f a8 8b 26 40
       24.780285 4.140251 1.6940575 2.602274
000250 a4 d4 cc 41 52 71 82 41 2c 23 de 40 0d 25 6e 40
       25.603828 16.305332 6.9417934 3.7210114
000260 49 9f 81 40 d7 a6 bd 40 e5 2a 0b 40 4b ff 96 40
       4.050694 5.926616 2.174493 4.7186637
000270 67 58 ca 3f 7b b7 3b 40 2d e8 11 41 03 73 a8 41
       1.5808228 2.9330738 9.119184 21.056158
000280 ac f0 a2 41 a2 15 4c 41 4a 00 b4 40 92 53 4e 41
       20.367516 12.755281 5.6250353 12.895403
000290 27 1c ab 40 ac 84 17 41 8f 67 fe 40 62 54 6b 41
       5.3471866 9.469891 7.9501414 14.708101
0002a0 54 16 ec 40 ab 90 cd 40 f5 ca bc 41 e2 40 1d 41
       7.3777256 6.4239097 23.5991 9.828341
0002b0 c7 ec 4d 41 49 c4 05 42 1e 66 22 42 0f 50 c8 41
       12.870307 33.441685 40.599724 25.039091
0002c0 37 3b 1b 42 90 16 89 41 61 60 63 41 af b4 a5 41
       38.807827 17.136017 14.21103 20.713224
0002d0 8d 0f fb 3f a6 99 72 40 f8 63 08 41 12 30 02 41
       1.9614121 3.790628 8.524406 8.136736
0002e0 ea 47 0a 41 ea ad 12 41 cd d0 06 41 63 22 0b 41
       8.642557 9.1674595 8.425977 8.695895
0002f0 02 63 5a 41 db 7e 87 41 5c 02 f9 40 2e 02 d1 41
       13.649172 16.936941 7.781538 26.126064
000300 82 0f b3 41 55 c7 10 41 cc 4b 87 41 d8 42 b4 40
       22.382572 9.048665 16.91201 5.6331596
000310 2c e0 ee 40 ac 33 2c 41 3e de d7 40 b1 43 64 40
       7.4648647 10.762615 6.745879 3.5666316
000320 11 f4 15 40 62 9b 59 41 9f 07 8c 40 06 e2 91 41
       2.3430216 13.600435 4.3759303 18.235363
000330 72 3e 48 40 c0 13 07 41 14 09 97 40 89 12 a2 41
       3.1288114 8.442322 4.719858 20.25905
000340 10 78 12 40 79 95 70 41 a0 e2 08 42 04 7e e7 40
       2.288578 15.036492 34.221313 7.234133
000350 83 b9 25 41 39 a5 38 41 dd 09 89 41 9c 96 83 40
       10.357791 11.540338 17.129816 4.112135
000360 45 d2 aa 41 0d 01 75 41 62 b3 31 41 15 0a b1 41
       21.35267 15.312757 11.106295 22.129923
000370 10 7a 4a 41 9b 17 84 41 00 1e 3d 40 a2 3b 3a 41
       12.6548 16.511526 2.954956 11.639559
000380 49 c1 b5 41 45 5e 8d 40 84 c7 ef 3f d1 9f 27 40
       22.719378 4.4177575 1.8732762 2.6191294
000390 9f 17 e1 40 2e 69 fc 41 d2 26 0b 42 8a 90 0e 41
       7.0341334 31.551357 34.78791 8.910288
0003a0 52 7d 34 42 ec 1e 53 41 5f 3b 75 41 a9 da ef 41
       45.122383 13.195049 15.326995 29.981768
0003b0 9d be 55 40 79 fc 9e 40 a2 29 d5 40 72 2e 0d 41
       3.339759 4.9683194 6.661332 8.823839
0003c0 ad 09 78 41 6a 45 07 40 8d cb 83 40 4d 3f 3f 41
       15.502362 2.1136117 4.1185975 11.952954
0003d0 61 de f0 40 46 26 f4 40 37 66 e9 40 d0 8b 2d 41
       7.527146 7.629672 7.2937274 10.846634
0003e0 bd fd 28 41 a0 2d 81 41 37 74 ac 40 47 61 35 41
       10.561948 16.147278 5.3891864 11.336249
0003f0 e0 11 88 41 1c b8 88 40 27 07 da 40 66 cc 3f 41
       17.008728 4.2724743 6.813373 11.987402

fc2.weight f4 [256, 256]
000000 20 7a 99 3e 6c c8 b4 3e 2e 8a e0 3e 93 76 4c 3f
       0.29975986 0.3530916 0.43855423 0.7986843
000010 41 6f df be 54 ab 07 bf 4f 87 16 3f d4 9d 32 3e
       -0.43639567 -0.529958 0.58800215 0.17443019
000020 ed e4 06 bf b0 82 5d bf 90 a6 0f c0 72 d6 b6 3f
       -0.52693063 -0.8652754 -2.2445412 1.4284194
000030 08 79 08 3f 7a dd 19 be 6c bf 65 be 5c 9c cd 3f
       0.5330968 -0.15025893 -0.22436303 1.6063342
000040 98 f0 0f 3e 56 61 fa be f8 13 94 3f 41 cc d0 3e
       0.14056623 -0.48902386 1.1568594 0.40780833
000050 01 e1 43 be b6 de 06 3f 22 08 52 be 10 e3 51 3f
       -0.19128801 0.5268358 -0.20510915 0.81987095
000060 34 27 b2 bf e3 39 0a be 7f b6 75 3f 50 d9 c8 3e
       -1.3918214 -0.13498645 0.9598159 0.39228296
000070 8f 25 91 3f ad 7d db bd 08 68 6f 3f 7e 54 c5 3d
       1.1339587 -0.1071733 0.93518114 0.09635256
000080 56 01 83 3f 2a a8 d6 be 5b dc 82 3f f4 c0 2c bf
       1.0234783 -0.41925174 1.0223497 -0.67481923
000090 8f 77 40 3e 08 07 a1 3e d1 0e ee bd 4e 72 2b be
       0.18795608 0.31450677 -0.1162392 -0.16742823
0000a0 00 99 03 3f bb a3 aa bf c7 67 5f 3f 8a 43 c3 be
       0.51405334 -1.3331217 0.87267727 -0.38137466
0000b0 68 83 11 be a7 5a 33 3e b4 24 b1 3e 34 42 e5 3f
       -0.14210284 0.1751505 0.34598315 1.7910829
0000c0 8c e1 e8 3e 2e 5b 9f 3f d9 5d 26 3f e9 19 6b 3e
       0.4548458 1.2449701 0.6498695 0.22959103
0000d0 71 a5 50 bf fe d7 79 bf f1 eb 13 3e ad d7 cb be
       -0.81502444 -0.975952 0.14445473 -0.39812985
0000e0 fb 78 71 bd 9b bf 81 3f 7a 79 55 be 82 2a 64 3f
       -0.058953267 1.0136598 -0.20847121 0.8912736
0000f0 8c 1d 17 bf 14 a0 d8 3c 42 3d 54 bf 48 2d 97 3f
       -0.5902946 0.026443519 -0.8290597 1.1810694
000100 44 bd 15 3f 08 66 d5 3e 84 fe 10 bf d7 36 9f bf
       0.5849192 0.41679406 -0.5663836 -1.2438611
000110 d1 ef 47 3f 5c 92 66 bd fa d5 f0 be ad 13 7a 3d
       0.78100306 -0.056291923 -0.4703825 0.06105392
000120 37 6c bb be 91 56 10 bf 3e 13 f5 be 47 6f 98 3f
       -0.36606 -0.5638209 -0.47866243 1.1908959
000130 1f 38 18 3d 8b 7b e4 3f 00 48 f9 3d 35 5a 6e 3f
       0.037162896 1.7850202 0.12171936 0.93106395
000140 8c 27 20 3f 6a 32 3a 3f c4 e0 fd 3d 74 8b 17 3d
       0.62560344 0.72733176 0.12396386 0.036998227
000150 81 ce 4a be 8d f9 14 3e 81 0a 6d bf 3e bc 5c 3f
       -0.19805337 0.14548321 -0.9259415 0.86224735
000160 db b1 7b 3f a1 41 86 be 52 a1 09 3f 4a 40 cb bd
       0.9831826 -0.26221946 0.5376178 -0.099243715
000170 67 8c 73 3f 5f e7 44 bf c7 16 63 3e af 1c fe bd
       0.9513611 -0.76915544 0.22176658 -0.12407815
000180 be ba 06 3f 35 d5 29 be 0a c4 6c bf a1 ac 65 bf
       0.52628696 -0.16585238 -0.9248663 -0.89716536
000190 ed 30 55 bf c4 c5 ca 3f 34 30 41 bf 1e 21 f0 3f
       -0.8327778 1.5841603 -0.7546418 1.8760107
0001a0 11 55 3e 3e 73 02 84 bf 1c 7b 86 3e 87 ab 9e 3f
       0.18587138 -1.0313247 0.262658 1.2396096
0001b0 04 36 89 bf 3c d2 0c bf f3 30 e5 be 51 46 d0 bf
       -1.0719609 -0.5500829 -0.44763908 -1.6271459
0001c0 02 f6 02 bf e0 92 c0 be 86 77 75 3f 76 99 5d 3d
       -0.5115663 -0.37612057 0.95885503 0.05410143
0001d0 14 93 0a be f9 ef 5b 3f 96 38 5e 3f 15 87 5c bf
       -0.13532668 0.85913044 0.86805093 -0.8614362
0001e0 fa 04 48 3f d3 4b 46 be 0c dd 16 3e c4 8f 4f 3f
       0.78132594 -0.19364862 0.1473276 0.81078744
0001f0 97 6d 0c bf 78 7d 97 be 5e d0 43 be 7b c3 8c 3f
       -0.5485472 -0.29587913 -0.19122455 1.0997156
000200 53 37 ef bd ee 90 3f be 01 06 74 3f 16 23 83 3e
       -0.11680474 -0.1870763 0.9532166 0.25612706
000210 fc d0 c8 3e a4 f5 bb be e2 e1 47 3f bb e9 1c be
       0.39221942 -0.36710846 0.78079045 -0.15323536
000220 97 b4 28 bf 12 61 9d be 99 7d a5 be 5a 2a 6f 3f
       -0.6590056 -0.3073812 -0.32322386 0.93424
000230 92 d7 4d be 38 3b 2c 3e 2f c5 bb bf dd ce 97 3e
       -0.20101765 0.16819465 -1.4669551 0.29650012
000240 fa 3e 2e be 65 c6 ca 3d 76 93 74 be dc 75 8c 3f
       -0.17016211 0.09901122 -0.23884377 1.0973468
000250 c2 f1 5f 3f f9 26 e7 3c cc 75 a2 be d9 21 df 3e
       0.8747827 0.028216826 -0.31730497 0.4358051
000260 5a f6 4f bf 12 cb 08 40 79 01 65 3e 24 34 46 3f
       -0.8123528 2.1373944 0.22363843 0.7742331
000270 66 21 00 40 48 2e 82 3f 2f 2d 80 bf 84 61 b8 bd
       2.0020385 1.0170374 -1.0013789 -0.09002975
000280 ad dd bf be ad 0a 8a bf 5b 6f 78 3d 4e 4d b9 3c
       -0.37473813 -1.0784508 0.06065307 0.02261987
000290 18 c4 16 3f d7 b6 66 bd 56 21 61 bf 7e da a3 3e
       0.58892965 -0.056326713 -0.8794149 0.32002634
0002a0 ed 0c 97 3f 1c 5b c4 3f 59 9e 2c 3e 11 ca 92 be
       1.180082 1.5340304 0.1685728 -0.2866979
0002b0 a1 25 cc 3e 65 01 0e 3f 16 6f 64 3f 28 2f 79 3f
       0.3987246 0.5547088 0.89232004 0.9733758
0002c0 a1 18 b0 bd bf 33 0a be ce bb bc bf 59 e8 c0 3f
       -0.085984476 -0.13496302 -1.4744813 1.5070907
0002d0 8c 32 d9 3e 31 62 05 bf 95 1b a0 bd e0 f6 8d bf
       0.42421377 -0.52102953 -0.07817761 -1.1090965
0002e0 64 f0 73 3f e7 7a 74 bf 28 4a 56 be fc 81 09 3e
       0.9528868 -0.95500034 -0.20926726 0.13428491
0002f0 bd c6 5f bf fd 50 16 3d ad 87 89 3f 8f e1 20 bf
       -0.87412626 0.03669833 1.074453 -0.62844175
000300 63 14 f3 3f 69 32 f5 3e 2d 56 90 3f 6b 37 f1 be
       1.8990597 0.47890022 1.1276299 -0.47112593
000310 9d a7 49 3f 0e 94 1f 3e 89 28 5a 3f bf 7c ee be
       0.7877138 0.15583822 0.852181 -0.4657955
000320 06 dd be 3c 00 94 a8 bd 35 c1 9b bf d2 0e de be
       0.023298752 -0.08231354 -1.2168337 -0.43370682
000330 ad f8 02 3f 4c 9a 63 be ca 4e fc bd d0 b5 e2 bf
       0.511607 -0.22226828 -0.12319715 -1.7711735
000340 8c bd e9 3e 3e 28 5d bd 26 6d 9f bf 9e 41 80 be
       0.45652425 -0.053993456 -1.2455184 -0.25050062
000350 31 1f 44 3e 3c 9a 09 3f 1a 61 87 3f 7f fd 4a bf
       0.19152524 0.5375097 1.0576508 -0.79293054
000360 72 5e bb be a8 93 74 be c0 cb a6 be e4 34 0c 3f
       -0.36595494 -0.23884451 -0.32577324 0.54768205
000370 58 d8 d9 be 69 9f 83 3f e4 a0 9f 3f 11 cd 89 bf
       -0.4254787 1.0283023 1.2470975 -1.0765706
000380 fe 69 12 3f 2a 37 4e 3f 8d 49 44 be ac b4 5c 3f
       0.5719298 0.80552924 -0.19168682 0.86213183
000390 fe 95 a4 3e 1d fb d6 3e 3f c5 24 3f 7c bc e0 be
       0.32145685 0.4198846 0.64363474 -0.43893802
0003a0 70 b1 f1 bd 0c f9 c5 3e e2 2a 50 3f 54 f7 9a bf
       -0.11801422 0.3866657 0.81315434 -1.2106729
0003b0 a6 e6 98 be 30 6c d4 3f 72 2e a2 be 74 3c 5e 3f
       -0.2986347 1.6595516 -0.3167606 0.86810994
0003c0 af 4e 10 bf 5b f9 83 be 50 5d 6e bf 81 4b 8f 3e
       -0.5637006 -0.2577618 -0.93111134 0.27987292
0003d0 ad 11 b2 3f 04 db 28 bc 27 c5 1f 3f 38 45 21 3d
       1.3911644 -0.010306124 0.62410206 0.039372653
0003e0 75 f8 49 3f c6 7e 43 3f 97 2c f6 3d cd 15 7f bd
       0.7889474 0.76365316 0.120202236 -0.06227665
0003f0 15 28 a4 be 66 e2 aa be 9f ea c8 bf 48 e2 86 bf
       -0.3206183 -0.33375853 -1.5696601 -1.0537806
