checkpoint_critic.pth (torch_old, 308880 bytes, 9 tensors)

fcs1.weight f4 [256, 33]
-0.23555481 0.08545269 -0.052867334 -0.28267303 0.47709423 0.029150639 -0.36536345 -0.02189217
-0.43018204 0.32059738 -0.17388327 -0.0063862135 -0.09746799 0.111178614 -0.1172983 -0.04526531
-0.09019715 0.07714441 0.34089652 -0.22651255 0.0058460864 0.04699673 -0.043412827 0.042708144
-0.0015970772 0.037639737 -0.31670853 0.557891 -0.3956339 -0.00435739 -0.49696177 -0.03614363
9.699471 -0.16275263 0.5306668 -0.06867909 -0.34171948 0.5017871 -1.3088452 1.6868479
-0.04300124 0.043634888 -1.1674789 -0.13969833 0.35763398 0.42955592 -1.2607143 -0.9491275
1.2832673 -0.3169271 -1.7323831 -0.3389254 -0.15270334 -0.026682036 0.088736884 0.074728735
-0.32633507 -0.5905715 0.52353483 0.88472986 0.2126709 -1.212004 -0.04656679 -0.2384465
0.028826356 -2.2050183 0.43075156 -1.3674523 2.0105023 -0.83537847 0.783476 -0.8255625
-0.46820855 0.12934943 -2.1399665 -2.9561021 -0.17923419 -0.25210607 0.29706386 -0.16417183
-0.8447255 -0.79009104 -1.0453053 1.6347052 0.9385489 -0.4571788 0.06323786 -0.030544052
-0.24500486 -0.9844546 -0.31366885 -0.06967072 0.20149307 1.774904 -0.6138835 0.061305337
-1.7393177 -0.044020697 -2.2802234 -0.17710346 -0.49643132 -0.31466183 0.16665867 0.12688221
-0.3485833 0.06451717 -0.14725515 -0.42795676 -0.43099886 -0.40059757 0.30062753 0.10619526
-0.12423187 0.06135958 0.56604475 0.24482247 -0.21990268 0.24384059 0.10852515 0.23194847
0.13391325 -0.27001593 0.13012624 -0.06408072 -0.46238092 0.86779815 2.1429808 -1.2569338
-0.062262975 -2.0691645 -0.029557124 -5.806917 -2.4084249 2.047542 0.29752767 0.27309
-0.09314423 -1.327282 -1.9959308 -0.055336826 -0.6062199 -0.43312526 0.21006691 0.91308886
-0.5712557 0.84220135 -0.5612827 0.56595665 0.1251888 -0.3797678 0.0066286437 0.28761163
0.36794424 0.033756454 0.5220484 -0.5660853 -0.43372875 -0.020549975 0.5913819 -0.31364313
-0.39098868 -0.03839206 0.2719454 -0.049551234 -1.4754375 -0.11110215 -0.67391676 -2.1368794
0.108267054 -0.042129897 0.025969459 0.3063619 0.050037466 -0.37216344 0.1617768 -0.29624242
-0.32393318 -0.23874004 -0.626807 0.1321163 1.795573 0.30628487 -0.1311176 -0.114465445
0.11428576 0.060489964 0.22865993 0.004623353 -0.13999858 0.0559634 0.3152721 0.68048704
0.6053795 -1.1253614 -0.061148524 -0.7092474 0.020105705 -3.1800373 -0.8275556 -0.37794358
-1.0747879 -0.4590753 1.1809344 -0.3096421 -1.5260684 0.19566526 0.28800064 0.08180099
0.3098018 -0.81414497 -0.6438887 -0.6538966 -0.21582985 -0.2124981 -0.14631343 -0.751572
2.2582855 2.2978756 -0.21631637 0.21400961 -0.12694474 -0.16267054 -0.038721748 0.48476574
0.013370128 1.5979553 1.6961621 -0.035435215 -1.5080365 0.012378052 -3.4731436 -0.70945615
0.87418985 1.0324906 -0.71894807 -0.07589679 0.16758113 -0.5650349 0.27496308 -0.5340521
0.6761072 0.13574687 0.41650513 0.2243106 0.011777766 -0.73055977 -0.6752294 -0.06905419
-0.26396933 0.4790405 -0.035498668 -0.058396187 -0.35204813 -0.10567886 0.6512669 -0.28797027
00000000: 4835 71be d201 af3d 6b8b 58bd 85ba 90be
00000010: b245 f43e 52cd ee3c eb10 bbbe 3557 b3bc
00000020: d240 dcbe 5725 a43e 750e 32be 7143 d1bb
00000030: 4c9d c7bd 9db1 e33d 173a f0bd 1e68 39bd
00000040: 49b9 b8bd e3fd 9d3d fd89 ae3e e8f2 67be
00000050: 8790 bf3b a57f 403d a6d1 31bd bcee 2e3d
00000060: 0555 d1ba 202c 1a3d 9f27 a2be f2d1 0e3f
00000070: 8790 cabe 70c8 8ebb c671 febe 580b 14bd
00000080: 0931 1b41 a0a8 26be c8d9 073f 9fa7 8cbd
00000090: dbf5 aebe 1f75 003f 3d88 a7bf a2ea d73f
000000a0: 1122 30bd 7fba 323d f36f 95bf 140d 0fbe
000000b0: cd1b b73e c1ee db3e 165f a1bf 05fa 72bf
000000c0: 1a42 a43f 4544 a2be bbbe ddbf a187 adbe
000000d0: 445e 1cbe 4994 dabc afbb b53d 610b 993d
000000e0: 6415 a7be b22f 17bf 6106 063f a87d 623f
000000f0: 67c6 593e f222 9bbf d2bc 3ebd 522b 74be
00000100: 4025 ec3c 051f 0dc0 788b dc3e ad08 afbf
00000110: 12ac 0040 5ddb 55bf e291 483f 1058 53bf
00000120: 08b9 efbe 2d74 043e 36f5 08c0 c730 3dc0
00000130: 2b89 37be 0c14 81be c118 983e a91c 28be
00000140: ee3f 58bf 6843 4abf 90cc 85bf 053e d13f
00000150: be44 703f 5713 eabe da82 813d 8537 fabc
00000160: 8ee2 7abe 3705 7cbf 3499 a0be 86af 8ebd
00000170: 3354 4e3e 0e30 e33f 7827 1dbf 4e1b 7b3d
00000180: f6a1 debf 0c4f 34bd 2eef 11c0 9c5a 35be
00000190: 3f2c febe 5b1b a1be 92a8 2a3e 69ed 013e
000001a0: 8379 b2be 9421 843d 0eca 16be 261d dbbe
000001b0: e2ab dcbe 201b cdbe daeb 993e e77c d93d
000001c0: 476d febd 2f54 7b3d 4fe8 103f beb2 7a3e
000001d0: 2b2e 61be 59b1 793e 6f42 de3d e683 6d3e
000001e0: 8e20 093e 873f 8abe d03f 053e c13c 83bd
000001f0: 31bd ecbe 0528 5e3f 9926 0940 35e3 a0bf
00000200: 7607 7fbd 316d 04c0 c821 f2bc 44d2 b9c0
00000210: a223 1ac0 ee0a 0340 8c55 983e 74d2 8b3e
00000220: 67c2 bebd 60e4 a9bf a97a ffbf dea8 62bd
00000230: 3a31 1bbf 98c2 ddbe c81b 573e 31c0 693f
00000240: d03d 12bf 829a 573f 39b0 0fbf 89e2 103f
00000250: 7e31 003e ed70 c2be 1835 d93b d541 933e
00000260: 3063 bc3e 3544 0a3d f7a4 053f f7ea 10bf
00000270: b211 debe 6c58 a8bc ce64 173f d595 a0be
00000280: ab2f c8be fe40 1dbd 6d3c 8b3e 3cf6 4abd
00000290: 23db bcbf 8689 e3bd cf85 2cbf a2c2 08c0
000002a0: 1ebb dd3d 6690 2cbd e7bd d43c 78db 9c3e
000002b0: 16f4 4c3d 358c bebe d1a8 253e 16ad 97be
000002c0: 92da a5be 4578 74be 6c76 20bf 7f49 073e
000002d0: 56d5 e53f 5fd1 9c3e b143 06be dc6c eabd
000002e0: a70e ea3d 53c4 773d d425 6a3e 7f7f 973b
000002f0: ca5b 0fbe e139 653d 586b a13e 6634 2e3f
00000300: 27fa 1a3f d80b 90bf e076 7abd 3d91 35bf
00000310: b8b4 a43c bb85 4bc0 afda 53bf d281 c1be
00000320: a692 89bf eb0b ebbe dc28 973f 6989 9ebe
00000330: 3656 c3bf 795c 483e d274 933e 4787 a73d
00000340: 579e 9e3e ce6b 50bf e4d5 24bf c465 27bf
00000350: 8002 5dbe 1a99 59be 30d3 15be 0667 40bf
00000360: c087 1040 6510 1340 0a82 5dbe 5625 5b3e
00000370: cdfd 01be 1b93 26be b29a 1ebd 3733 f83e
00000380: 620e 5b3c cd89 cc3f d71b d93f 8424 11bd
00000390: 5707 c1bf 50cd 4a3c fc47 5ec0 eb9e 35bf
000003a0: e8ca 5f3f a728 843f fb0c 38bf c76f 9bbd
000003b0: 639a 2b3e 21a6 10bf f6c7 8c3e a3b7 08bf
000003c0: 5d15 2d3f 3a01 0b3e 2940 d53e aeb1 653e
000003d0: 88f7 403c f705 3bbf d5db 2cbf 486c 8dbd
000003e0: fd26 87be cc44 f53e 0d67 11bd d730 6fbd
000003f0: a73f b4be 286e d8bd 6db9 263f d770 93be

fcs1.bias f4 [256]
-0.39362788 -0.4069082 -1.7956839 -2.0473213 0.36912814 -0.5743126 -1.6375804 -1.1726893
-2.6093884 -1.2908069 -2.3033867 -2.254447 -1.3315338 -0.7469654 -1.514652 0.051673617
-1.6001581 -0.7983115 -2.202253 -0.66817355 -0.46610045 -0.65792656 -0.06501265 -1.0392375
-2.267763 0.67527014 1.1030766 -1.694035 -0.27813718 0.9200494 -1.1697853 -1.0501369
0.7935557 -0.6431659 -0.7818961 -1.7040293 -1.8645338 -0.8352584 -1.4577904 0.5504018
-1.8688807 -0.14354742 0.036011413 -2.663176 -0.8484853 -2.3593545 -3.007453 -1.4017757
-1.0058782 -0.62098473 0.16742621 -2.3785007 -0.8815931 -1.8029124 -1.7616081 0.05088092
-1.467037 -1.9786547 0.52673554 -2.158128 1.6610404 -2.0230198 -0.95716596 0.07086965
0.11498752 -1.950825 -2.8023717 -2.7321723 -0.40114096 -1.5185835 0.41581765 0.6302603
-1.1300598 -1.665879 -1.7480382 -2.4835777 -1.2215697 -1.8231132 0.14976813 -0.78476816
-0.20478737 -0.7634128 -3.073234 -0.84762514 -2.2389252 -1.5949873 -1.5999513 -1.5472256
-0.07038851 -0.8061185 0.11413805 -1.6589243 0.5087328 -2.21607 1.2300957 0.8335394
0.41791323 0.20060982 -2.2655313 -0.10620971 -0.53777134 -1.1901852 -0.62982976 -0.15817316
-2.3945115 1.6256404 0.22683997 -1.0653663 -1.7570653 -2.2274504 0.9496173 -1.7735295
-0.9567992 -2.7782323 -1.2263044 0.29216683 -1.2521126 -1.3107499 -2.0933106 -2.541731
-1.1350582 -2.965413 -2.382751 -1.0712076 0.70942193 -0.07976931 0.67417336 -1.5801421
0.11667499 1.0003939 0.43015718 -1.2246405 -1.4988219 -0.6709229 -2.6395519 -1.1511081
0.393282 -0.97988266 -0.51163334 -0.8143513 -2.3106313 -0.513351 -0.38570547 -1.5816983
-1.6734787 -0.7940721 0.4528014 -1.8445919 -1.2252938 -0.23513581 -0.9629665 -0.062109653
0.35897633 0.58430284 0.18964478 -1.054658 -1.1226181 0.37900186 -0.055164542 -0.72531605
-2.1135876 -1.4058403 -1.9167502 -1.4840071 -1.6863806 -1.3997551 0.0589699 -1.3859268
-2.4787087 -1.9036491 -2.1909528 -1.1383286 -0.32423425 -2.3792076 1.0766948 -0.6383832
-2.045851 0.9283263 -1.1317301 0.5759581 -1.849844 1.4769089 -1.2966508 -1.112411
-0.9614515 -1.9779297 1.566266 -0.5779698 -1.3789998 -1.1748353 -1.4074944 -0.5122211
0.48647198 0.24515483 -1.1583587 0.22827981 0.401531 -1.0136292 0.09853122 -2.1013784
0.41760713 -1.0146743 -2.5187988 -0.8229617 -0.97179025 -1.2187576 1.2724636 -2.1663013
-1.0088493 -1.5186169 -0.57555866 -1.012804 1.0735165 -0.36570212 0.43421516 -1.1584618
-1.2743213 -1.1139266 1.7717135 -0.98261166 -1.037365 0.15121348 -2.8475494 -0.1127225
-1.778351 0.35138738 1.0834775 -1.3888161 -1.3415614 -0.074596204 -2.4665723 0.44905585
-1.0295845 0.054787997 -0.15015316 -0.78909403 -1.6268456 -2.0021026 -0.29266256 0.051250517
-1.1390669 -1.4351687 -1.3001559 -1.4288908 -1.0492302 -0.8377453 0.47352016 -1.2138696
-2.458144 -0.74130064 -0.19101544 -2.6189559 0.12325541 0.18409607 -1.7034221 0.41393712
00000000: 9889 c9be 4656 d0be f8d8 e5bf 5007 03c0
00000010: 5dfe bc3e 2706 13bf 3c9c d1bf af1a 96bf
00000020: 3800 27c0 2939 a5bf b06a 13c0 dc48 10c0
00000030: b36f aabf 2039 3fbf 1ee0 c1bf b7a7 533d
00000040: fbd1 ccbf 245e 4cbf b7f1 0cc0 6c0d 2bbf
00000050: b8a4 eebe e06d 28bf 5a25 85bd bc05 85bf
00000060: 0723 11c0 81de 2c3f 9d31 8d3f 24d6 d8bf
00000070: ff67 8ebe 5c88 6b3f 86bb 95bf e36a 86bf
00000080: 7726 4b3f 85a6 24bf 582a 48bf a21d dabf
00000090: 0ba9 eebf 7fd3 55bf e098 babf 22e7 0c3f
000000a0: 7c37 efbf 18fe 12be b480 133d 7a71 2ac0
000000b0: 5536 59bf aaff 16c0 1c7a 40c0 636d b3bf
000000c0: 9ec0 80bf dbf8 1ebf c771 2b3e 5b39 18c0
000000d0: 16b0 61bf d5c5 e6bf 607c e1bf 8368 503d
000000e0: dec7 bbbf 8f44 fdbf 24d8 063f c51e 0ac0
000000f0: f99c d43f 2879 01c0 d408 75bf 1b24 913d
00000100: 947e eb3d a2b4 f9bf 0f5a 33c0 e9db 2ec0
00000110: 5962 cdbe f260 c2bf 0de6 d43e bd58 213f
00000120: cda5 90bf 863b d5bf b7bf dfbf f0f2 1ec0
00000130: 655c 9cbf c65b e9bf d15c 193e 91e6 48bf
00000140: c8b3 51be 056f 43bf deaf 44c0 f6fd 58bf
00000150: 8d4a 0fc0 8b28 ccbf 34cb ccbf 7d0b c6bf
00000160: da27 90bd c85d 4ebf 36c1 e93d a257 d4bf
00000170: 503c 023f 17d4 0dc0 c773 9d3f d762 553f
00000180: b9f8 d53e a96c 4d3e 77fe 10c0 7a84 d9bd
00000190: 62ab 09bf fd57 98bf 863c 21bf 25f8 21be
000001a0: ad3f 19c0 fc14 d03f bd48 683e ec5d 88bf
000001b0: 84e7 e0bf 8c8e 0ec0 1f1a 733f 0403 e3bf
000001c0: cbf0 74bf 8fce 31c0 8bf7 9cbf e496 953e
000001d0: 3a45 a0bf a7c6 a7bf cdf8 05c0 b9ab 22c0
000001e0: 9649 91bf 54c9 3dc0 fe7e 18c0 551d 89bf
000001f0: ad9c 353f 185e a3bd a096 2c3f 1942 cabf
00000200: 4cf3 ee3d e80c 803f 903d dc3e 05c1 9cbf
00000210: 65d9 bfbf 9ac1 2bbf 6bee 28c0 8357 93bf
00000220: 425c c93e 97d9 7abf 67fa 02bf 5479 50bf
00000230: 62e1 13c0 f96a 03bf 307b c5be 1775 cabf
00000240: 8d34 d6bf 4f48 4bbf 96d5 e73e 961b ecbf
00000250: 6dd6 9cbf 71c7 70be f984 76bf b166 7ebd
00000260: bfcb b73e df94 153f 3e32 423e 09ff 86bf
00000270: f3b1 8fbf 880c c23e 37f4 61bd 50ae 39bf
00000280: 0545 07c0 93f2 b3bf 1258 f5bf f2f3 bdbf
00000290: 52db d7bf 2d2b b3bf 6c8a 713d 0d66 b1bf
000002a0: 2aa3 1ec0 c6aa f3bf 9238 0cc0 c0b4 91bf
000002b0: 0802 a6be f044 18c0 23d1 893f 156d 23bf
000002c0: 39ef 02c0 cba6 6d3f 88dc 90bf fd71 133f
000002d0: b0c7 ecbf 5a0b bd3f a7f8 a5bf 7c63 8ebf
000002e0: af21 76bf cd2c fdbf 677b c83f d4f5 13bf
000002f0: 1183 b0bf 0161 96bf c728 b4bf ec20 03bf
00000300: db12 f93e de09 7b3e 1945 94bf 2fc2 693e
00000310: 7995 cd3e 9abe 81bf bcca c93d fc7c 06c0
00000320: 9ad0 d53e d9e0 81bf 0034 21c0 9ead 52bf
00000330: 3fc7 78bf 4000 9cbf 16e0 a23f aea4 0ac0
00000340: f921 81bf 0a62 c2bf d057 13bf 90a3 81bf
00000350: fd68 893f 4f3d bbbe 7351 de3e 7a48 94bf
00000360: f61c a3bf 2695 8ebf 82c7 e23f 708c 7bbf
00000370: 60c8 84bf b5d7 1a3e 403e 36c0 0edb e6bd
00000380: 01a1 e3bf 0ce9 b33e 64af 8a3f bac4 b1bf
00000390: 49b8 abbf e5c5 98bd 52dc 1dc0 a6ea e53e
000003a0: 6dc9 83bf 6169 603d c0c1 19be 1102 4abf
000003b0: 7a3c d0bf 7322 00c0 ded7 95be 10ec 513d
000003c0: f2cc 91bf 9cb3 b7bf 826b a6bf e5e5 b6bf
000003d0: 2d4d 86bf 7a76 56bf 3c71 f23e 1460 9bbf
000003e0: 3b52 1dc0 e1c5 3dbf 8d99 43be f99c 27c0
000003f0: 556d fc3d ae83 3c3e bc09 dabf 91ef d33e

bn1.weight f4 [256]
0.47750777 0.10051193 0.10000422 0.21149139 0.10051913 0.22765252 0.11947267 0.17754051
0.08613998 0.11204152 0.15664364 0.090284385 0.1307874 0.12167472 0.18376394 0.06752137
0.13387553 0.09628502 0.15757835 0.14954859 0.075321525 0.16124278 0.114347555 0.13780528
0.1421894 0.17246835 0.11394866 0.09268372 0.11622546 0.25944403 0.1304455 0.0741167
0.08153811 0.26903895 0.12366153 0.13785638 0.24463236 0.21702977 0.12077754 0.18697932
0.12247911 0.07169331 0.097423635 0.07677349 0.09219137 0.1908465 0.080451086 0.15056331
0.07559582 0.12568077 0.11795898 0.19926786 0.101049595 0.10659925 0.35416383 0.66970986
0.07259803 0.13413349 0.17282873 0.09107076 0.14434026 0.09574577 0.08785472 0.19729139
0.13105993 0.16933204 0.12221096 0.06959955 0.15481539 0.1496581 0.1589751 0.12569843
0.13904877 0.2420799 0.304159 0.11011077 0.0938018 0.5602279 0.12882079 0.7783883
0.29271615 0.11328913 0.1426271 0.1082065 0.16871536 0.13675678 0.07326087 0.14257617
0.09596042 0.68622375 0.20426917 0.10127095 0.098505616 0.082649894 0.13124415 0.1556392
0.13386254 0.065555714 0.12564842 0.14219275 0.19997308 0.056482058 0.13588114 0.24082226
0.19451015 0.16433625 0.11632322 0.123856194 0.15088004 0.18766701 0.15863346 0.078128085
0.14222391 0.112503156 0.58003736 0.11645639 0.22373489 0.23145778 0.117689535 0.19151294
0.45180485 0.1162121 0.11468021 0.10180383 0.13618654 0.16655254 0.17105268 0.09913387
0.113255955 0.14547989 0.12440752 0.25792837 0.2291014 0.34746012 0.10208701 0.16117355
0.14749423 -0.09731953 0.11409499 0.162319 0.10700055 -0.101944596 0.13296208 0.123832315
0.034137666 0.25315323 0.13805798 0.14358686 0.89212686 0.12638173 0.09448836 0.12434665
0.17170513 0.121128865 0.19504535 0.08291147 0.22240193 0.13658716 0.12314623 0.10754349
0.5742098 0.45600432 0.13612822 0.2620967 0.5641694 0.10482161 0.12674838 0.17810929
0.0987001 0.0888378 0.099084586 0.114426225 0.07067291 0.2485469 0.13441332 0.6362336
0.12838157 0.113648094 0.09933449 0.11343471 0.35072303 0.044943143 0.12612972 0.16430673
0.224238 0.25150684 0.09830578 0.15027313 0.68253803 0.44005623 0.3122592 0.113081515
0.068837695 0.09978732 0.07799717 0.17691848 0.22467983 0.14669614 0.104017235 0.08101803
0.2785488 0.19091983 0.12920539 0.13512471 0.16957521 0.13230176 0.122439556 0.12441578
0.19286907 0.0916771 0.18482405 0.08007598 0.14703707 0.5456178 0.10860077 0.62565076
0.12418713 0.72233033 0.08927421 0.7057267 0.107172884 0.11596506 0.16163546 0.100863755
0.48547322 0.13425298 0.12126259 0.16989818 0.113971576 0.12001966 0.098591015 0.123320006
0.10313523 1.1583105 0.22860567 0.15815328 0.10359189 0.06916069 0.13213523 0.078013614
0.09152974 0.27256763 0.1459141 0.15726247 0.11755963 0.160234 0.17745182 0.078550406
0.12082976 0.10048988 0.14341658 0.14315219 0.1590301 0.13515994 0.65484744 0.08103816
00000000: e67b f43e 33d9 cd3d 03cf cc3d 3391 583e
00000010: f9dc cd3d be1d 693e 16ae f43d 2ecd 353e
00000020: 286a b03d 0676 e53d 3167 203e 05e7 b83d
00000030: 22ed 053e 9830 f93d 9d2c 3c3e a548 8a3d
00000040: ab16 093e 1531 c53d 385c 213e 4423 193e
00000050: 2c42 9a3d d41c 253e 0d2f ea3d d41c 0d3e
00000060: 199a 113e 8b9b 303e ea5d e93d f6d0 bd3d
00000070: 9d07 ee3d d9d5 843e 8193 053e 7fca 973d
00000080: 74fd a63d 79bf 893e 4242 fd3d 392a 0d3e
00000090: e880 7a3e 0d3d 5e3e 375a f73d 8277 3f3e
000000a0: 54d6 fa3d f1d3 923d 0b86 c73d 6b3b 9d3d
000000b0: d4ce bc3d 446d 433e 8ac3 a43d 452d 1a3e
000000c0: fbd1 9a3d 76b2 003e 7a94 f13d e00c 4c3e
000000d0: 17f3 ce3d b550 da3d f654 b53e 1b72 2b3f
000000e0: 47ae 943d 4a5a 093e 04fa 303e 4e83 ba3d
000000f0: efcd 133e 5c16 c43d 2ded b33d c106 4a3e
00000100: 9334 063e 6165 2d3e bd49 fa3d 358a 8e3d
00000110: ed87 1e3e f93f 193e 5eca 223e 17b7 003e
00000120: cd62 0e3e cbe3 773e baba 9b3e c181 e13d
00000130: 281b c03d 186b 0f3f 99e9 033e 7544 473f
00000140: e4de 953e 2204 e83d d70c 123e 5f9b dd3d
00000150: b8c3 2c3e f809 0c3e cc09 963d 7dff 113e
00000160: e686 c43d 5cac 2f3f f02b 513e 2567 cf3d
00000170: 50bd c93d 5944 a93d de64 063e e25f 1f3e
00000180: 4313 093e 1342 863d fba9 003e fa9a 113e
00000190: bec5 4c3e bb59 673d 6d24 0b3e 1c9a 763e
000001a0: ab2d 473e c347 283e de3a ee3d 51a8 fd3d
000001b0: 4c80 1a3e c82b 403e cf70 223e 9e01 a03d
000001c0: 25a3 113e 0e68 e63d 547d 143f b080 ee3d
000001d0: c21a 653e 4503 6d3e 3607 f13d f81b 443e
000001e0: f752 e73e 9c00 ee3d 75dd ea3d 877e d03d
000001f0: 7c74 0b3e c08c 2a3e 6f28 2f3e b306 cb3d
00000200: bdf2 e73d aef8 143e 5fc9 fe3d 300f 843e
00000210: 8f99 6a3e 4be6 b13e ff12 d13d ae0a 253e
00000220: ba08 173e 764f c7bd a2aa e93d f436 263e
00000230: 1b23 db3d 54c8 d0bd 3627 083e cc9b fd3d
00000240: f0d3 0b3d 4d9d 813e 125f 0d3e 6f08 133e
00000250: 6d62 643f 366a 013e 1d83 c13d 75a9 fe3d
00000260: 78d3 2f3e 6912 f83d f8b9 473e 7dcd a93d
00000270: 55bd 633e 81dd 0b3e 1734 fc3d c33f dc3d
00000280: 6aff 123f 6679 e93e 3265 0b3e 8a31 863e
00000290: 686d 103f b6ac d63d 54ca 013e 4862 363e
000002a0: 4723 ca3d 98f0 b53d dcec ca3d 4c58 ea3d
000002b0: f5bc 903d 1483 7e3e a5a3 093e 35e0 223f
000002c0: 7576 033e 55c0 e83d e26f cb3d 7550 e83d
000002d0: f891 b33e 4d16 383d 2628 013e 0640 283e
000002e0: a59e 653e 81c5 803e 8a54 c93d 33e1 193e
000002f0: d0ba 2e3f 0d4f e13e 70e0 9f3e 4897 e73d
00000300: c7fa 8c3d 4b5d cc3d fbbc 9f3d 1e2a 353e
00000310: 7812 663e 8337 163e fd06 d53d c8ec a53d
00000320: f39d 8e3e 7d80 433e 6b4e 043e 225e 0a3e
00000330: 20a5 2d3e 1d7a 073e 97c1 fa3d b3cd fe3d
00000340: 787f 453e 34c1 bb3d 8442 3d3e e0fe a33d
00000350: e390 163e 9cad 0b3f 156a de3d a62a 203f
00000360: d255 fe3d a4ea 383f 66d5 b63d 81aa 343f
00000370: 757d db3d 177f ed3d c483 253e a891 ce3d
00000380: f28f f83e 9d79 093e 8558 f83d caf9 2d3e
00000390: ee69 e93d decc f53d 16ea c93d 338f fc3d
000003a0: 9038 d33d 8543 943f 9b17 6a3e eff2 213e
000003b0: fc27 d43d 1fa4 8d3d 754e 073e 9ac5 9f3d
000003c0: f273 bb3d fc8d 8b3e 816a 153e 6a09 213e
000003d0: 1ac3 f03d 6214 243e eeb5 353e 09df a03d
000003e0: 9875 f73d a3cd cd3d ccdb 123e 7d96 123e
000003f0: c9d8 223e 5e67 0a3e 15a4 273f 56f7 a53d

bn1.bias f4 [256]
0.2938976 -0.047834035 0.019461794 0.050194703 -0.014965117 0.09064416 0.081542276 0.0452135
0.011021387 0.03050595 0.09582849 -0.004943065 0.020372568 0.002137312 0.04900056 0.039002724
-0.017911745 -0.024194786 0.04595805 0.002924141 0.0075526056 0.02662516 0.027862038 0.011144125
0.05826133 0.032919396 0.06671932 -0.036041208 0.067505725 0.8032158 0.04450388 0.023474315
-0.019064073 0.023599371 0.01661931 -0.02578795 0.08669645 0.0034860163 -0.09387193 0.33647177
-0.019729102 0.0010568143 -0.05600922 0.003888526 0.0077312435 0.05480918 0.0129589755 -0.0013064313
0.01077072 -0.06534091 0.009790318 0.111059435 0.005956585 -0.010480407 0.1468437 0.24985707
0.010571456 0.03708309 0.096069776 -0.05077331 0.088595465 -0.001947775 0.023693822 0.077111185
0.040128842 0.03280859 -0.03549846 0.0044440012 -0.033229496 0.018398343 -0.02698102 -0.0105129
-0.02090675 -0.06650097 0.103527084 0.04620036 -0.022234809 0.10325445 -0.03278132 0.2224261
-0.032505658 0.0421668 -0.0048224493 -0.06586485 0.11689299 0.028466016 0.054957658 0.017514681
0.028013932 0.36387458 0.023540782 0.010602883 -0.045351364 0.011488329 0.008982059 -0.029836018
0.09897318 -0.006594462 0.024528963 -0.023246327 0.0333153 -0.0056310464 -0.07523972 0.026871145
0.105000794 0.018016903 -0.05737968 0.059984338 0.016749287 0.044564098 0.11930956 -0.028703108
0.09523535 0.01695112 0.3224662 0.1277305 0.065873615 0.06169877 0.03590022 0.086389296
0.17942229 0.021219261 0.02855129 0.013863543 -0.027921451 0.023508718 0.0027286962 0.027141735
0.00620027 0.023674788 0.013761242 -0.09463645 -0.15367635 0.20489956 0.031949256 0.030299399
0.007843375 -0.010854327 -0.00058120314 0.044446133 0.010065151 -0.08247986 0.021130832 -0.009073725
-0.12657325 0.069907196 0.09232525 -0.013892409 0.18916066 0.069938004 0.033645052 -0.0023833239
-0.0141835995 -0.03425274 -0.006525033 0.014742857 -0.17283356 0.048082974 -0.0069635618 0.010777787
0.011671452 0.2939073 0.08992155 0.11861153 0.5265341 0.018051695 0.025198814 -0.030148616
0.0018918916 -0.0041716993 0.056289136 -0.17029138 0.0010673305 0.19965129 0.02135832 0.6090887
0.0023057985 -0.06827959 0.081700675 0.017000597 0.13782743 -0.5936599 -0.016721504 0.017010126
-0.081211515 0.14645354 -0.19913308 0.026709916 0.20000099 0.21290708 0.24206927 0.022028033
-0.0353164 0.0054431604 0.011014853 0.0035064106 -0.05124488 0.062292058 -0.15053837 0.023062581
-0.099689975 0.004550329 0.029049568 0.006659602 0.04060031 0.06441674 -0.014644022 -0.037573908
0.06369711 -0.052797556 -0.010255433 0.028927326 -0.15639366 0.36592284 0.031839695 0.39542115
0.055881143 0.11112108 -0.09619771 0.21229425 0.20869854 -0.017409362 0.055880073 0.0040794974
0.107158825 0.020494875 -0.033543658 0.010434962 0.04064601 -0.05097649 -0.011059079 0.017396934
0.0044583604 0.4341502 0.02549237 0.012974145 -0.0011759158 -0.003869075 0.16941164 -0.025089202
0.003744 0.07829825 0.023813387 -0.017614529 0.051124435 0.081167884 0.09491629 -0.028159324
0.06030853 -0.0014858464 0.0028471288 -0.008146744 0.0031044157 0.055989943 0.25378582 -0.020575436
00000000: bf79 963e 9fed 43bd 576e 9f3c f698 4d3d
00000010: 4030 75bc a5a3 b93d a3ff a63d ca31 393d
00000020: 0c93 343c 9de7 f93c ba41 c43d 6ff9 a1bb
00000030: 5fe4 a63c 2512 0c3b d0b4 483d 52c1 1f3d
00000040: a7bb 92bc 2534 c6bc 823e 3c3d f2a2 3f3b
00000050: d97b f73b 021d da3c ee3e e43c d995 363c
00000060: 6fa3 6e3d 7dd6 063d 24a4 883d f29f 13bd
00000070: 7140 8a3d 8d9f 4d3f b349 363d 354d c03c
00000080: 422c 9cbc 7853 c13c 3825 883c 4041 d3bc
00000090: e98d b13d a675 643b ed3f c0bd 0746 ac3e
000000a0: ed9e a1bc ce84 8a3a ed69 65bd a4d6 7e3b
000000b0: 5f56 fd3b 977f 603d e251 543c 8f3c abba
000000c0: ad77 303c 74d1 85bd 9267 203c 2173 e33d
000000d0: 752f c33b 03b6 2bbc 325e 163e 88da 7f3e
000000e0: e633 2d3c 70e4 173d 3bc0 c43d adf7 4fbd
000000f0: 8a71 b53d 7c4c ffba 8c19 c23c 78ec 9d3d
00000100: 245e 243d 4d62 063d d566 11bd fc9e 913b
00000110: a71b 08bd 1fb8 963c 4d07 ddbc 4c3e 2cbc
00000120: a244 abbc a931 88bd 0206 d43d 973c 3d3d
00000130: c625 b6bc 1277 d33d b545 06bd abc3 633e
00000140: a724 05bd 18b7 2c3d a305 9ebb 27e4 86bd
00000150: 9865 ef3d 9031 e93c 481b 613d f37a 8f3c
00000160: 797d e53c c54d ba3e 99d8 c03c b7b7 2d3c
00000170: 5ac2 39bd 8b39 3c3c 7c29 133c aa6a f4bc
00000180: 73b2 ca3d 5b16 d8bb f7f0 c83c 156f bebc
00000190: a075 083d a484 b8bb 4817 9abd e020 dc3c
000001a0: a80a d73d 2f98 933c f506 6bbd 23b2 753d
000001b0: cd35 893c d888 363d 9258 f43d c822 ebbc
000001c0: c00a c33d 13dd 8a3c 4a1a a53e c9cb 023e
000001d0: bfe8 863d d9b7 7c3d 1c0c 133d dfec b03d
000001e0: 7aba 373e 04d4 ad3c 65e4 e93c ea23 633c
000001f0: 87bb e4bc 5b95 c03c edd3 323b 5858 de3c
00000200: a22b cb3b a1f1 c13c d576 613c c1d0 c1bd
00000210: 555d 1dbe 31d1 513e 39dd 023d 7236 f83c
00000220: 8081 003c 59d6 31bc e25b 18ba 260d 363d
00000230: 4ee8 243c 33eb a8bd 911a ad3c f6a9 14bc
00000240: 6b9c 01be 812b 8f3d 0515 bd3d fd9c 63bc
00000250: 55b3 413e a83b 8f3d 65cf 093d 8a31 1cbb
00000260: 5462 68bc 9a4c 0cbd f2cf d5bb 068c 713c
00000270: 48fb 30be a7f2 443d 972e e4bb 5195 303c
00000280: 9e39 3f3c 057b 963e ca28 b83d 9aea f23d
00000290: f0ca 063f 26e1 933c be6d ce3c 3bfa f6bc
000002a0: 59f9 f73a c0b2 88bb 708f 663d dd60 2ebe
000002b0: abe5 8b3a 6371 4c3e a5f7 ae3c 3ded 1b3f
000002c0: e11c 173b 2bd6 8bbd af52 a73d d644 8b3c
000002d0: a222 0d3e 18fa 17bf 89fb 88bc d258 8b3c
000002e0: 3952 a6bd ebf7 153e 8be9 4bbe c1ce da3c
000002f0: 0fcd 4c3e 5004 5a3e 02e1 773e 2274 b43c
00000300: eea7 10bd 8a5c b23b a477 343c cfcb 653b
00000310: 27e6 51bd f525 7f3d bb26 1abe bded bc3c
00000320: 422a ccbd ed1a 953b 5cf9 ed3c ca38 da3b
00000330: 834c 263d ecec 833d 7bed 6fbc 19e7 19bd
00000340: a173 823d 4042 58bd 6706 28bc 00f9 ec3c
00000350: a925 20be 3d5a bb3e 576a 023d a474 ca3e
00000360: a0e3 643d 7393 e33d 4e03 c5bd aa63 593e
00000370: 12b5 553e 149e 8ebc 81e2 643d 4ead 853b
00000380: 1676 db3d dee4 a73c 1365 09bd 67f7 2a3c
00000390: 6e7c 263d b9cc 50bd 2431 35bc 0484 8e3c
000003a0: 7017 923b ef48 de3e 60d5 d03c 8291 543c
000003b0: 3021 9aba 4f90 7dbb 3f7a 2d3e df87 cdbc
000003c0: e65d 753b d55a a03d 4b14 c33c 584c 90bc
000003d0: db67 513d 593b a63d 7963 c23d 62ae e6bc
000003e0: 1406 773d bbc0 c2ba e596 3a3b ec79 05bc
000003f0: 7473 4b3b b655 653d 37f0 813e d18d a8bc

bn1.running_mean f4 [256]
2.1000485 0.8083081 1.8064941 0.7668769 0.8549075 0.9583724 1.8757071 0.9059118
0.7656747 1.080944 1.7078705 0.22030036 2.7067347 0.31159765 2.7831805 3.7685766
0.28328285 2.0275357 0.27356023 1.1208674 1.0238434 0.9210446 1.0308851 1.0056022
1.2878944 1.387292 5.1659617 1.4590263 3.5180762 7.012618 1.3181869 1.2869729
0.9067721 3.9129565 4.3642673 0.27403903 0.644895 0.792345 0.11502116 5.5038624
0.8305713 1.6088076 1.622294 1.509393 0.51603115 1.5030692 0.47461146 0.41560957
1.2240516 1.1302092 3.300494 1.7877064 1.0384636 1.2006114 1.4599771 3.255692
2.4468262 1.3261521 4.5220613 1.436965 4.4894204 1.9646884 0.96980834 2.497719
2.3291373 2.0796373 1.4824383 0.4962244 2.4220717 2.0877001 2.642116 3.2213964
1.6170871 1.2083752 0.49943876 1.5788926 1.6228176 0.4352728 2.2211065 1.8789011
2.8198068 0.6320302 0.8833955 0.73080224 1.4041591 0.33674875 0.21158323 0.44602942
1.5004272 1.7391346 2.2340508 1.0864819 0.5462966 0.76515716 3.2784371 1.0249977
3.2928252 0.90566075 0.64679676 1.4575462 6.371302 1.1554593 1.074163 3.9433646
0.7875195 6.440832 0.84816587 2.6313837 1.0278796 2.6513433 4.151889 0.5580636
2.4764416 1.3535641 1.0328709 2.9645352 1.1962174 0.8156891 1.4090847 0.5802258
1.3851484 0.94521 0.2604108 2.8458278 1.743803 2.9579818 2.0489643 0.8078918
1.0002192 1.6950076 3.198481 1.1462816 3.0806844 2.4679027 0.73697007 1.0016074
6.4301195 0.45303544 0.19928555 3.8614376 0.42129576 2.5257127 0.8225414 0.5360572
0.33953032 1.1278563 2.3926122 2.0009573 1.5871699 2.4691195 1.75079 1.5696896
2.107533 5.1523767 1.3403567 0.8011475 1.2889569 1.6067132 0.518445 1.7083557
0.5662962 1.3091108 2.1378336 0.95114845 1.5571353 1.130364 1.8681995 1.0915031
0.45898932 1.0870117 1.3661314 2.944451 1.8469191 2.4154637 1.5665323 2.0691676
0.7919674 1.0750767 5.5484347 3.2123225 0.36635274 2.6945019 1.5108075 1.6101807
2.2729182 0.76445335 4.29123 1.965332 0.9682037 1.2205817 1.291525 1.7539884
0.4560488 0.8152534 1.6278505 4.817417 3.338498 2.3137093 1.7609591 1.4483091
3.0381346 2.5350707 0.4325824 2.610591 0.7322506 1.2675221 1.1660879 1.2411507
1.8897325 1.521377 3.7907383 0.8263052 1.4952805 2.974671 3.925939 1.7599376
2.6891835 2.4350376 3.1576626 1.2404999 1.0289049 1.0557778 0.19868024 1.9893041
0.59266025 2.9782841 2.0033443 0.58264124 4.4052067 2.043624 3.4443812 4.5499177
2.1815667 3.0363908 3.1778646 1.5849237 0.99148095 0.5066849 2.717741 4.001231
0.6495054 1.5681193 1.6906562 1.0303444 1.9397924 1.208738 3.0844166 0.7749407
0.30623198 4.0788293 4.0688915 1.472371 2.5571916 9.167595 0.83687896 1.2008121
00000000: 3267 0640 48ed 4e3f 333b e73f 0b52 443f
00000010: 38db 5a3f e557 753f 2c17 f03f d6e9 673f
00000020: 4203 443f 5f5c 8a3f 809b da3f 6b96 613e
00000030: 243b 2d40 ba89 9f3e a11f 3240 5c30 7140
00000040: 730a 913e 25c3 0140 1610 8c3e 9578 8f3f
00000050: 4d0d 833f 94c9 6b3f 0bf4 833f 93b7 803f
00000060: b9d9 a43f c992 b13f 8f4f a540 60c1 ba3f
00000070: 2928 6140 5e67 e040 59ba a83f 87bb a43f
00000080: 3722 683f e16d 7a40 14a8 8b40 d84e 8c3e
00000090: d717 253f 1fd7 4a3f 3790 eb3d a41f b040
000000a0: 52a0 543f 68ed cd3f 54a7 cf3f ca33 c13f
000000b0: 9e1a 043f 9264 c03f 4600 f33e c7ca d43e
000000c0: b9ad 9c3f b2aa 903f 4b3b 5340 90d3 e43f
000000d0: 60ec 843f a2ad 993f 88e0 ba3f 425d 5040
000000e0: cd98 1c40 5abf a93f bab4 9040 78ee b73f
000000f0: 55a9 8f40 e97a fb3f 5c45 783f a1da 1f40
00000100: 9610 1540 c718 0540 8ac0 bd3f 2011 fe3e
00000110: 3903 1b40 e19c 0540 6e18 2940 5c2b 4e40
00000120: b6fc ce3f 0aac 9a3f 70b6 ff3e 2719 ca3f
00000130: 7db8 cf3f 14dc de3e 9c26 0e40 d57f f03f
00000140: b777 3440 bbcc 213f 3526 623f db15 3b3f
00000150: 7cbb b33f 556a ac3e 46a9 583e f85d e43e
00000160: 000e c03f f69b de3f b0fa 0e40 d711 8b3f
00000170: 18da 0b3f 57e1 433f ead1 5140 2033 833f
00000180: a6bd 5240 62d9 673f 7994 253f e090 ba3f
00000190: b5e1 cb40 17e6 933f 2c7e 893f 1660 7c40
000001a0: e19a 493f 4c1b ce40 6621 593f 9768 2840
000001b0: 8f91 833f 9caf 2940 46dc 8440 42dd 0e3f
000001c0: 057e 1e40 9741 ad3f 1d35 843f f2ba 3d40
000001d0: a71d 993f 00d1 503f e35c b43f ae89 143f
000001e0: 8b4c b13f 48f9 713f 9054 853e 0b22 3640
000001f0: f034 df3f 934f 3d40 3b22 0340 ffd1 4e3f
00000200: 2f07 803f 02f6 d83f eab3 4c40 5bb9 923f
00000210: ef29 4540 1ef2 1d40 12aa 3c3f ac34 803f
00000220: 8ac3 cd40 43f4 e73e 8311 4c3e cb21 7740
00000230: 14b4 d73e 47a5 2140 1392 523f 0b3b 093f
00000240: ebd6 ad3e 985d 903f 8f20 1940 af0f 0040
00000250: 6228 cb3f 0e06 1e40 e319 e03f 97eb c83f
00000260: d2e1 0640 45e0 a440 cf90 ab3f 0118 4d3f
00000270: 8afc a43f c7a8 cd3f d0b8 043f 66ab da3f
00000280: caf8 103f f190 a73f 44d2 0840 777e 733f
00000290: 3650 c73f c4af 903f 2921 ef3f 60b6 8b3f
000002a0: a600 eb3e 3323 8b3f 65dd ae3f e371 3c40
000002b0: d867 ec3f f596 1a40 2184 c83f 3e6d 0440
000002c0: 60be 4a3f 1d9c 893f c78c b140 b196 4d40
000002d0: 9692 bb3e b872 2c40 2462 c13f 671a ce3f
000002e0: 7e77 1140 37b3 433f c251 8940 0090 fb3f
000002f0: 33dc 773f 053c 9c3f b150 a53f b182 e03f
00000300: 3a7f e93e 72b4 503f 685d d03f 4828 9a40
00000310: f4a9 5540 d013 1440 1c67 e13f 3162 b93f
00000320: cc70 4240 993e 2240 717b dd3e ec13 2740
00000330: c674 3b3f 2a3e a23f 5e42 953f 07de 9e3f
00000340: c1e2 f13f 7bbc c23f 759b 7240 bd88 533f
00000350: 5a65 bf3f 0261 3e40 9642 7b40 a345 e13f
00000360: 951b 2c40 a8d7 1b40 2517 4a40 b3c8 9e3f
00000370: 28b3 833f ba23 873f d572 4b3e 84a1 fe3f
00000380: 95b8 173f 359c 3e40 cb36 0040 fa27 153f
00000390: 74f7 8c40 bcca 0240 be70 5c40 ed98 9140
000003a0: ca9e 0b40 3a54 4240 2262 4b40 c8de ca3f
000003b0: b2d1 7d3f 1ab6 013f 78ef 2d40 160a 8040
000003c0: fc45 263f 22b8 c83f 6c67 d83f 53e2 833f
000003d0: 1e4b f83f edb7 9a3f 1567 4540 8462 463f
000003e0: 70ca 9c3e c585 8240 5c34 8240 a776 bc3f
000003f0: 07a9 2340 78ae 1241 b33d 563f 36b4 993f

bn1.running_var f4 [256]
10.380044 5.0725217 11.202391 3.6696868 4.000163 3.882683 12.919665 4.867992
4.3164907 5.4832473 6.9542623 1.1432747 15.4199915 1.7762557 22.242882 26.12503
1.2028912 13.646309 1.4707034 4.6209903 8.372433 4.202351 3.7986445 7.057937
7.1664295 6.0433087 37.423855 12.669489 28.02189 62.22926 10.332059 5.61205
4.9103637 23.446224 46.482388 1.3125159 2.9265678 2.5293777 0.6449499 39.865124
6.9518123 11.278467 13.184882 11.725215 3.263449 10.651943 3.1081355 1.6621425
10.541905 11.144788 18.174437 11.05051 6.8282166 7.623925 8.979789 18.085321
20.34347 8.602933 27.629044 11.307461 31.032259 10.70289 6.325019 22.656599
23.4223 18.161837 9.130352 2.0892756 12.386958 13.900895 10.889607 25.386116
8.708619 5.0741377 2.307336 7.1045265 12.792852 1.4261858 14.537263 9.160355
10.489631 4.1962733 4.8398404 4.4191027 6.487415 1.3482634 1.3262483 1.6925763
10.179715 8.402678 12.218667 5.8321123 4.013719 4.3205223 18.516777 4.6633706
20.75199 7.5015426 4.19238 6.9200077 56.090256 10.067048 7.406692 20.301632
3.4903598 55.62133 6.7908025 24.144215 6.7022285 21.388998 27.736061 3.2167807
16.666384 7.946707 3.8312354 18.615479 6.0190687 3.6928449 9.825396 2.7790463
6.430115 4.143655 1.1675036 15.86681 7.2715936 16.605068 6.1793246 6.0544553
4.9536796 7.0287457 17.13422 5.6623726 18.362991 15.429649 2.7801375 5.019418
20.18804 1.9116637 0.8594776 18.276192 2.262669 20.325497 4.6711435 2.1704364
3.219497 4.8811593 11.767938 15.108696 8.222872 6.263063 12.4713745 8.597769
15.019226 43.98489 4.7273498 6.1765985 5.396631 5.8228445 2.3237314 8.644315
1.8849638 7.480026 15.425648 5.357702 9.275853 10.347284 10.883855 4.5427413
2.665201 8.9393635 8.472226 16.897465 18.654724 15.380306 5.35086 12.608693
3.9397361 6.1842036 39.049732 13.699652 1.2078117 14.448169 9.307653 7.7923527
12.873343 4.5822897 25.997204 12.13091 4.064214 4.842824 7.019524 14.686692
2.6227393 7.2306137 11.863659 22.924063 20.187073 16.740623 11.062872 11.983901
14.398791 20.895788 1.6148171 12.4148655 4.1451383 8.865324 9.552352 8.811937
10.5912285 6.1987567 20.812574 4.944833 7.4768896 20.644247 21.819668 8.601981
26.03389 14.017874 17.842922 5.4527035 7.1864815 5.948618 0.8770219 8.045156
2.124044 11.040309 13.976894 3.757899 49.098904 13.757488 19.25486 21.294426
26.589512 16.442604 23.281307 10.370102 6.1940193 3.8289573 17.409115 30.904194
3.737211 7.4648447 11.29652 4.369454 13.3598 5.330101 19.427599 4.539735
1.5291462 40.20819 28.478764 7.5421867 19.888266 54.639187 3.4825523 6.828057
00000000: a914 2641 1952 a240 fe3c 3341 26dc 6a40
00000010: 5601 8040 e17d 7840 f3b6 4e41 97c6 9b40
00000020: b120 8a40 c376 af40 5189 de40 d356 923f
00000030: 49b8 7641 595c e33f 6cf1 b141 1000 d141
00000040: 57f8 993f 4857 5a41 0240 bc3f 27df 9340
00000050: 7cf5 0541 a979 8640 fe1c 7340 9fda e140
00000060: 6453 e540 c962 c140 07b2 1542 3ab6 4a41
00000070: d52c e041 c3ea 7842 1d50 2541 ea95 b340
00000080: b321 9d40 de91 bb41 f7ed 3942 8500 a83f
00000090: e34c 3b40 53e1 2140 701b 253f e375 1f42
000000a0: 3f75 de40 9a74 3441 47f5 5241 7b9a 3b41
000000b0: 59dc 5040 5c6e 2a41 b1eb 4640 16c1 d43f
000000c0: a5ab 2841 0d51 3241 3f65 9141 e4ce 3041
000000d0: c080 da40 32f7 f340 37ad 0f41 bdae 9041
000000e0: 6dbf a241 9da5 0941 4808 dd41 5ceb 3441
000000f0: 1142 f841 0a3f 2b41 8e66 ca40 b740 b541
00000100: df60 bb41 714b 9141 ec15 1241 b1b6 0540
00000110: fb30 4641 116a 5e41 d53b 2e41 c416 cb41
00000120: 8156 0b41 565f a240 65ab 1340 4858 e340
00000130: 86af 4c41 428d b63f a198 6841 d090 1241
00000140: 87d5 2741 df47 8640 f9df 9a40 4a69 8d40
00000150: e798 cf40 e593 ac3f 81c2 a93f 57a6 d83f
00000160: 1de0 2241 5e71 0641 a97f 4341 aaa0 ba40
00000170: 6370 8040 b841 8a40 5c22 9441 553a 9540
00000180: 1304 a641 a30c f040 fa27 8640 b470 dd40
00000190: 6c5c 6042 a112 2141 9f03 ed40 be69 a241
000001a0: 0e62 5f40 3e7c 5e42 414e d940 5a27 c141
000001b0: a878 d640 ab1c ab41 74e3 dd41 bcdf 4d40
000001c0: c154 8541 6c4b fe40 f632 7540 80ec 9441
000001d0: 369c c040 9257 6c40 d234 1d41 e5db 3140
000001e0: 81c3 cd40 d298 8440 c270 953f 74de 7d41
000001f0: e5b0 e840 2ed7 8441 07bd c540 19be c140
00000200: 8b84 9e40 7ceb e040 e212 8941 2832 b540
00000210: 68e7 9241 d8df 7641 c6ed 3140 129f a040
00000220: 1b81 a141 65b1 f43f b906 5c3f a435 9241
00000230: 92cf 1040 9e9a a241 027a 9540 6ee8 0a40
00000240: 3d0c 4e40 7532 9c40 7949 3c41 38bd 7141
00000250: e290 0341 036b c840 c08a 4741 7690 0941
00000260: c04e 7041 87f0 2f42 7346 9740 b2a6 c540
00000270: 33b1 ac40 be54 ba40 04b8 1440 1d4f 0a41
00000280: 7e46 f13f 5f5c ef40 74cf 7641 4b72 ab40
00000290: e569 1441 7a8e 2541 4524 2e41 235e 9140
000002a0: a792 2a40 a207 0f41 3d8e 0741 022e 8741
000002b0: e03c 9541 bc15 7641 3f3a ab40 35bd 4941
000002c0: a324 7c40 ffe4 c540 ed32 1c42 c631 5b41
000002d0: 9399 9a3f b32b 6741 26ec 1441 f45a f940
000002e0: 37f9 4d41 1ea2 9240 46fa cf41 3518 4241
000002f0: 0b0e 8240 6af8 9a40 f19f e040 b1fc 6a41
00000300: f6da 2740 3061 e740 8cd1 3d41 7b64 b741
00000310: 207f a141 ccec 8541 8601 3141 0fbe 3f41
00000320: 7361 6641 932a a741 54b2 ce3f 4aa3 4641
00000330: f9a4 8440 5ed8 0d41 6fd6 1841 b2fd 0c41
00000340: ac75 2941 375c c640 2780 a641 123c 9e40
00000350: ae42 ef40 6b27 a541 ae8e ae41 b7a1 0941
00000360: 6845 d041 3649 6041 4ebe 8e41 8c7c ae40
00000370: a8f7 e540 145b be40 8284 603f f5b8 0041
00000380: 56f0 0740 1ba5 3041 5ca1 5f41 6b81 7040
00000390: 4765 4442 ac1e 5c41 f409 9a41 fc5a aa41
000003a0: 52b7 d441 748a 8341 1e40 ba41 f0eb 2541
000003b0: 6835 c640 a30d 7540 de45 8b41 ca3b f741
000003c0: 772e 6f40 02e0 ee40 8cbe 3441 91d2 8b40
000003d0: bec1 5541 3090 aa40 b96b 9b41 8245 9140
000003e0: 10bb c33f 30d5 2042 82d4 e341 9859 f140
000003f0: 2b1b 9f41 878e 5a42 23e2 5e40 717f da40

fc2.weight f4 [256, 260]
-1.0330852 0.9375786 -0.9517417 0.47553024 -0.27697015 0.7541818 -0.5427354 -0.2804626
-0.8335946 -0.49191144 -0.1462635 -0.006731116 0.05671288 0.15599616 -0.33041602 -0.40496638
0.5602296 0.83819693 -1.0816046 0.6994379 -0.0050726025 0.07775244 -0.8792507 1.0359944
-1.4942722 0.39833137 0.1846735 0.5585133 0.042564522 -0.12299825 -0.34908462 0.33814254
1.2649649 -0.43613747 -0.2348654 0.8122205 0.1734307 0.21084385 0.0716594 0.05516571
-0.22267967 0.44057643 -0.30996326 0.45459655 1.0400798 1.070243 -0.5920908 0.30089167
-0.72381395 0.61595905 0.5944262 0.15200241 0.08962113 0.16360055 -1.5134355 -0.8819427
-0.39985412 0.48695377 0.18918599 -0.42015567 0.012331784 0.34265387 0.5936982 -0.4532974
0.017359154 0.9775394 0.7697188 0.56398475 -1.1379753 -0.47674882 -0.33721137 -0.63562745
-0.042933807 0.39999995 -0.116732664 0.0660232 0.82685536 0.09667951 0.2430321 -0.5215662
0.3346525 0.4713286 0.13472518 0.5933111 -0.66436315 -1.0224366 -0.17998877 0.4355715
0.025159203 -0.62184614 0.4090798 -0.4288673 1.1199882 -0.3580487 -0.24751693 0.33369535
-0.5349838 0.6884118 -0.34554824 0.43736103 0.15582098 -0.051282037 -1.9097787 0.5747861
-0.117486365 0.14424007 0.3289911 0.0090070395 -0.737445 0.1148333 -0.14951429 0.27164465
-0.29111558 0.31004402 -0.29368922 0.36921006 -0.26020277 0.4365718 0.10065424 -0.3559527
-0.7396578 -0.47414577 -0.36948738 0.046121366 -0.7853918 -0.577673 -0.48632064 -0.090963446
-1.1396418 -0.11053502 -0.6368549 -0.7071574 0.4392848 -0.842368 0.6617711 0.0953867
-0.07221377 -0.4817657 0.009146066 -0.32852086 -0.33800992 0.42535245 -0.31647348 -0.97902715
-0.33188432 -0.63126916 -0.101422206 -0.318528 0.5385535 -1.520232 -0.4170866 -0.19206837
0.63231593 1.4580902 -0.4885836 0.23765145 0.90983605 0.15578121 -1.4500475 -0.89168584
0.94658375 0.94535935 0.34633026 -0.11985936 0.033251204 -0.45112827 -0.0021053697 0.05284167
0.8760569 1.7786376 -0.6706361 0.18229422 -0.14980699 -0.2108881 0.5594347 -0.26383665
0.5012568 0.43213236 0.31186894 -0.6449637 0.6484125 0.7318634 0.040230077 -0.83199215
1.1253496 -0.5063505 0.7098017 -0.54844064 0.5903039 -0.038843025 -0.10309669 -0.64347774
0.50020534 -1.1629941 -0.07292843 -0.50281113 0.073774666 -1.0751021 -0.28340566 -1.1448133
0.051218107 -0.7914101 -0.37438825 -1.196778 -0.3031814 -0.33735073 0.47312734 0.053192936
0.36591133 -0.15052034 -0.7015212 -0.047713503 0.8817619 -0.7167369 -0.015234674 0.22067091
0.015191293 -0.6323568 1.0506512 -0.053125307 -0.2123165 -0.6319016 0.6644439 -0.49912652
1.3477256 -1.1086547 -0.11140818 -0.4731148 0.43159238 0.18849802 0.30698878 -0.10578193
0.17296417 -1.1357186 0.5592399 0.17710671 0.17602825 -0.029363617 -0.33859944 -0.7930867
-1.1149951 0.3438144 -0.60517275 0.33129832 0.15687567 0.46861324 -0.81774914 0.05484441
-0.5491088 0.3679753 -0.5108509 0.05170975 -0.047430404 0.03104546 -0.01887524 -0.6853011
00000000: 233c 84bf 2705 703f 58a5 73bf b378 f33e
00000010: 08cf 8dbe 0f12 413f b5f0 0abf cb98 8fbe
00000020: 7566 55bf d1db fbbe 19c6 15be b290 dcbb
00000030: c44b 683d 75bd 1f3e 4a2c a9be c157 cfbe
00000040: 356b 0f3f 1394 563f 0572 8abf 5d0e 333f
00000050: 1338 a6bb ac3c 9f3d 9316 61bf 779b 843f
00000060: 5044 bfbf 17f2 cb3e 0d1b 3d3e bafa 0e3f
00000070: 2358 2e3d 82e6 fbbd 38bb b2be 0521 ad3e
00000080: 5fea a13f 694d dfbe 8e80 70be afed 4f3f
00000090: d197 313e 73e7 573e 2ac2 923d 71f5 613d
000000a0: 2406 64be 3c93 e13e 81b3 9ebe e1c0 e83e
000000b0: 5621 853f b9fd 883f 4393 17bf 790e 9a3e
000000c0: df4b 39bf 7eaf 1d3f 512c 183f 85a6 1b3e
000000d0: 488b b73d e786 273e 41b8 c1bf ffc6 61bf
000000e0: aeb9 ccbe 0152 f93e f9b9 413e a51e d7be
000000f0: 400b 4a3c 5470 af3e 9bfc 173f 9916 e8be
00000100: c934 8e3c 0640 7a3f 4b0c 453f 4e61 103f
00000110: 2da9 91bf 6c18 f4be f8a6 acbe 7bb8 22bf
00000120: 5cdb 2fbd cbcc cc3e 8911 efbd 2c37 873d
00000130: cbac 533f e8ff c53d 68dd 783e 5d85 05bf
00000140: 9357 ab3e fb51 f13e 66f5 093e 3ce3 173f
00000150: b413 2abf 34df 82bf fa4e 38be 3a03 df3e
00000160: ac1a ce3c 4f31 1fbf e872 d13e 7f94 dbbe
00000170: c65b 8f3f 2952 b7be 1475 7dbe 1eda aa3e
00000180: b3f4 08bf c13b 303f b3eb b0be c9ed df3e
00000190: 898f 1f3e 1d0d 52bd a173 f4bf 2f25 133f
000001a0: b19c f0bd abb3 133e 8571 a83e 4392 133c
000001b0: 32c9 3cbf b92d eb3d 461a 19be 0215 8b3e
000001c0: 1a0d 95be 17be 9e3e 6f5e 96be 1a09 bd3e
000001d0: 4c39 85be 5786 df3e cf23 ce3d 6f3f b6be
000001e0: 375a 3dbf 3cc3 f2be 732d bdbe c2e9 3c3d
000001f0: 700f 49bf 61e2 13bf 05ff f8be 0b4b babd
00000200: c8df 91bf 2f60 e2bd ec08 23bf 4408 35bf
00000210: f0e9 e03e 6ea5 57bf d569 293f 1a5a c33d
00000220: d0e4 93bd fea9 f6be 62d9 153c e333 a8be
00000230: a30f adbe ccc7 d93e d008 a2be 86a1 7abf
00000240: beec a9be db9a 21bf 72b6 cfbd 1a16 a3be
00000250: a4de 093f f696 c2bf 608c d5be 92ad 44be
00000260: 75df 213f b3a2 ba3f a127 fabe e75a 733e
00000270: 04eb 683f 1c85 1f3e 289b b9bf 8645 64bf
00000280: 5053 723f 1203 723f 3352 b13e d378 f5bd
00000290: 6a32 083d 49fa e6be 3efa 09bb 8270 583d
000002a0: 4445 603f 66aa e33f cfae 2bbf 56ab 3a3e
000002b0: 0167 19be 0df3 57be 1d37 0f3f 9915 87be
000002c0: 5e52 003f 7440 dd3e 49ad 9f3e 571c 25bf
000002d0: 5dfe 253f 665b 3b3f 4bc8 243d 70fd 54bf
000002e0: 750b 903f 30a0 01bf 90b5 353f 9b66 0cbf
000002f0: 281e 173f dd19 1fbd 5b24 d3bd f5ba 24bf
00000300: 750d 003f fedc 94bf 805b 95bd 3bb8 00bf
00000310: 2c17 973d f29c 89bf 8c1a 91be 3e89 92bf
00000320: 14ca 513d da99 4abf d1af bfbe 0630 99bf
00000330: 983a 9bbe 3cb9 acbe bf3d f23e d6e0 593d
00000340: bb58 bb3e 0122 1abe e596 33bf 3c6f 43bd
00000350: 26bb 613f 127c 37bf db9a 79bc 8ef7 613e
00000360: e7e4 783c 23e2 21bf bd7b 863f ec99 59bd
00000370: 7f69 59be 4ec4 21bf ff18 2a3f 838d ffbe
00000380: 4682 ac3f 66e8 8dbf f929 e4bd 1a3c f2be
00000390: adf9 dc3e a005 413e a22d 9d3e 32a4 d8bd
000003a0: 851d 313e 3a5f 91bf 592a 0f3f 765b 353e
000003b0: c040 343e f88b f0bc e85c adbe bb07 4bbf
000003c0: 29b8 8ebf 7108 b03e 9aec 1abf ef9f a93e
000003d0: 04a4 203e 13ee ef3e 0258 51bf 88a4 603d
000003e0: 6592 0cbf 4267 bc3e 20c7 02bf 9acd 533d
000003f0: 6246 42bd 0c53 fe3c 3fa0 9abc e56f 2fbf

fc2.bias f4 [256]
-0.27770013 -0.96652305 -0.05403166 -0.6281458 -0.49318504 -0.7228661 -1.3209307 -0.3204246
-1.057972 -1.200162 -0.2588955 -0.3862703 0.088320464 -1.3166925 -0.20094568 -0.04319603
-0.6460819 -0.7050142 -1.3640237 -3.8336744 -0.7319756 -1.1515051 -0.6832448 -0.3077565
-0.65464735 0.35834202 -0.50570375 -1.494016 -0.8632316 -1.3416137 -0.756797 -0.41977763
-0.60533154 -1.3437848 -0.579645 -0.18783891 -0.4168165 -0.40610355 -0.083936244 -0.64502543
-0.4574296 -1.5223168 0.0034850126 -0.10008152 -1.0559849 -0.8446006 -0.75812733 -1.1437266
-0.6040423 -1.3273995 -0.7791898 -1.1001139 -1.0329164 -0.55022466 -1.2682188 -3.9359243
-1.2941153 -0.25164983 -0.910765 -0.67893165 -1.3581007 -0.39767852 -1.2906052 -0.6944761
-1.0337789 -1.5038286 -0.24114028 0.14378084 -0.620087 -1.3033189 -0.14120671 -1.0497139
-0.41248563 -0.6405048 -3.7161672 -0.707766 0.052542668 -1.5505292 -0.6077863 -0.56010437
-3.9118483 -0.7750265 -1.4305906 -0.7787679 -1.0174377 0.6021252 -3.3651934 -0.49079308
-1.0103287 -0.48359275 -1.496593 -0.09461371 -1.1687082 -0.5293405 -1.527297 -0.82359135
-0.18511212 -0.89691055 -0.8043918 -0.17358713 0.14679345 0.13920021 -0.3823175 -0.9076884
-1.5680032 -0.2776535 -0.9101334 -0.012380518 -0.32386556 -0.9895361 -0.3736874 -0.5641195
-0.12092072 -0.16098435 -0.4364901 -0.90558416 -1.1717314 -0.84689105 -0.5321419 -1.3597845
-0.46313328 -1.3356354 -0.43217832 -0.071443826 -0.55348015 -1.5860053 -1.3287138 -1.6280566
-1.1997908 0.057689615 -0.4570072 -0.2274246 -0.60377765 -0.67947984 -0.19996025 -0.4708338
-0.42415452 -1.0066838 -0.4548469 -0.56099564 -0.42134917 -0.8033413 -0.7625482 0.9535859
-0.86395067 -0.60362273 -1.9814955 -0.44689104 -1.3111073 -0.6056489 -0.9977196 -0.26681146
-2.553621 -0.17842422 -0.35078943 -1.2627214 -1.0159109 -0.7156774 -0.7624101 -0.21063758
-0.523159 -0.2166067 -0.45433775 -0.3020387 -0.6544362 -0.21952938 -0.7564145 -0.6635928
-1.0421969 -0.70598006 0.27460492 -0.367215 -0.1945214 -1.166379 -0.5218142 -1.066405
-0.28933692 -0.15075414 -0.31812954 -1.1325444 -0.55615276 -1.2339164 -1.0929164 -0.63048583
-0.7202746 -0.07648819 -0.83918613 -0.67971414 -0.17936835 -1.6557755 -1.3199024 -1.18006
-0.21018931 -1.1133307 -1.1204083 -0.5064872 -0.36206812 -0.29110682 -0.9615707 -0.69691575
-0.8693634 -0.2375604 -0.4272592 -0.99967 -1.0991333 -1.4593238 -1.5433239 -0.4890872
-0.3031488 -0.72031164 -1.0268775 -0.4340234 -0.9995978 -0.5469169 -0.5511808 0.087080345
-0.12858045 -1.405367 -0.22705565 -0.4674684 0.5128695 -0.9579712 -0.22074445 -0.11748504
-1.3546494 0.6675099 -0.16115685 -0.80710846 -0.33108333 -0.25414425 -0.52295583 -0.749356
0.07478132 -0.69030327 -1.2214166 -0.5976876 -1.396527 -0.36427262 -1.2786783 -0.47159693
-1.2190202 -0.6595049 -0.47326356 -1.7963716 -3.9578266 0.65906817 -0.35694155 -0.032624286
0.048596468 -0.29566026 -1.3545334 -0.79164886 -1.7331587 -3.965812 -1.2478126 -0.4075886
00000000: b62e 8ebe 0e6e 77bf 4d50 5dbd 2ace 20bf
00000010: c082 fcbe c10d 39bf 4214 a9bf b10e a4be
00000020: a06b 87bf e99e 99bf f38d 84be 39c5 c5be
00000030: 5ce1 b43d 6189 a8bf b4c4 4dbe 52ee 30bd
00000040: a065 25bf d07b 34bf 5498 aebf ec5a 75c0
00000050: c162 3bbf 8564 93bf 22e9 2ebf 4392 9dbe
00000060: f896 27bf 9b78 b73e cd75 01bf eb3b bfbf
00000070: bffc 5cbf ffb9 abbf 73bd 41bf 18ed d6be
00000080: 02f7 1abf 2401 acbf 9d63 14bf d858 40be
00000090: f968 d5be ceec cfbe c4e6 abbd 6320 25bf
000000a0: 3634 eabe 47db c2bf cf64 643b 8af7 ccbd
000000b0: 832a 87bf bf37 58bf a214 42bf a265 92bf
000000c0: 84a2 1abf 3ae8 a9bf fc78 47bf 88d0 8cbf
000000d0: 9b36 84bf 86db 0cbf fe54 a2bf 2fe6 7bc0
000000e0: 92a5 a5bf 3fd8 80be e527 69bf 77ce 2dbf
000000f0: 3ed6 adbf 859c cbbe 8d32 a5bf 30c9 31bf
00000100: de52 84bf 757d c0bf 7aed 76be 493b 133e
00000110: 06be 1ebf 27d3 a6bf 7e98 10be 065d 86bf
00000120: 5131 d3be 1ff8 23bf afd5 6dc0 2730 35bf
00000130: fb36 573d be77 c6bf e297 1bbf 0063 0fbf
00000140: b95b 7ac0 2368 46bf 981d b7bf 555d 47bf
00000150: 663b 82bf e124 1a3f 545f 57c0 3b49 fbbe
00000160: 7352 81bf 7899 f7be 5c90 bfbf d5c4 c1bd
00000170: 3b98 95bf dc82 07bf 787e c3bf e2d6 52bf
00000180: 088e 3dbe ee9b 65bf 9fec 4dbf d3c0 31be
00000190: 0651 163e 808a 0e3e 1fbf c3be 445e 68bf
000001a0: 54b4 c8bf 9928 8ebe 81fe 68bf a8d7 4abc
000001b0: b5d1 a5be 3d52 7dbf f453 bfbe 236a 10bf
000001c0: 48a5 f7bd 15d9 24be a17b dfbe 5dd4 67bf
000001d0: 4bfb 95bf dacd 58bf 743a 08bf 6b0d aebf
000001e0: ce1f edbe 1af6 aabf 7a46 ddbe 2451 92bd
000001f0: e0b0 0dbf 3902 cbbf 4b13 aabf 2964 d0bf
00000200: bf92 99bf f24b 6c3d d9fc e9be ffe1 68be
00000210: 2c91 1abf 64f2 2dbf 61c2 4cbe 2111 f1be
00000220: c82a d9be 04db 80bf b1e1 e8be 699d 0fbf
00000230: 14bb d7be c7a7 4dbf 5c36 43bf 351e 743f
00000240: df2b 5dbf 0587 1abf a5a1 fdbf e7ce e4be
00000250: 5dd2 a7bf ce0b 1bbf 8d6a 7fbf 839b 88be
00000260: 876e 23c0 d7b4 36be ac9a b3be dba0 a1bf
00000270: 5e09 82bf a236 37bf 4f2d 43bf 61b1 57be
00000280: c0ed 05bf 26ce 5dbe f59e e8be d1a4 9abe
00000290: 2189 27bf 4fcc 60be 61a4 41bf 38e1 29bf
000002a0: b566 85bf 1cbb 34bf 0499 8c3e 9b03 bcbe
000002b0: 9e30 47be e84b 95bf 9e95 05bf f67f 88bf
000002c0: f823 94be 4b5f 1abe e0e1 a2be 37f7 90bf
000002d0: 0760 0ebf f9f0 9dbf afe4 8bbf 8567 21bf
000002e0: eb63 38bf d7a5 9cbd e7d4 56bf bf01 2ebf
000002f0: 56ac 37be 74f0 d3bf 90f2 a8bf 350c 97bf
00000300: de3b 57be 9f81 8ebf 8a69 8fbf 25a9 01bf
00000310: fe60 b9be f40b 95be 7f29 76bf 1269 32bf
00000320: 9a8e 5ebf 0943 73be b8c1 dabe 60ea 7fbf
00000330: 66b0 8cbf 1fcb babf a38b c5bf a369 fabe
00000340: 5236 9bbe 5866 38bf b970 83bf 5138 debe
00000350: a4e5 7fbf bf02 0cbf 2f1a 0dbf 2e57 b23d
00000360: 98aa 03be 11e3 b3bf 4781 68be 0558 efbe
00000370: 6a4b 033f 9a3d 75bf d50a 62be ff9b f0bd
00000380: 2765 adbf eee1 2a3f 4d06 25be a99e 4ebf
00000390: c183 a9be 321f 82be 6fe0 05bf cbd5 3fbf
000003a0: f326 993d b7b7 30bf 6157 9cbf 0e02 19bf
000003b0: 66c1 b2bf f181 babe bbab a3bf 2775 f1be
000003c0: db08 9cbf 50d5 28bf 9a4f f2be 81ef e5bf
000003d0: 084d 7dc0 b1b8 283f 0bc1 b6be 0ba1 05bd
000003e0: 170d 473d c860 97be 5a61 adbf 80a9 4abf
000003f0: 25d8 ddbf ddcf 7dc0 53b8 9fbf 74af d0be
