checkpoint_actor.pth (torch_old, 56259 bytes, 14 tensors)

fc1.weight f4 [128, 33]
-0.057672687 -0.043958835 -0.007641909 -0.023792274 -0.060943224 0.03029469 -0.08169152 0.05699416
-0.012733362 -0.05663928 -0.035382453 0.060371827 0.053534545 0.055810533 -0.048225645 -0.031687696
0.012784209 -0.025479399 -0.021980306 0.018444085 0.08071514 -0.03810266 -0.014639367 -0.027635483
-0.07876799 0.0022054191 -0.04027833 0.06948186 0.062393755 -0.08726862 0.02770954 -0.06677587
-0.06304189 0.072689384 0.083138384 -0.056494206 0.015544883 -0.0442889 0.116810165 0.042933777
-0.14105451 0.061291873 -0.06957287 -0.021687591 0.035159107 -0.050782856 -0.074734055 0.061425712
0.0723395 -0.0066443826 0.03180791 0.09022929 -0.01138436 -0.033176467 -0.00036197816 -0.039240737
0.011716348 -0.0073626214 -0.028546285 -0.012922188 0.19034323 -0.0102398405 -0.0414667 -0.14395867
0.058877 0.1595339 -0.07650895 0.056350384 0.046843886 -0.06319912 -0.01908704 0.005095124
0.050722305 -0.017053343 -0.039450653 -0.006818169 -0.05470391 0.0105950255 -0.04177051 0.02349262
-0.02235509 -0.014986803 0.088074625 0.026349226 0.067797564 0.052601427 -0.06553893 -0.091637544
0.016435137 0.042014807 -0.01191667 0.0032906428 -0.028957091 0.13089329 0.00062636187 -0.0005182922
-0.032886315 0.086957626 0.039795604 0.038921945 -0.022747679 -0.06674313 0.009792087 -0.063128866
0.024114462 -0.07878099 -0.051134497 -0.03162904 0.032179564 0.043306734 0.017493611 0.041650005
-0.052039485 -0.06462363 0.017160563 0.041868977 -0.026351672 -0.09647516 0.057750996 0.029255804
0.06503389 -0.03275771 0.051665887 -0.062799096 0.029186156 0.02103956 0.033044472 0.006742413
-0.08229803 -0.010273223 -0.08579388 0.025165142 0.076488845 -0.018418621 -0.062189687 0.00016712975
0.0851976 0.0012612268 -0.00486472 0.031454198 0.07600272 -0.010876083 -0.100971796 0.019414857
-0.056068897 0.07161952 0.045311246 0.045607027 -0.024273429 -0.05328202 0.073660605 -0.07160829
0.0726473 0.033193182 0.056363773 -0.07851381 -0.049739063 -0.028926965 -0.046863127 -0.08431367
-0.031778615 0.08445936 0.07471971 0.07899963 0.034761377 -0.047981024 0.08840854 0.0633313
-0.028569415 0.005839488 0.049887557 0.009293109 -0.008173333 -0.076173864 -0.018382208 -0.07890802
0.068482034 0.08303127 0.021136967 -0.043925513 -0.04665263 -0.00786665 0.042103596 0.07252092
0.02831573 -0.04673541 0.046417866 -0.011958271 -0.01028985 0.016523926 -0.04311487 0.019403707
0.02247358 -0.017982433 -0.08679189 -0.08079187 0.0771509 -0.06646567 -0.03610275 -0.036329266
0.056618754 -0.023371195 -0.070709914 0.06675531 0.081362545 0.00019987387 -0.06864769 0.048729192
0.036547847 0.01065985 -0.006354142 0.016160345 -0.065165356 0.06728748 -0.005618849 -0.08230739
0.07004187 -0.029173985 -0.00025224203 0.04386349 0.021391377 0.06743095 -0.08431106 0.025246784
0.00593109 -0.000108095075 -0.046557903 -0.05772409 0.027447324 0.0065069497 0.008348651 0.04271276
0.010987254 0.011725837 0.05260947 7.3198666e-05 0.084870055 -0.07175226 0.02606038 0.024412774
0.009989847 -0.027476514 -0.017988013 0.024674859 -0.006286901 -0.07318726 -0.07606931 -0.039197747
-0.078521885 -0.031097231 0.023676816 -0.051889878 0.008906205 0.08057925 -0.042062867 0.08418767
00000000: 323a 6cbd 2e0e 34bd fb68 fabb 04e8 c2bc
00000010: 9a9f 79bd 922c f83c e24d a7bd b572 693d
00000020: 979f 50bc 97fe 67bd 31ed 10bd 7348 773d
00000030: 0a47 5b3d 9699 643d 4188 45bd f5ca 01bd
00000040: dc74 513c 2cba d0bc 0b10 b4bc 0d18 973c
00000050: fb4d a53d 8911 1cbd f5d9 6fbc cf63 e2bc
00000060: 1d51 a1bd cb88 103b e4fa 24bd 814c 8e3d
00000070: 9890 7f3d e4b9 b2bd 1eff e23c cac1 88bd
00000080: 1b1c 81bd 2cde 943d 7544 aa3d 7866 67bd
00000090: f7af 7e3c 4768 35bd 2b3a ef3d 54db 2f3d
000000a0: 9870 10be 300d 7b3d 397c 8ebd 2daa b1bc
000000b0: ff02 103d af01 50bd 2b0e 99bd 8799 7b3d
000000c0: bb26 943d 1fb9 d9bb 0349 023d 22ca b83d
000000d0: 7785 3abc 0ce4 07bd e3c7 bdb9 e5ba 20bd
000000e0: edf5 3f3c 2542 f1bb e6d9 e9bc 96b7 53bc
000000f0: 56e9 423e 01c5 27bc fdd8 29bd e769 13be
00000100: 0229 713d db5c 233e b9b0 9cbd a9cf 663d
00000110: 60df 3f3d 8a6e 81bd 6d5c 9cbc fff4 a63b
00000120: 31c2 4f3d 74b3 8bbc 0297 21bd f26a dfbb
00000130: 3511 60bd c296 2d3c 8e17 2bbd 9873 c03c
00000140: 0622 b7bc 358b 75bc 7860 b43d 55da d73c
00000150: 73d9 8a3d 9874 573d 4639 86bd 77ac bbbd
00000160: fba2 863c b817 2c3d 233e 43bc d3a7 573b
00000170: 6c37 edbc e408 063e 6f32 243a 00de 07ba
00000180: cdb3 06bd d716 b23d b700 233d 9e6c 1f3d
00000190: 5759 babc 9fb0 88bd fd6e 203c b549 81bd
000001a0: b18b c53c ed57 a1bd 6872 51bd 748d 01bd
000001b0: b8ce 033d 6762 313d c34e 8f3c 3299 2a3d
000001c0: 5b27 55bd 6559 84bd 4f94 8c3c ce7e 2b3d
000001d0: 76df d7bc c594 c5bd 4f8c 6c3d dea9 ef3c
000001e0: 7d30 853d f32c 06bd 9c9f 533d d09c 80bd
000001f0: ce17 ef3c 285b ac3c a459 073d 76ef dc3b
00000200: df8b a8bd 0551 28bc b4b4 afbd 2127 ce3c
00000210: 2fa6 9c3d a6e2 96bc 9dba 7ebd 8d3f 2f39
00000220: 147c ae3d c04f a53a 3b68 9fbb 1ed6 003d
00000230: 50a7 9b3d 9931 32bc 4dca cebd e80b 9f3c
00000240: 80a8 65bd 41ad 923d 4998 393d 6fce 3a3d
00000250: 12d9 c6bc 3f3e 5abd 5fdb 963d 5ea7 92bd
00000260: 1cc8 943d 93f5 073d b3dd 663d d9cb a0bd
00000270: 30bb 4bbd 3ef8 ecbc 8df3 3fbd a5ac acbd
00000280: 4b2a 02bd 07f9 ac3d a606 993d 8fca a13d
00000290: f261 0e3d c087 44bd 890f b53d d7b3 813d
000002a0: 680a eabc 2d59 bf3b e556 4c3d 2042 183c
000002b0: 71e9 05bc 0b01 9cbd 4996 96bc 879a a1bd
000002c0: 4f40 8c3d 4c0c aa3d 6f27 ad3c 3deb 33bd
000002d0: d416 3fbd 1fe3 00bc d274 2c3d d985 943d
000002e0: 64f6 e73c a16d 3fbd a920 3e3d a0ec 43bc
000002f0: c296 28bc 2f5d 873c 3899 30bd 86f4 9e3c
00000300: 831a b83c e54f 93bc f2bf b1bd 3576 a5bd
00000310: 4b01 9e3d 271f 88bd 7ae0 13bd ffcd 14bd
00000320: 11e9 673d f374 bfbc 5cd0 90bd 02b7 883d
00000330: 68a1 a63d 3c95 5139 2997 8cbd 4398 473d
00000340: 32b3 153d a7a6 2e3c 6836 d0bb b362 843c
00000350: 6a75 85bd 05ce 893d 521e b8bb c790 a8bd
00000360: 1d72 8f3d 48fe eebc 5a3f 84b9 34aa 333d
00000370: f83c af3c 3d19 8a3d 47ab acbd 58d2 ce3c
00000380: 9759 c23b 1ab1 e2b8 80b3 3ebd 1870 6cbd
00000390: 36d9 e03c 4038 d53b c8c8 083c 93f3 2e3d
000003a0: e203 343c ba1d 403c 077d 573d 3c82 9938
000003b0: 5ad0 ad3d d9f2 92bd 947c d53c 4cfd c73c
000003c0: 75ac 233c 6d16 e1bc 995b 93bc ee22 ca3c
000003d0: 5902 cebb 34e3 95bd 3aca 9bbd d18d 20bd
000003e0: 15d0 a0bd 9fbf febc e2f5 c13c 7b8a 54bd
000003f0: 55eb 113c bc06 a53d 1d4a 2cbd 966a ac3d

fc1.bias f4 [128]
0.12693858 0.009562728 -0.14789137 -0.00076573505 -0.035664044 0.019898828 0.160523 -0.14779498
-0.16820452 0.06769664 -0.23089556 0.08699434 0.090228856 -0.09815096 -0.12966278 0.15816796
-0.11256993 -0.074872054 -0.17055567 0.0952405 -0.16030344 -0.14761473 -0.04411393 -0.13782233
0.024604317 0.025050623 -0.09233428 -0.15560342 -0.1745177 0.0722386 0.0983661 -0.11429984
0.0076423152 -0.07555015 -0.07124707 0.101518266 -0.1907793 0.10963616 -0.20288837 -0.054593127
0.029768797 0.107240595 -0.12260491 0.1130079 -0.08780588 0.16695026 -0.1532908 -0.13662307
0.10556712 0.015186654 0.12606671 0.10836399 0.04293948 -0.14718524 0.0779301 0.024765393
0.13502036 -0.0064267167 0.082759924 -0.05164948 0.023501655 0.08877583 0.016602516 -0.26454258
-0.14929353 -0.038527872 0.038253035 0.05999754 -0.058611065 -0.17842875 -0.15382281 -0.10110784
0.10517869 -0.0046222215 0.063574344 -0.05685465 0.1340299 -0.1432928 0.011993982 -0.22748417
-0.067425534 0.083712675 0.10698357 0.11579809 0.09026233 -0.14639138 0.03219889 -0.072449595
0.06683552 -0.052981798 -0.20867474 0.06905517 -0.062250532 -0.031321134 0.12249694 -0.09197521
0.010681182 -0.22186176 0.108375795 0.00541769 -0.19643179 0.05352176 -0.07138962 0.07553711
0.044851307 -0.1392744 -0.006130266 -0.18097241 0.045546122 -0.054539744 0.021491352 -0.14226209
0.16848633 0.11961299 -0.11974871 -0.15872486 0.19180454 0.14311333 -0.052548993 -0.12094083
-0.11300209 0.1610957 0.09009213 0.057231653 0.004595491 0.052775968 0.10540857 0.02992717
00000000: 30fc 013e fdac 1c3c d670 17be 9cbb 48ba
00000010: 7614 12bd de02 a33c 2460 243e 9157 17be
00000020: ce3d 2cbe 89a4 8a3d e36f 6cbe 172a b23d
00000030: e8c9 b83d 5f03 c9bd 52c6 04be c8f6 213e
00000040: 108b e6bd 8556 99bd 25a6 2ebe 740d c33d
00000050: 9626 24be 5128 17be cfb0 34bd 4c21 0dbe
00000060: fe8e c93c f736 cd3c c119 bdbd 8156 1fbe
00000070: c5b4 32be d5f1 933d 2a74 c93d 0916 eabd
00000080: 636c fa3b 09ba 9abd fce9 91bd cfe8 cf3d
00000090: a65b 43be ec88 e03d f8c1 4fbe 0b9d 5fbd
000000a0: b1dd f33c f5a0 db3d 4818 fbbd b070 e73d
000000b0: 92d3 b3bd 02f5 2a3e 43f8 1cbe ebe6 0bbe
000000c0: 9333 d83d 72d1 783c a217 013e f1ed dd3d
000000d0: 4fe1 2f3d bab7 16be d199 9f3d cbe0 ca3c
000000e0: c742 0a3e 3597 d2bb 097e a93d 688e 53bd
000000f0: 8b86 c03c 1ad0 b53d 0002 883c 2072 87be
00000100: 67e0 18be 67cf 1dbd 37af 1c3d fbbf 753d
00000110: 2812 70bd 07b6 36be ba83 1dbe a111 cfbd
00000120: ed67 d73d 0176 97bb 4433 823d 6ce0 68bd
00000130: 223f 093e 59bb 12be 6882 443c 9cf1 68be
00000140: 6616 8abd 8d71 ab3d 341a db3d 8d27 ed3d
00000150: 75db b83d 9fe7 15be fce2 033d 7460 94bd
00000160: 10e1 883d 7103 59bd d5ae 55be cc6c 8d3d
00000170: 6afa 7ebd 974a 00bd addf fa3d 805d bcbd
00000180: 2000 2f3c bb2f 63be 21f4 dd3d e186 b13b
00000190: 6a25 49be a239 5b3d b934 92bd 33b3 9a3d
000001a0: 01b6 373d f39d 0ebe 66e0 c8bb d550 39be
000001b0: 928e 3a3d 1165 5fbd a20e b03c 27ad 11be
000001c0: ae87 2c3e a8f7 f43d d03e f5bd c588 22be
000001d0: 6968 443e 4d8c 123e 9d3d 57bd d3af f7bd
000001e0: a46d e7bd 45f6 243e 3982 b83d bd6b 6a3d
000001f0: c695 963b 9d2b 583d 73e0 d73d d329 f53c

bn1.weight f4 [128]
0.2834805 0.99203265 0.51942736 0.76190025 0.98633975 0.85881287 0.24836928 0.36523703
-0.0075044725 0.07601005 0.14966576 0.24249588 0.0352841 0.20850979 0.36700824 0.47949278
0.9690365 0.49260908 0.3858424 0.6635178 0.78005856 0.8080772 0.30461335 0.79881114
0.58093095 0.056687072 0.8496636 0.8368307 0.8818848 0.081224 0.54123336 0.43661934
0.6765523 0.8669937 0.7427201 0.70502377 0.49736926 0.9057428 0.86705446 0.7648526
0.83804345 0.8229946 0.40241626 0.32619166 0.9442331 0.10878128 0.6748168 0.20172594
0.34785804 0.8337905 0.12193775 0.26331297 0.42669335 0.61438215 0.33261132 0.4023629
0.9447934 0.9028571 0.4746787 0.5355924 0.469554 0.86225957 0.061187595 0.6476421
0.14189151 0.7230446 0.5349943 0.22851962 0.5347927 0.16350973 0.10647114 0.5549419
0.47904515 0.43184114 0.7112645 0.8261808 0.35411254 0.38560104 0.5252938 0.36928147
0.811717 0.15597737 0.33565193 0.70183146 0.8472075 0.2746102 0.68560433 0.37034342
0.23312725 0.59480166 0.0403491 0.6632488 0.69191486 0.9895885 0.038149748 0.3318626
0.37399346 0.574485 0.12116789 0.04155196 0.43842486 0.4022536 0.71348816 0.1573904
0.20000571 0.282813 0.6600564 0.7255653 0.83474666 0.38344648 0.67873955 0.53963727
0.01932424 0.46346143 0.20758918 0.6951889 0.9389932 0.41914812 0.4256757 0.43967786
0.41189858 0.4228456 0.0216151 0.26559615 0.39209232 0.5133178 0.14526543 0.94584656
00000000: 5b24 913e daf5 7d3f 31f9 043f e50b 433f
00000010: c380 7c3f 29db 5b3f 8454 7e3e 5900 bb3e
00000020: 14e8 f5bb 28ab 9b3d fb41 193e d750 783e
00000030: 0f86 103d 9783 553e 81e8 bb3e 1480 f53e
00000040: c712 783f 4237 fc3e 238d c53e 4ddc 293f
00000050: ebb1 473f 26de 4e3f 48f6 9b3e e37e 4c3f
00000060: e4b7 143f b430 683d 8e83 593f 893a 563f
00000070: 34c3 613f c558 a63d 458e 0a3f 928c df3e
00000080: 8832 2d3f 4df3 5d3f e822 3e3f 707c 343f
00000090: 2fa7 fe3e c3de 673f 48f7 5d3f 61cd 433f
000000a0: 048a 563f c6af 523f 8109 ce3e 9802 a73e
000000b0: 43b9 713f b8c8 de3d cbc0 2c3f 3f91 4e3e
000000c0: 731a b23e 4b73 553f 80ba f93d f5d0 863e
000000d0: 8d77 da3e 2648 1d3f 084c aa3e 8302 ce3e
000000e0: fbdd 713f a521 673f 1609 f33e 951c 093f
000000f0: 6269 f03e 0bbd 5c3f d89f 7a3d dfcb 253f
00000100: 024c 113e 7319 393f 63f5 083f 0c01 6a3e
00000110: 2de8 083f 186f 273e 8b0d da3d ac10 0e3f
00000120: 6845 f53e 481a dd3e 6e15 363f 9680 533f
00000130: 3d4e b53e 806d c53e a879 063f 7612 bd3e
00000140: afcc 4f3f 88b8 1f3e 92da ab3e 3aab 333f
00000150: 97e2 583f b599 8c3e c483 2f3f a79d bd3e
00000160: e9b8 6e3e ec44 183f 1945 253d acca 293f
00000170: 5521 313f ac55 7d3f e942 1c3d e5e9 a93e
00000180: 127c bf3e 7311 133f df26 f83d 6332 2a3d
00000190: 3979 e03e 2ff4 cd3e 29a7 363f f32a 213e
000001a0: 4cce 4c3e decc 903e 75f9 283f a6be 393f
000001b0: f5b1 553f 1953 c43e e0c1 2d3f ab25 0a3f
000001c0: de4d 9e3c d14a ed3e 4292 543e e6f7 313f
000001d0: dc61 703f 959a d63e 2af2 d93e 751d e13e
000001e0: 5fe4 d23e 387f d83e 2612 b13c 38fc 873e
000001f0: 53c0 c83e cc68 033f 76c0 143e 0023 723f

bn1.bias f4 [128]
-0.042240623 -0.11477135 -0.061451115 0.011618886 -0.044151653 -0.04111341 -0.035690054 -0.04686082
0.14258711 -0.06763877 -0.14270304 -0.033404447 0.10340418 -0.05826379 0.045976046 -0.003021657
-0.009786718 -0.029879862 -0.06483303 0.04918283 -0.024550237 -0.07901476 0.01694591 -0.062088076
0.018802058 -0.07033704 0.03955804 0.056885388 0.017391168 -0.0062155314 -0.04654797 0.07484494
0.0050330996 -0.022214338 -0.0024426007 -0.02348124 -0.05560211 -0.042763244 -0.026808392 -0.04899556
0.044001035 -0.06630179 -0.07969494 -0.013594708 -0.05214412 0.09279196 -0.05912255 -0.039490707
-0.06267322 -0.06195847 -0.08156808 0.059261825 -0.058858283 -0.054757386 -0.015539148 -0.026160108
0.06370142 -0.07930001 0.055322737 0.073628165 -0.016947752 -0.04956077 0.091915235 -0.041197643
-0.074128255 0.062614724 -0.04337873 -0.048208557 -0.06318482 -0.07836476 -0.023174651 0.049114246
-0.036143314 -0.064076774 0.017300699 -0.013815287 0.08880674 0.0031930893 -0.03223397 -0.10684031
-0.03823826 -0.04697461 -0.044334948 -0.04445135 -0.027712552 0.057798065 -0.06689989 -0.052221365
0.058776554 -0.03611266 -0.10481384 -0.07119912 0.032726165 -0.03327269 -0.073501065 0.08283479
-0.07010551 -0.07222813 0.03934822 0.08087542 -0.06765175 0.046031393 -0.06456997 0.0748305
-0.047416653 0.005280542 -0.049166273 -0.029569045 -0.055316202 -0.03337147 -0.0070396434 -0.10849926
0.08774435 0.027946169 -0.04535626 -0.07629481 0.078758 -0.034630064 -0.039677918 -0.057550516
0.062358588 0.074452125 -0.096113816 -0.067011386 -0.05990722 -0.040836293 0.051373567 0.08180378
00000000: 8104 2dbd 3e0d ebbd 2ab4 7bbd 245d 3e3c
00000010: 5dd8 34bd 8966 28bd bc2f 12bd 22f1 3fbd
00000020: 5b02 123e 3286 8abd bf20 12be 1ad3 08bd
00000030: 92c5 d33d 03a6 6ebd 6151 3c3d fe06 46bb
00000040: 7858 20bc 9dc6 f4bc 2ec7 84bd ef73 493d
00000050: 941d c9bc 7ed2 a1bd 26d2 8a3c 1150 7ebd
00000060: c606 9a3c de0c 90bd 9d07 223d a700 693d
00000070: ec77 8e3c a8ab cbbb 16a9 3ebd 4e48 993d
00000080: b3ec a43b d8fa b5bc 0a14 20bb bb5b c0bc
00000090: 0abf 63bd 8328 2fbd 469d dbbc 91af 48bd
000000a0: 6e3a 343d 3cc9 87bd 1a37 a3bd 57bc 5ebc
000000b0: 1395 55bd b609 be3d 7d2a 72bd 02c1 21bd
000000c0: d15a 80bd 2ac8 7dbd 2a0d a7bd 87bc 723d
000000d0: 6215 71bd 4849 60bd e997 7ebc b94d d6bc
000000e0: e475 823d 0b68 a2bd 189a 623d 5dca 963d
000000f0: 03d6 8abc 3c00 4bbd 0e3e bc3d dcbe 28bd
00000100: 8ed0 97bd 263c 803d e5ad 31bd 5676 45bd
00000110: 0b67 81bd b47d a0bd c4d8 bdbc 052c 493d
00000120: 030b 14bd af3a 83bd 32ba 8d3c 8359 62bc
00000130: 4fe0 b53d 2643 513b c407 04bd 18cf dabd
00000140: b99f 1cbd 7368 40bd 9098 35bd 9e12 36bd
00000150: 6f05 e3bc aabd 6c3d cf02 89bd 12e6 55bd
00000160: afbf 703d deea 13bd a3a8 d6bd d8d0 91bd
00000170: df0b 063d f248 08bd ba87 96bd 49a5 a93d
00000180: 7a93 8fbd 58ec 93bd 992b 213d 03a2 a53d
00000190: 008d 8abd 6a8b 3c3d 433d 84bd bc40 993d
000001a0: f737 42bd 6608 ad3b 9362 49bd c83a f2bc
000001b0: 3e93 62bd 86b0 08bd cfac e6bb dc34 debd
000001c0: 4fb3 b33d 5def e43c 7cc7 39bd 7440 9cbd
000001d0: e04b a13d 41d8 0dbd 5085 22bd 17ba 6bbd
000001e0: b86b 7f3d 5b7a 983d 52d7 c4bd 443d 89bd
000001f0: 4661 75bd f543 27bd 176d 523d bd88 a73d

bn1.running_mean f4 [128]
1.2601943 0.0032750573 0.13594376 0.6156056 1.589423 0.3621918 1.4916083 1.1756222
0.50926965 0.41132846 0.004418573 1.238541 0.4318202 0.69575447 0.14906672 1.7619221
1.188967 1.6735598 1.7899619 0.48565754 1.0403036 1.7707746 0.8861729 0.2556475
1.1926272 1.0013005 0.0030929989 0.75029474 0.88703895 1.1573561 1.6912615 0.2464426
1.5070713 0.7844463 0.9971036 2.0786834 0.269338 1.673676 0.4058449 0.3151665
0.9845114 1.3767171 0.77159303 0.97873974 0.009197235 0.37776676 0.26540798 0.06551596
1.5948054 0.6808878 1.5963131 0.2181946 0.8793108 0.83897895 2.0177855 2.1454015
1.2671835 0.015825963 0.34487063 1.1655793 1.1904593 2.0402918 1.7816422 0.7130985
1.695475 1.5192114 2.325526 0.7372641 1.2927555 0.02484318 1.4746753 1.0710359
1.0654553 0.5939854 1.9233775 0.47803333 0.6198445 0.6458101 1.7471851 0.0043736505
1.7317578 1.4823127 0.19984001 1.5255783 0.5057314 0.5832612 1.0812298 1.3294955
0.0012889269 1.1452745 1.0680833 7.0784125e-05 0.4346846 0.33367229 1.4851178 0.6529069
0.42948404 0.2155044 0.06667245 0.9951488 0.07639928 0.752047 1.6142662 1.5208697
1.5915223 0.0011552041 1.4695045 0.445102 1.4795665 0.87562937 0.75069827 0.0001768248
1.8084391 0.52831614 1.3743076 0.62875676 0.33536014 1.1167064 0.5498213 0.057129584
0.2618823 0.5070351 1.233938 0.7959 0.99440324 1.1192356 0.03899959 0.37910903
00000000: 0c4e a13f 58a2 563b d734 0b3e 5498 1d3f
00000010: 3672 cb3f 3471 b93e 05ed be3f ca7a 963f
00000020: 7f5f 023f a599 d23e adc9 903b 8388 9e3f
00000030: 8a17 dd3e f71c 323f f2a4 183e aa86 e13f
00000040: 1230 983f 3537 d63f 791d e53f 1ba8 f83e
00000050: ab28 853f bea8 e23f 3adc 623f 3be4 823e
00000060: 02a8 983f 9d2a 803f e9b3 4a3b 5113 403f
00000070: fc14 633f 3f24 943f 427b d83f 735b 7c3e
00000080: b6e7 c03f 79d1 483f 2e42 7f3f 2609 0540
00000090: ace6 893e 043b d63f e7ca cf3e 815d a13e
000000a0: f008 7c3f 4438 b03f 1f87 453f b08e 7a3f
000000b0: 00b0 163c a56a c13e 8ee3 873e 3b2d 863d
000000c0: 9522 cc3f aa4e 2e3f fd53 cc3f 686e 5f3e
000000d0: 831a 613f 53c7 563f 6623 0140 424e 0940
000000e0: 1233 a23f 73a5 813c e292 b03e b431 953f
000000f0: f860 983f 2494 0240 da0c e43f a08d 363f
00000100: 5305 d93f 8575 c23f 6bd5 1440 57bd 3c3f
00000110: 0379 a53f ed83 cb3c 29c2 bc3f b417 893f
00000120: d760 883f 6d0f 183f 3c31 f63f c9c0 f43e
00000130: 21ae 1e3f d053 253f c3a3 df3f d750 8f3b
00000140: 3daa dd3f 6cbc bd3f dca2 4c3e 2646 c33f
00000150: 9d77 013f 9b50 153f bd65 8a3f e92c aa3f
00000160: 36f1 a83a 5b98 923f f4b6 883f f071 9438
00000170: fb8e de3e 18d7 aa3e 5718 be3f e824 273f
00000180: 55e5 db3e 2fad 5c3e 918b 883d 12c2 7e3f
00000190: 3a77 9c3d 2786 403f 46a0 ce3f dcab c23f
000001a0: 01b7 cb3f 386a 973a b918 bc3f 69e4 e33e
000001b0: 6f62 bd3f 3f29 603f c32d 403f 0c6a 3939
000001c0: ef7a e73f ba3f 073f 50e9 af3f 34f6 203f
000001d0: 53b4 ab3e 3cf0 8e3f 17c1 0c3f b600 6a3d
000001e0: 7015 863e 0dcd 013f aef1 9d3f 1ac0 4b3f
000001f0: 3691 7e3f 1d43 8f3f 09be 1f3d 941a c23e

bn1.running_var f4 [128]
2.080932 0.0003710765 0.06430401 0.66993016 2.8620179 0.26253363 3.2234836 2.007808
0.51411927 0.39933327 0.0006675843 1.7531778 0.46641502 0.89003736 0.096750714 4.2486396
2.1536307 4.6723285 6.2235146 0.33704206 2.0480118 4.3974633 1.2031341 0.19764553
1.3509984 1.6529955 0.0023862782 0.933756 1.4473706 2.0549312 4.040443 0.18719418
2.4315562 0.9167062 1.5823084 6.5123105 0.19668369 3.735449 0.39214838 0.16692758
1.6097412 2.6381311 1.2355388 1.3651482 0.0020327084 0.263647 0.19898397 0.018718047
3.7602077 0.82537746 3.8991375 0.166046 1.3801284 0.9218105 5.5704713 6.377401
1.1556191 0.0027333454 0.22585018 1.2940935 1.9164119 5.6722326 4.192195 1.1573626
4.774725 2.9566965 7.535481 0.69935155 2.1416671 0.0063634682 3.649229 1.7183802
1.7458032 0.558816 5.6387615 0.59340996 0.5152809 0.9424981 4.6162415 0.0006701642
4.680256 3.6109135 0.090958424 3.7843995 0.45307657 0.5618106 1.3677424 2.97067
0.0003922214 1.671124 2.1442583 4.947985e-06 0.26909816 0.30172405 2.9063668 0.8299926
0.21019264 0.1855048 0.025328599 1.1189395 0.03160651 0.8679739 4.689732 3.458975
4.272464 8.473163e-05 3.874964 0.4102689 4.1076913 1.354787 0.31690088 3.0253997e-05
4.666466 0.4322847 2.797552 0.7196384 0.2170632 1.2535963 0.63233054 0.024535786
0.11684417 0.60424984 2.2675762 1.1094276 1.7764543 2.3753972 0.021182014 0.24745484
00000000: fd2d 0540 0b8d c239 d2b1 833d 8b80 2b3f
00000010: 4d2b 3740 cf6a 863e 8e4d 4e40 ed7f 0040
00000020: 529d 033f 6975 cc3e d300 2f3a 2168 e03f
00000030: f3cd ee3e 7dd9 633f 3d25 c63d dbf4 8740
00000040: 16d5 0940 b783 9540 0827 c740 c790 ac3e
00000050: a012 0340 05b8 8c40 4c00 9a3f 9763 4a3e
00000060: 84ed ac3f 5b95 d33f 1b63 1c3b a20a 6f3f
00000070: 7143 b93f fe83 0340 4f4b 8140 d5af 3f3e
00000080: 9e9e 1b40 42ad 6a3f 1589 ca3f d964 d040
00000090: 7367 493e 9911 6f40 acc7 c83e 10ef 2a3e
000000a0: 000c ce3f 24d7 2840 2326 9e3f 2dbd ae3f
000000b0: 3037 053b bdfc 863e 74c2 4b3e 9756 993c
000000c0: 3ea7 7040 f04b 533f 788b 7940 f607 2a3e
000000d0: 0ca8 b03f c6fb 6b3f 4d41 b240 ab13 cc40
000000e0: 54eb 933f ed21 333b 4545 673e dba4 a53f
000000f0: fc4c f53f ee82 b540 7626 8640 7524 943f
00000100: 8cca 9840 843a 3d40 a922 f140 b408 333f
00000110: 1311 0940 a484 d03b f88c 6940 e2f3 db3f
00000120: 7b76 df3f 910e 0f3f bc70 b440 b7e9 173f
00000130: 73e9 033f 8e47 713f 40b8 9340 f5ad 2f3a
00000140: a8c4 9540 3519 6740 6948 ba3d 9a33 7240
00000150: a7f9 e73e d2d2 0f3f 2f12 af3f 751f 3e40
00000160: 11a3 cd39 64e7 d53f 873b 0940 de06 a636
00000170: 3cc7 893e 937b 9a3e ea01 3a40 657a 543f
00000180: bd3c 573e f8f4 3d3e ec7d cf3c 6939 8f3f
00000190: d475 013d 8a33 5e3f 4912 9640 d95f 5d40
000001a0: 06b8 8840 f3b1 b138 69ff 7740 c40e d23e
000001b0: 3572 8340 a969 ad3f d540 a23e f7c9 fd37
000001c0: b153 9540 6c54 dd3e 180b 3340 393a 383f
000001d0: d145 5e3e d875 a03f 6ae0 213f 46ff c83c
000001e0: ff4b ef3d 1eb0 1a3f f81f 1140 b901 8e3f
000001f0: db62 e33f 8206 1840 e785 ad3c cd64 7d3e

fc2.weight f4 [64, 128]
-0.000723121 0.000393169 -0.0022298845 0.002473806 0.0026729284 0.0011721444 0.0013017245 8.040946e-05
0.00227234 0.00076067774 0.0018624938 0.0010159588 0.0006871165 -0.0002798664 -0.002601128 0.0025594733
0.00082243513 -0.0006042796 0.0011389665 -0.002274654 0.0016622152 0.00017368188 -0.0001544638 -0.0024816734
0.00082100835 -0.002821728 0.0006426731 -0.0007871629 0.0017941529 0.0013327422 -0.0025235042 -0.0029762906
1.8625986e-05 -0.001244176 0.0028185556 0.0028160755 0.0008616501 0.001184714 0.0026967595 0.0013321778
-0.0024660295 -0.0010783697 0.0015953975 0.0018156557 0.001115445 -0.002517843 -0.00039771828 0.0008222584
0.0012206906 -0.0005776442 0.00036288425 -0.0013069764 0.0025791149 0.0013151322 -0.0022467044 -0.0028609189
0.0006727632 -0.0024176566 0.0012034588 0.0016435464 0.0023443466 -0.00094168563 0.0022450122 -0.0011769069
-0.002282672 0.00077904295 0.0008118453 0.0005503297 0.000343238 0.00053423643 0.0026699267 -0.0011602435
-0.00031912606 0.0014809901 0.0021465048 -0.001196154 0.0020936457 -0.0003539056 0.0028620744 0.0021728156
-0.0010942412 6.800983e-07 -0.00029161875 0.0018974231 -0.0020522608 -0.0005822957 0.0012845285 -0.00208127
-0.00056804833 0.0017198147 -0.0005650928 0.001100901 0.0014789202 0.00187317 0.0022083176 -0.0018277098
-0.0019254474 0.0028738184 -0.0008749217 0.0005980185 -0.0022494814 -0.0002079478 -0.0025417532 0.00047817128
0.00015386008 -0.00043952465 0.0021694694 0.002967549 -0.00047198194 -0.002684941 0.000822718 0.00063639204
0.0010432042 -0.0015174727 -0.001033044 -0.0022545934 -0.00217513 0.0010868511 -0.00021804566 0.0006763451
-0.002698249 -4.876731e-05 0.0017792024 0.00015043234 0.0025044936 -0.0028567289 0.0010871743 -0.0001120423
-0.0011559092 0.0010229687 -0.0012736842 -0.00090785534 -0.0011087975 -0.0014729606 -0.00198934 -0.0017340622
-0.00011510086 -0.00068911904 -0.0024385403 0.0017684089 0.0028000886 -0.0018872541 0.00045172134 -0.00072181056
-0.0005462671 -0.0029597871 0.00043889924 -0.0028526387 -0.0006541264 -0.00271726 -0.0026940468 -0.0020422365
-0.0020890008 0.00011627571 -0.0026533492 -0.0028568099 0.0015350898 -0.0011415787 -0.001984258 0.0027666008
0.0024868287 0.00036641693 0.001960602 -0.00055526075 -0.0011872051 -0.0014321724 -0.00023173205 0.00032572603
-0.0006804799 0.0013053901 0.002543146 -0.0015311636 -0.0012183809 0.0017305248 -0.0029246646 0.0028806021
-0.0009361788 0.0011207124 0.0020290245 0.0010239127 0.0019618024 0.0015883035 0.0022922375 -0.0004571103
-0.001298386 0.00055541785 0.0014915402 -0.0024827851 0.0015448318 0.001657824 0.0027269728 0.0025507864
-0.0020121068 0.0028012416 0.0026696676 -0.0007115383 0.0010737752 -0.0023889625 0.002394088 -0.0020800277
0.0001480949 -0.00071481743 -0.0007767877 -0.0015766945 0.0004819703 0.00079420255 -0.0015477081 0.0019683768
-0.0020972474 -0.0016516239 -0.0012509112 -0.0023913914 0.0004299805 0.0017896133 0.0013084688 -0.0027419764
-0.001817306 -0.0014100794 0.0025846043 0.0012351729 -0.0025745935 -0.0021429488 -0.0022408203 0.0011771952
-0.0022112476 -0.0030360154 0.0028756498 0.0011400941 -0.0019781417 0.0028421404 -0.0026765054 -0.0005227117
0.0018153688 -0.0009782916 -0.00025981123 0.0019788872 0.0014853084 -0.001955202 -0.0008899368 0.0019793299
-0.00052110566 0.002992369 -0.0030101023 0.002346559 0.0030802556 -0.0022885934 -0.00053043076 0.000108355125
0.0020060504 0.0009474095 -0.0003703573 -0.0010979648 -0.0020633372 0.000717718 0.0027359787 -0.0028078682
00000000: d48f 3dba 4022 ce39 4123 12bb 941f 223b
00000010: 4c2c 2f3b a4a2 993a a09e aa3a 80a1 a838
00000020: 8aeb 143b 3868 473a ec1e f43a ec29 853a
00000030: 9c1f 343a 08bb 92b9 b077 2abb d6bc 273b
00000040: b098 573a 8468 1eba 6049 953a 5d12 15bb
00000050: b0de d93a 601e 3639 90f7 21b9 92a3 22bb
00000060: f038 573a bdec 38bb 1079 283a 9c59 4eba
00000070: c829 eb3a 68af ae3a 6061 25bb df0d 43bb
00000080: 003f 9c37 9e13 a3ba 84b7 383b e88d 383b
00000090: 5ce0 613a 6848 9b3a 1ebc 303b 789c ae3a
000000a0: 1c9d 21bb 1558 8dba a81c d13a 4cfb ed3a
000000b0: 2034 923a 6502 25bb d884 d0b9 d48c 573a
000000c0: 94ff 9f3a 0c6d 17ba 8041 be39 da4e abba
000000d0: 5e06 293b 8460 ac3a 723d 13bb 417e 3bbb
000000e0: 605c 303a 8c71 1ebb 60bd 9d3a 446c d73a
000000f0: 9ca3 193b 74db 76ba 0e21 133b 7142 9aba
00000100: e298 15bb b038 4c3a 04d2 543a 0044 103a
00000110: a0f4 b339 000c 0c3a f0f9 2e3b 5013 98ba
00000120: 6050 a7b9 c81d c23a 60ac 0c3b 45c8 9cba
00000130: 8c35 093b 688c b9b9 a491 3b3b cc65 0e3b
00000140: a46c 8fba 0090 3635 68e4 98b9 f4b2 f83a
00000150: 397f 06bb 34a5 18ba a05d a83a eb65 08bb
00000160: 14e9 14ba 686b e13a bc22 14ba 1c4c 903a
00000170: 54d8 c13a 2885 f53a 6cb9 103b c48f efba
00000180: 4b5f fcba ac56 3c3b 005b 65ba 58c4 1c3a
00000190: 096c 13bb 900c 5ab9 8b93 26bb 10b3 fa39
000001a0: 8055 2139 0070 e6b9 a82d 0e3b 367b 423b
000001b0: 5874 f7b9 d6f5 2fbb acab 573a 8cd3 263a
000001c0: 20bc 883a efe5 c6ba 3467 87ba cdc1 13bb
000001d0: a08c 0ebb ac74 8e3a 30a3 64b9 c04c 313a
000001e0: 1bd5 30bb 808b 4cb8 2034 e93a 60bd 1d39
000001f0: 6e22 243b f537 3bbb 847f 8e3a 40f8 eab8
00000200: e081 97ba 2215 863a c0f1 a6ba 24fd 6dba
00000210: 1255 91ba 5b10 c1ba 965f 02bb 7949 e3ba
00000220: 4e62 f1b8 ffa5 34ba ebcf 1fbb f5c9 e73a
00000230: b181 373b bd5d f7ba 03d5 ec39 e337 3dba
00000240: 5d33 0fba fdf8 41bb 0f1c e639 56f3 3abb
00000250: ae79 2bba 0f14 32bb 9b8e 30bb 0bd7 05bb
00000260: 9ee7 08bb 0cd9 f338 d0e3 2dbb 5139 3bbb
00000270: 1135 c93a 06a1 95ba 530a 02bb dc4f 353b
00000280: 10fa 223b a61b c039 717d 003b eb8e 11ba
00000290: fe9b 9bba bbb7 bbba 19fd 72b9 35c6 aa39
000002a0: 3c62 32ba a019 ab3a e9aa 263b 53b1 c8ba
000002b0: 14b2 9fba c7d2 e23a bbab 3fbb 7cc8 3c3b
000002c0: e569 75ba dee4 923a 62f9 043b cf34 863a
000002d0: 9591 003b 9f2e d03a 5d39 163b 4ea8 efb9
000002e0: 9b2e aaba 7699 113a c97f c33a 39b6 22bb
000002f0: f47b ca3a 584b d93a 03b7 323b 182b 273b
00000300: 8ddd 03bb 0995 373b 97f5 2e3b 8786 3aba
00000310: ebbd 8c3a 2490 1cbb 22e6 1c3b 1351 08bb
00000320: ec49 1b39 9662 3bba 57a1 4bba 17a9 ceba
00000330: f5b0 fc39 0832 503a 77dc caba e2ff 003b
00000340: f971 09bb 4d7b d8ba 9df5 a3ba e4b8 1cbb
00000350: 016f e139 7591 ea3a ed80 ab3a bbb2 33bb
00000360: ac32 eeba 6ad2 b8ba 7762 293b 86e5 a13a
00000370: 83ba 28bb b770 0cbb bada 12bb 1e4c 9a3a
00000380: 94ea 10bb e3f7 46bb 6675 3c3b 366f 953a
00000390: b6a3 01bb 3443 3a3b 4f68 2fbb 9706 09ba
000003a0: abf1 ed3a 053a 80ba 4637 88b9 38b0 013b
000003b0: aeae c23a d922 00bb a64a 69ba a5b7 013b
000003c0: cf9a 08ba 9f1b 443b 2345 45bb bac8 193b
000003d0: 1dde 493b 3afc 15bb 9b0c 0bba b73c e338
000003e0: f177 033b 935b 783a 842c c2b9 96e9 8fba
000003f0: 0e39 07bb 3d25 3c3a 1b4e 333b 3604 38bb

fc2.bias f4 [64]
-0.075615145 -0.043194525 -0.07741073 -0.067609474 0.060301304 0.058504097 -0.07843043 -0.03868071
-0.04300737 -0.06620011 0.075838365 -0.014896768 0.08544383 -0.02774477 0.05413794 0.08040595
-0.0313354 -0.028051665 -0.041866597 0.07882204 -0.022624198 0.05159318 0.07477142 -0.03158814
-0.07108325 0.024859982 -0.0694738 -0.037930604 -0.016436491 0.08157779 -0.023940023 -0.075862475
0.06482501 -0.06109926 -0.07179703 -0.034873523 -0.02616421 0.0735243 -0.055166688 -0.06442922
-0.038056314 0.06891044 0.08514035 -0.03172337 0.041815344 -0.0341707 -0.002455088 -0.07423696
-0.03314954 0.086691536 0.015576922 -0.04838004 0.04778536 -0.030515095 -0.054003876 0.055792324
-0.06798238 -0.041120913 0.08035896 -0.03405978 -0.035761952 -0.052390743 -0.080481954 -0.03735364
00000000: 1ddc 9abd beec 30bd 8489 9ebd d676 8abd
00000010: 80fe 763d fea1 6f3d 22a0 a0bd aa6f 1ebd
00000020: 7f28 30bd ec93 87bd 2551 9b3d 9311 74bc
00000030: 2dfd ae3d 0049 e3bc bfbf 5d3d e0ab a43d
00000040: 8c59 00bd 9bcc e5bc 4f7c 2bbd 736d a13d
00000050: 6256 b9bc 5f53 533d c221 993d 9162 01bd
00000060: 1894 91bd 29a7 cb3c 4848 8ebd 1f5d 1bbd
00000070: d2a5 86bc 4212 a73d de1d c4bc c95d 9bbd
00000080: fac2 843d 3843 7abd 520a 93bd 8ad7 0ebd
00000090: 5356 d6bc e893 963d 77f6 61bd 78f3 83bd
000000a0: f0e0 1bbd eb20 8d3d 105e ae3d 5df0 01bd
000000b0: 9146 2b3d 93f6 0bbd 8be5 20bb 8c09 98bd
000000c0: d0c7 07bd 558b b13d 5936 7f3c 262a 46bd
000000d0: 95ba 433d cbfa f9bc 2b33 5dbd 7e86 643d
000000e0: 593a 8bbd 676e 28bd 3d93 a43d 4582 0bbd
000000f0: 207b 12bd ad97 56bd b9d3 a4bd 2100 19bd

bn2.weight f4 [64]
0.11550689 0.37803376 0.7714092 0.1033864 0.821991 0.3324803 0.45439774 0.9514367
0.5013714 0.1813721 0.88165724 0.30339003 0.29124323 0.39183587 0.84960586 0.38472423
0.4921164 0.6558192 0.33066052 0.80765563 0.5665838 0.2710197 0.33848307 0.6119176
0.07170212 0.9009034 0.41385072 0.13238175 0.69344187 0.59497064 0.69107556 0.37653214
0.96072793 0.9997298 0.8035804 0.4581798 0.7998019 0.6628664 1.1130484 0.31207114
0.13329738 0.6408914 0.69521564 0.5039798 0.6217445 0.28077075 0.8921726 0.56345564
1.0822917 0.23834538 0.48189494 0.4269449 0.57802427 0.3762691 0.99462205 0.6474594
0.6575499 0.13082235 1.1293494 0.6582737 0.30278853 0.74569076 0.47507638 0.40072894
00000000: e08e ec3d a48d c13e 137b 453f 40bc d33d
00000010: 016e 523f dc3a aa3e d2a6 e83e 5b91 733f
00000020: e059 003f 9cb9 393e 4ab4 613f f055 9b3e
00000030: d51d 953e b69e c83e c57f 593f 93fa c43e
00000040: aef6 fb3e c4e3 273f 564c a93e 85c2 4e3f
00000050: a30b 113f 18c3 8a3e a74d ad3e a2a6 1c3f
00000060: 90d8 923d 9ba1 663f 3ee4 d33e 158f 073e
00000070: 6885 313f ff4f 183f 54ea 303f d2c8 c03e
00000080: 44f2 753f 4bee 7f3f 72b7 4d3f 8b96 ea3e
00000090: d1bf 4c3f 9db1 293f 5f78 8e3f cac7 9f3e
000000a0: 1c7f 083e 7511 243f a7f9 313f d204 013f
000000b0: a62a 1f3f 2fc1 8f3e 6c65 643f a13e 103f
000000c0: 8988 8a3f d010 743e efba f63e 8698 da3e
000000d0: 66f9 133f 58a6 c03e 8d9f 7e3f e6bf 253f
000000e0: 3155 283f 4bf6 053e 858e 903f a084 283f
000000f0: 1907 9b3e 97e5 3e3f 363d f33e 582c cd3e

bn2.bias f4 [64]
-0.12622128 0.25911283 -0.13317795 -0.23618244 0.1623294 0.19009659 -0.1729741 -0.107693195
-0.14096087 -0.03579965 0.11991592 -0.0729208 0.099814095 -0.13848065 0.116443366 0.13750295
-0.09715099 -0.11554101 -0.09854322 0.08445743 -0.06653783 0.10436886 0.19496077 -0.19468369
-0.11038471 0.14095564 0.2955588 -0.019059202 -0.14782956 0.12319296 -0.18314233 0.012187462
0.21864043 0.0028904094 0.19385232 -0.20437911 -0.16557847 0.10821324 -0.14848559 0.046316233
-0.0052582067 0.029179905 0.14674948 -0.08707652 0.14880449 -0.17584662 -0.10439238 0.22593233
-0.15166676 0.1735283 0.09165289 -0.17048532 0.15153834 -0.1387891 -0.18932857 0.16412416
0.2535816 -0.1633499 0.20529938 -0.18426743 -0.16971786 0.146888 0.18545075 -0.13568136
00000000: 2740 01be 70aa 843e cd5f 08be cfd9 71be
00000010: ae39 263e aea8 423e 1f20 31be 408e dcbd
00000020: 0c58 10be a7a2 12bd 7a96 f53d 8057 95bd
00000030: 556b cc3d dfcd 0dbe dc79 ee3d 93cd 0c3e
00000040: 19f7 c6bd c4a0 ecbd 07d1 c9bd 04f8 ac3d
00000050: fc44 88bd 57bf d53d cca3 473e 295b 47be
00000060: 6111 e2bd ad56 103e 7c53 973e 0b22 9cbc
00000070: a260 17be 974c fc3d aa89 3bbe ecad 473c
00000080: 47e3 5f3e 066d 3d3b 3981 463e c248 51be
00000090: 678d 29be e79e dd3d 9b0c 18be 17b6 3d3d
000000a0: 094d acbb b20a ef3c 7f45 163e 2d55 b2bd
000000b0: 3460 183e 2311 34be accb d5bd ce5a 673e
000000c0: 884e 1bbe 67b1 313e 83b4 bb3d b493 2ebe
000000d0: de2c 1b3e bb1e 0ebe 59df 41be 2a10 283e
000000e0: 73d5 813e 3245 27be 003a 523e 9ab0 3cbe
000000f0: 85ca 2dbe cf69 163e cde6 3d3e 0ef0 0abe

bn2.running_mean f4 [64]
0.0 6e-45 0.0 0.0 0.104510404 0.12174014 0.0 0.0011131582
0.0011850788 0.0 0.100648895 0.0022369446 0.10869752 0.0013723522 0.10111724 0.10823449
0.0013341398 0.0013102404 0.0016957223 0.08938278 0.0012690786 0.130168 0.11433967 0.0016233037
0.0 0.0719245 0.0 0.0018972616 0.0013043513 0.09872537 0.0013766623 0.0
0.15399551 0.0 0.0 0.0016812035 0.0014457097 0.11049258 0.001993061 0.0
0.0025574188 0.08931014 0.11397778 0.001178625 0.074189045 0.0016254061 0.001252225 0.0
0.0014905988 0.12444661 0.06947648 1.0405204e-14 0.089985594 0.0013323494 0.0034136681 0.10840591
0.0 0.002047167 0.11447216 0.0013456171 0.0017381244 0.0 0.0 0.0016788843
00000000: 0000 0000 0400 0000 0000 0000 0000 0000
00000010: 8d09 d63d e552 f93d 0000 0000 64e7 913a
00000020: a554 9b3a 0000 0000 0221 ce3d b499 123b
00000030: ce9c de3d 80e0 b33a 8e16 cf3d 0baa dd3d
00000040: 4ede ae3a 5fbc ab3a 0043 de3a 520e b73d
00000050: 3657 a63a c34a 053e eb2a ea3d 09c5 d43a
00000060: 0000 0000 274d 933d 0000 0000 89ad f83a
00000070: c4f6 aa3a 8730 ca3d 1f71 b43a 0000 0000
00000080: 00b1 1d3e 0000 0000 0000 0000 d45b dc3a
00000090: f87d bd3a ef49 e23d 049e 023b 0000 0000
000000a0: 5e9a 273b 3ce8 b63d 2f6d e93d 187c 9a3a
000000b0: 6df0 973d 940b d53a b321 a43a 0000 0000
000000c0: 3260 c33a dddd fe3d af49 8e3d 8971 3b28
000000d0: 5e4a b83d 3aa2 ae3a d9b7 5f3b eb03 de3d
000000e0: 0000 0000 c329 063b 6170 ea3d 6b5f b03a
000000f0: c7d1 e33a 0000 0000 0000 0000 020e dc3a

bn2.running_var f4 [64]
6e-45 6e-45 6e-45 6e-45 0.00030857048 0.00044621804 6e-45 4.4969463e-05
4.8374484e-05 6e-45 0.00025598946 0.000180524 0.00029784074 6.320323e-05 0.0002888557 0.00032112803
6.137222e-05 5.7326375e-05 9.400199e-05 0.00021168655 5.4374326e-05 0.00052489724 0.00034999847 8.494727e-05
6e-45 0.00014562695 6e-45 0.00012881098 5.566291e-05 0.00025128014 6.3184525e-05 6e-45
0.000781723 6e-45 6e-45 9.280749e-05 6.770181e-05 0.000350097 0.00012994114 6e-45
0.00024713844 0.00019881557 0.00033986676 4.7465055e-05 0.0001491199 8.5626576e-05 5.3109652e-05 6e-45
7.193257e-05 0.00042281934 0.00014462502 3.4819063e-17 0.00022600383 6.0464008e-05 0.00042660747 0.00036312453
6e-45 0.00013795325 0.00036169216 5.9923626e-05 9.8485136e-05 6e-45 6e-45 9.364902e-05
00000000: 0400 0000 0400 0000 0400 0000 0400 0000
00000010: a1c7 a139 5ff2 e939 0400 0000 989d 3c38
00000020: b5e5 4a38 0400 0000 5336 8639 0b4b 3d39
00000030: 8227 9c39 fa8b 8438 8e71 9739 135d a839
00000040: f6b4 8038 ba71 7038 ef22 c538 2df8 5d39
00000050: fd0f 6438 4299 093a 0080 b739 b825 b238
00000060: 0400 0000 70b3 1839 0400 0000 6f11 0739
00000070: 9877 6938 40be 8339 ef81 8438 0400 0000
00000080: 8bec 4c3a 0400 0000 0400 0000 a4a1 c238
00000090: 22fb 8d38 398d b739 cf40 0839 0400 0000
000000a0: 5c92 8139 2679 5039 2530 b239 3715 4738
000000b0: 115d 1c39 6b92 b338 0ec2 5e38 0400 0000
000000c0: 81da 9638 daad dd39 7ca6 1739 1893 2024
000000d0: 71fb 6c39 bc9a 7d38 49aa df39 c061 be39
000000e0: 0400 0000 8ba7 1039 80a1 bd39 8156 7b38
000000f0: ce89 ce38 0400 0000 0400 0000 6f65 c438

fc3.weight f4 [4, 64]
-0.18824874 0.30855903 -0.22150281 -0.2793265 0.22707121 0.29663038 -0.20497179 -0.022305487
-0.09574626 -0.22725135 0.015410489 -0.21956864 0.022573149 -0.10269501 0.19079153 0.24267119
-0.2129313 -0.15303941 0.0063295867 0.00953631 0.0064413594 0.13237035 0.27200946 -0.23433885
-0.15055934 0.17361617 0.27244326 -0.07907047 -0.20335583 0.010064314 -0.20113958 -0.07757948
0.21528511 0.15542965 0.27909562 -0.2353684 -0.24656977 0.13273063 -0.10410423 0.19778563
0.13832755 -0.07847656 0.14812253 -0.059514914 0.2156542 -0.2921552 -0.20939843 0.2835292
-0.21063308 0.27949607 0.25401744 -0.22828192 0.19843233 -0.07746383 -0.29071796 0.22524644
0.29930216 -0.32517967 0.154174 -0.19270076 -0.18593502 0.3031351 0.25659135 -0.034729153
-0.08357138 0.25786516 -0.2513249 -0.22595516 0.10578094 0.2110912 -0.23161246 -0.22211654
-0.2388571 -0.08691128 0.263792 -0.12593518 0.18193857 -0.26286048 0.19194008 -0.037974197
-0.21867572 -0.17872886 -0.21140692 0.1987126 -0.08959475 0.16239183 0.26380867 -0.20700788
-0.17351599 0.15527546 0.27688876 -0.08800941 -0.06442314 0.22084449 -0.15601838 -0.05806825
0.11032298 0.03162484 0.21465087 -0.2502497 -0.07114796 -0.0071123037 -0.12405396 0.059633348
-0.04610981 0.08074491 0.041746195 -0.08635033 0.1869071 -0.18488055 -0.17138837 0.29257548
-0.13550134 0.07711942 0.1623359 -0.2754447 0.09075417 -0.20250942 -0.21641406 0.006862484
0.39597368 -0.34524173 0.2287475 -0.20025916 -0.23405893 0.17219524 0.21058229 -0.24527888
-0.19448389 0.25130978 -0.14887068 -0.22786587 0.18953094 0.27429935 -0.031043828 -0.020395048
0.0074566356 0.04514035 0.23184462 0.029233929 0.27669007 -0.0770252 0.21885145 0.15789749
-0.02750893 -0.24189469 -0.0866309 -0.040599775 -0.23341261 0.25812104 0.087582774 -0.047155928
-0.070172735 0.18210709 0.18565473 0.06975661 -0.24965468 0.13376004 -0.2564082 0.13406911
0.24558447 -0.098944366 0.2930952 -0.22383921 -0.22561672 0.16715632 -0.3944164 0.026530623
-0.09616347 0.16806404 0.12070049 -0.22814511 0.2159465 -0.30313814 -0.05879864 0.113521114
-0.112236395 0.17741105 -0.022508444 -0.20633514 0.1379646 -0.02820334 -0.30751178 0.20472626
0.14796363 -0.04819745 0.21088976 -0.015744366 -0.11103547 0.18439028 0.10532164 -0.1813898
-0.09290599 0.26552126 0.015935102 -0.25416365 0.18091097 0.25246882 -0.09139374 -0.15829529
-0.2559963 0.032389283 0.1266868 -0.020842312 0.14088488 -0.2666789 0.21137792 0.2565285
0.07135334 -0.21100135 -0.12841806 0.18829127 -0.099843994 0.27159542 0.29034153 -0.2517401
0.011459355 -0.029200898 0.19052564 -0.013903486 -0.08339691 0.09596883 -0.13475575 0.09474855
0.1927273 -0.122982144 0.12458309 -0.23782107 -0.20858334 0.1529554 -0.23189574 -0.006648538
-0.029389078 0.1764466 0.15496098 -0.17973742 0.012777161 -0.26687953 0.03176737 0.18093354
-0.18328886 0.30493566 0.023879902 -0.02195743 0.2256989 -0.26296824 -0.14685461 0.20732135
0.3389824 -0.14045334 0.03814469 -0.23637052 -0.3099329 0.15685178 0.21924841 -0.06664202
00000000: 47c4 40be 73fb 9d3e a2d1 62be e203 8fbe
00000010: 5b85 683e f0df 973e 20e4 51be ffb9 b6bc
00000020: 9d16 c4bd 94b4 68be 477c 7c3c 9ad6 60be
00000030: 53eb b83c c351 d2bd db5e 433e cc7e 783e
00000040: aa0a 5abe 5db6 1cbe 6c68 cf3b 2f3e 1c3c
00000050: 0a12 d33b 188c 073e d344 8b3e 86f6 6fbe
00000060: 3a2c 1abe 70c8 313e af7d 8b3e b3ef a1bd
00000070: 833c 50be cbe4 243c 89f7 4dbe fee1 9ebd
00000080: b373 5c3e f328 1f3e 9fe5 8e3e 6a04 71be
00000090: c97c 7cbe 8aea 073e 9934 d5bd 5188 4a3e
000000a0: bda5 0d3e 52b8 a0bd 6fad 173e e9c5 73bd
000000b0: 74d4 5c3e 5e95 95be 8b6c 56be bd2a 913e
000000c0: 33b0 57be 1c1a 8f3e 930e 823e bcc2 69be
000000d0: d831 4b3e 5ba5 9ebd fcd8 94be 01a7 663e
000000e0: 223e 993e f37d a6be cadf 1d3e 5953 45be
000000f0: c065 3ebe 8634 9b3e f15f 833e 2840 0ebd
00000100: 7927 abbd e706 843e a8ad 80be ca60 67be
00000110: ada3 d83d 4b28 583e d12b 6dbe 8572 63be
00000120: f596 74be 8bfe b1bd bf0f 873e 27f5 00be
00000130: 1b4e 3a3e a695 86be f18b 443e d58a 1bbd
00000140: 87ec 5fbe b304 37be 0e7b 58be 517b 4b3e
00000150: 747d b7bd 0b4a 263e ee11 873e e0f9 53be
00000160: 2dae 31be 8800 1f3e 5dc4 8d3e 473e b4bd
00000170: 47f0 83bd 0f25 623e 48c3 1fbe f9d8 6dbd
00000180: 04f1 e13d 0c89 013d 70cd 5b3e bb20 80be
00000190: 06b6 91bd 540e e9bb 0110 febd 1942 743d
000001a0: a4dd 3cbd 965d a53d 0ffe 2a3d 71d8 b0bd
000001b0: 9364 3f3e 5451 3dbe 6f80 2fbe 74cc 953e
000001c0: ddc0 0abe c9f0 9d3d 623b 263e 1607 8dbe
000001d0: 53dd b93d a15e 4fbe a69b 5dbe b0de e03b
000001e0: 10bd ca3e 86c3 b0be c93c 6a3e bd10 4dbe
000001f0: 25ad 6fbe f353 303e e2a2 573e 632a 7bbe
00000200: c926 47be adab 803e 8e71 18be ac55 69be
00000210: 6614 423e f770 8c3e a04f febc 8413 a7bc
00000220: cb56 f43b 16e5 383d ad68 6d3e fe7b ef3c
00000230: 52aa 8d3e 63bf 9dbd 981a 603e e1af 213e
00000240: 685a e1bc 3eb3 77be 8b6b b1bd f34b 26bd
00000250: b703 6fbe 7128 843e 995e b33d 9326 41bd
00000260: b9b6 8fbd 487a 3a3e 461c 3e3e 8edc 8e3d
00000270: 7aa5 7fbe 64f8 083e f047 83be 6a49 093e
00000280: 7f7a 7b3e 58a3 cabd 9310 963e 1b36 65be
00000290: 1208 67be 072b 2b3e f2f0 c9be c056 d93c
000002a0: 5af1 c4bd fb18 2c3e d231 f73d df9e 69be
000002b0: 1421 5d3e ec34 9bbe d8d6 70bd c27d e83d
000002c0: 32dc e5bd 3eab 353e a163 b8bc 8549 53be
000002d0: 9846 0d3e b10a e7bc 2f72 9dbe c3a3 513e
000002e0: c783 173e b06a 45bd 7cf3 573e 54fa 80bc
000002f0: 9166 e3bd ced0 3c3e dfb2 d73d 3fbe 39be
00000300: 7f45 bebd 67f2 873e 558a 823c bd21 82be
00000310: ba40 393e 9843 813e a42c bbbd 2918 22be
00000320: f211 83be a0aa 043d 2fba 013e 7fbd aabc
00000330: 2044 103e 238a 88be 7473 583e b457 833e
00000340: b321 923d bd10 58be 0680 03be 6dcf 403e
00000350: 027b ccbd 8e0e 8b3e a5a7 943e 14e4 80be
00000360: 05c0 3b3c b936 efbc 2719 433e 72cb 63bc
00000370: 00cc aabd 4e8b c43d 69fd 09be 870b c23d
00000380: 4e5a 453e 10de fbbd 6b25 ff3d 5e87 73be
00000390: df96 55be 57a0 1c3e 1476 6dbe fbdb d9bb
000003a0: 5dc1 f0bc 6bae 343e 17ae 1e3e 160d 38be
000003b0: 4c57 513c 6fa4 88be 801e 023d a446 393e
000003c0: 13b0 3bbe 8720 9c3e c99f c33c 11e0 b3bc
000003d0: 9d1d 673e c6a3 86be 0e61 16be 0c4c 543e
000003e0: 1a8f ad3e 00d3 0fbe 9b3d 1c3d 1d0b 72be
000003f0: 86af 9ebe c19d 203e a882 603e 9d7b 88bd

fc3.bias f4 [4]
0.13118945 0.0535849 0.069777146 0.14625555
00000000: 8756 063e d77b 5b3d 52e7 8e3d 04c4 153e
