checkpoint_actor.pth (torch_old, 516089 bytes, 10 tensors)

fc1.weight f4 [400, 33]
00000000: 4d9b 16bf e3b2 b83e c8b5 97be e643 393e
00000010: 9fa5 3bbf 12f7 51bf 3a8b 40bf e637 5bbc
00000020: c1e1 d8bb 9ec4 febe 3f85 f93d b601 1b3f
00000030: ba69 f6bd a977 c73e 428c f33e 2ce4 e9be
00000040: 58ad 9dbe 7d3f 03bf 2f6e 91bf 828a 803e
00000050: cf50 903d ac58 08be 6419 88be fdca e9be
00000060: 6434 0f3f 0aa2 c6be fc69 41bf e9d3 0d40
00000070: 8efd 12bf 2d25 f6bc d140 13c0 40cd b0bc
00000080: 7e10 6441 3a67 2c3e 71df 4ec0 c76b ce3f
00000090: b1c4 5fbf 574d 863f d9f5 8fbd 3835 babe
000000a0: ed1d 6dbe 6afe 5d3e 353d 983f 8873 523f
000000b0: b65d d2bc 1cf7 dcbe 5382 d43f fcae 6040
000000c0: 8472 84be 21e9 5ebf fb02 79bf 9a1b 6a3f
000000d0: 1d04 9f3d 6aa4 1a3f 6204 65bf d14c 7abe
000000e0: 1f97 b23f 760c b63f 5ce8 ab3f afab 563f
000000f0: 9c8b b93f b141 7abe a452 7d3c 7a6b bdbf
00000100: 8be4 313d 7863 8d3f 5368 3e3f 9ce3 43c0
00000110: 78f2 273f 4d2a 803f d09e abbf 0353 8d3f
00000120: 5673 75bf d5b9 d33f fdc9 a0bf 09d6 8340
00000130: d392 1240 6b46 063d ac9e be3e 267b 9b3e
00000140: a543 c53f 5385 6b3f 9517 1d3f 3d11 eebf
00000150: 49f2 fdbe c89c c03e 2e7b 1a3f 9e9f 9abf
00000160: 5c76 b4bf 2a4c 75bf 0ac7 863f 4741 2a40
00000170: 41e9 123f 4e56 af3f ec01 50bf ed0e 3f3d
00000180: 0ea8 b2bf c21e 8c3c 6e75 46bf 7569 4a40
00000190: bc3f 883f 403e 16bf 4a52 843f 2ed1 3340
000001a0: 7bca 0140 1fa5 923f 6aca b6be 796c 5f40
000001b0: 9f33 3240 4ef9 b73f c6a7 eabc afb5 0a3c
000001c0: 62c7 a23e 3c69 a23f b5eb 553f 8b25 563f
000001d0: 6734 6abf 55b0 953f 9dfc 9bbf e912 79be
000001e0: 0a1d a43f bdc7 babe 2cd1 63bf fbce 2ebf
000001f0: ef35 0a3f f5e7 60bf 1e97 4a40 26ad a3bf
00000200: 6d24 323d 2614 4ac0 332c 003d 3154 4e3f
00000210: 496b 4d40 4582 7bbf 87ab edbf 3521 dabf
00000220: 8dca fc3f b41a ffbe 7cf0 b13f 4531 9f3f
00000230: a4bf e33f 7a64 debc ff59 b6be b60c 873e
00000240: a8a9 aabf 832b 85bf 3457 0d3d 15b3 8c3f
00000250: 8db5 b03b f27c 08be 74b6 b0bf be3a 14bf
00000260: cf2e a5bf 15a8 51bd b405 62be 329a 85bd
00000270: 8bbd aebf e59c 143f 2e06 a2bf bb45 2140
00000280: d1bf c73f 1048 dc3b a57c 20c0 dda4 bfbc
00000290: 4e81 13bf 9936 a4be d812 8040 9b9e 1fc0
000002a0: 2c06 c6bf ba55 b63e ebdf 82be a154 54bf
000002b0: d34a 7a3f 890b 8b3e 486c 923e 71c2 65be
000002c0: 22f6 ae3f b9d8 82bf 177d 583e f55e 9ebf
000002d0: 8a8b c63f 1709 053f 4222 fa3b a35e c53d
000002e0: 9f5e 0a3f 57e6 83bf 3cf7 0340 f805 73bf
000002f0: 02b4 57bd 20c4 b63d 76d4 923f 7ce0 eebd
00000300: 125b 1540 88bc b0bf 1ab6 3abd 28cd 15c0
00000310: 9e9d 08bd f9ae a7bf f57a 52bf 6f7c 3940
00000320: ca0e b1bf 9ff2 97bf d66d 693f 5c28 a0bf
00000330: ebc1 6abf 0dae 4a3f 5ed8 67bf 22d9 eb3f
00000340: 5f5c ae3e 2fb7 8d3f 91fe 26be f5c0 db3f
00000350: 7367 3cbf 47c6 943f 69d4 ee3d ef75 5cbf
00000360: cf35 9ebe 7ce0 e13d aac1 40bf 599a f83c
00000370: c2c9 2ebe a3e7 033f 4ea6 61bd 19b9 a23e
00000380: d3bd 99bf 1dd1 0640 a45b 65bf 3aef 1ebd
00000390: 1e5c 08c0 c936 233d d5e1 db40 6aa9 ae3d
000003a0: 20ae 69c0 fd06 4dc0 ca5a 7e3f 6379 91bf
000003b0: 2bbe a4bf b6b8 e33e 8ce4 24bf 8c81 913f
000003c0: c249 433e ce28 74be dc40 563e 9f2c d33e
000003d0: 1822 683e a692 b23f a651 fc3f ba29 ac3f
000003e0: 8391 543f 7c4c 073f ca5e 9cbe b330 32bf
000003f0: 2d4a 8f3f f477 223f 1b82 74bf 3e20 ec3b
-0.5883072 0.3607398 -0.29630876 0.18092307 -0.7329959 -0.82017624 -0.7521244 -0.013380026
-0.006618709 -0.49759382 0.12183618 0.60549486 -0.120318845 0.3895848 0.47567946 -0.45681894
-0.30796313 -0.5126875 -1.136175 0.25105673 0.07046663 -0.13315076 -0.26581872 -0.4566268
0.55939317 -0.387955 -0.75552344 2.216059 -0.57418144 -0.030047024 -2.300831 -0.021582246
14.254026 0.16836253 -3.2323878 1.6126641 -0.874095 1.0492352 -0.070293136 -0.36368728
-0.23155947 0.21679083 1.1893679 0.82207537 -0.02567945 -0.4315728 1.6602272 3.5106802
-0.25868618 -0.87074476 -0.9727017 0.91448367 0.077644564 0.60407126 -0.8945981 -0.24443366
1.3952368 1.4222553 1.3430285 0.8385572 1.449573 -0.24439122 0.015461598 -1.4798424
0.043430846 1.104598 0.74377936 -3.0607672 0.6560435 1.0012909 -1.3407841 1.1040958
-0.95879114 1.6541086 -1.2561642 4.1198773 2.2902114 0.032782 0.37230432 0.30367392
1.5411268 0.9200031 0.6136411 -1.8599011 -0.4959891 0.37619615 0.6034421 -1.2079961
-1.409862 -0.9581934 1.0529492 2.6602342 0.5738717 1.3698213 -0.8125293 0.046645094
-1.3957536 0.01710451 -0.77522933 3.1626866 1.064445 -0.58688736 1.0337613 2.8096423
2.0279834 1.1456641 -0.35701305 3.4909956 2.7844007 1.4372957 -0.028644454 0.008466168
0.31792742 1.2688365 0.83562785 0.83651036 -0.9148621 1.1694437 -1.2186466 -0.2432362
1.2821362 -0.36480513 -0.88991046 -0.6828458 0.53988546 -0.8785394 3.1654735 -1.2787216
0.04349177 -3.1574798 0.03129215 0.80597216 3.2096732 -0.9824565 -1.8567971 -1.7041384
1.9749314 -0.4982506 1.3901515 1.2436911 1.7792859 -0.02714752 -0.35615537 0.26376885
-1.3333025 -1.0403904 0.03450699 1.0992151 0.0053927363 -0.13328913 -1.380568 -0.57902133
-1.290491 -0.051185686 -0.22072488 -0.06523551 -1.3651594 0.580519 -1.2658136 2.519881
1.5605413 0.0067224577 -2.5076077 -0.023394043 -0.5761918 -0.32072905 4.0023003 -2.4940555
-1.5470634 0.3561228 -0.2556146 -0.82941633 0.9777042 0.27157238 0.28598237 -0.22437455
1.3668864 -1.0222389 0.21141468 -1.2372729 1.5511334 0.51966995 0.0076334784 0.09637191
0.5405063 -1.0304669 2.061965 -0.9493098 -0.052661903 0.089241266 1.1471088 -0.11663911
2.3336835 -1.3807535 -0.04558382 -2.3406467 -0.03335344 -1.3100272 -0.8221887 2.8982198
-1.3832638 -1.1870917 0.9118322 -1.2512317 -0.91702145 0.7917183 -0.90564525 1.8425639
0.3405485 1.1071528 -0.16308047 1.7168261 -0.7359535 1.162301 0.11661608 -0.8611745
-0.30900428 0.11029145 -0.7529551 0.030347036 -0.17069152 0.51525325 -0.05509024 0.31781843
-1.2011055 2.1065133 -0.8959296 -0.038802363 -2.1306224 0.03984717 6.8713174 0.08528407
-3.6512527 -3.2035515 0.99357283 -1.1365169 -1.2870535 0.4447686 -0.64411235 1.136766
0.19071105 -0.23843691 0.2092318 0.4124498 0.22669256 1.3951004 1.9712417 1.3450234
0.83034533 0.5285108 -0.30541068 -0.6960556 1.1194512 0.63464284 -0.95511025 0.007205992

fc1.bias f4 [400]
00000000: 6464 08c0 bc87 c2bf 3f12 c8bf c07b 47c0
00000010: 933d 2cc0 cf05 11c0 cc85 05c0 4633 e6bf
00000020: 3021 60c0 0468 5ebf bfd6 46c0 7f04 0cbf
00000030: 1da0 6ac0 0c7f 4fc0 ec07 f0bf 5f0a 03c0
00000040: 843e 1ec0 4e30 1ac0 2550 3bc0 f114 6cc0
00000050: 1449 2bc0 a19e c6bf b08c 22c0 0134 13c0
00000060: 8c79 00c0 552c e4bf 584f 20c0 51ce 3bc0
00000070: aa8b 11c0 d32a aabf 866f 14bf 31d9 6cc0
00000080: 891f 64bf c937 2cc0 5e06 97c0 5510 f1bd
00000090: 8083 44c0 ba39 d2bf 787c ddbf 6c0f 49bf
000000a0: 93ab 2ac0 17ac 14c0 4f3d cbbf 3d72 60c0
000000b0: d660 52c0 1310 69bf e735 0bc0 5a39 5fbf
000000c0: 8486 8bbf 55c8 12c0 6f59 32c0 44a0 1bbf
000000d0: ad53 b1bf 2a7e 4cc0 4ca5 53c0 f8ea 7bc0
000000e0: c8fe 25c0 2bc7 47c0 e4f0 08c0 67f2 92c0
000000f0: 9eab 94bf b2d4 dfbf d4f2 f4bf 3db0 0140
00000100: c6f9 ffbf 60a6 a7bf fb1e 47c0 a2cd cebe
00000110: 31a1 8bc0 f0cd 30bf 42f2 24c0 740a 10c0
00000120: 703f b2bf 0338 5ac0 0b44 3dc0 6dac 43c0
00000130: 5030 85bf b150 c9bf 0d10 1a3c d778 d4bf
00000140: 8359 46c0 4616 77c0 973d 2ac0 8eb1 94c0
00000150: 1901 c5bf eb26 debf c748 21c0 3801 48c0
00000160: 5c23 fdbf 6186 04c0 1f83 10c0 633d 19c0
00000170: c447 fcbf a8f8 10c0 c262 0dc0 e16e 74be
00000180: edb8 c33f f355 d8bf f962 413f 10e4 75bf
00000190: a1b9 f3bf 4cd2 18c0 540f 0ac0 2257 b5bf
000001a0: be1d 03c0 5f75 13c0 cfae 143f 357d d2bf
000001b0: 8761 e0bf 4808 bbbf f7d4 52bf bad0 a6bf
000001c0: 6828 b0bf e597 e9bc a826 24c0 1665 4dc0
000001d0: b068 fabf ee9d 8bbf aefb 97c0 a3d6 15c0
000001e0: 37ca 13c0 a437 52c0 b779 49c0 1a1e 83c0
000001f0: 0d7e c1bf 639c 10c0 deb0 ebbf 77b9 dcbf
00000200: 1134 5c3e a951 ac3e 3e37 a4bf 52f6 56c0
00000210: 144e 70c0 138d 4bc0 7456 5ec0 a342 24c0
00000220: d23b 58c0 d65c fabf 46d5 933f 444f b2c0
00000230: 0d76 34c0 ae72 ccbf 2df2 c5bf f0d4 43c0
00000240: 1a2c 82c0 f6e8 64c0 ceb6 4ebf 1c58 2ec0
00000250: 9fe4 a4bf 34b8 00c0 dcc3 10c0 0db0 3fbf
00000260: d0a6 f0bf d36a c2bf 41b5 a7bf f328 d3bf
00000270: d6d8 49bf 5b89 16c0 9ac0 bbbf 7300 14c0
00000280: 344f 47c0 9bdc 463f 5f8d 54c0 1d23 d6bf
00000290: a487 87c0 97af 25c0 0945 febe 5ea8 40c0
000002a0: b39e d1bf 2b24 4dc0 d6af 2cbf bff5 0fc0
000002b0: 2b69 023e 9416 a9bf 4e76 9dbf d029 b5bf
000002c0: 78fd 0ec0 c0a6 b0bf 1567 56c0 907e cdbf
000002d0: 5aab 1cc0 8a8e f2bf 44fd 5cbf b98b a5bf
000002e0: 26b9 1cc0 8d95 04c0 685c ccbf c5ad 40bf
000002f0: 785e dfbf e7f4 ddbf 5375 49bf ec06 0dc0
00000300: 1f5e 713f 5232 ccbf ce5f fdbe 64ec 04c0
00000310: dece 3ac0 da76 42c0 d1d1 8dc0 0aab c9be
00000320: 554d e3bf 3fd9 bbbf d2de 8ec0 ecf4 d8bf
00000330: 3c78 66c0 29be 34bf d172 39c0 edc6 c5bf
00000340: 1300 7bc0 b4f7 78c0 2b83 81c0 0f08 e1bf
00000350: 2e7b c9bf 917e 55c0 9910 993e 273c 62c0
00000360: 6959 b3bf 4e14 8dbf 1d1a 963e 0213 66c0
00000370: 3314 b9bf 09b7 6bc0 3121 b63f 7520 6bbf
00000380: ce70 e5bf 6abc 47c0 e366 94bf 6d1e 29c0
00000390: 1af0 01c0 65dd 1fbf 1cfe 57c0 6a83 25bd
000003a0: a68c 9dbf 178f 96bf 26ce 1540 e496 c5bf
000003b0: 26fa e5bf f63a 3fc0 77b3 32c0 85f4 4cc0
000003c0: 7075 643f 16d2 23bf 2e5d 0ec0 2727 28c0
000003d0: 5ba3 2ac0 aba2 8fbf 0de8 45c0 9ee8 57c0
000003e0: a43c 24bf 6d13 01bf 9020 bebf 0618 5dc0
000003f0: e5b1 30c0 47cf c1bf d64e e6bf fb13 65c0
-2.1311274 -1.5197673 -1.5630568 -3.116928 -2.6912582 -2.2659795 -2.0862913 -1.7984397
-3.5020256 -0.86877465 -3.106857 -0.5469436 -3.6660225 -3.2421293 -1.8752418 -2.047508
-2.4725657 -2.4091983 -2.9267666 -3.6887782 -2.6763353 -1.551716 -2.539837 -2.300049
-2.0074186 -1.7826029 -2.5048428 -2.9344676 -2.2741494 -1.3294319 -0.5798267 -3.7007563
-0.8911062 -2.6909049 -4.7195272 -0.11770693 -3.0705261 -1.6423867 -1.730361 -0.78539157
-2.666722 -2.3230035 -1.5878085 -3.5069726 -3.2871604 -0.9104015 -2.175165 -0.87196887
-1.0900426 -2.2934773 -2.7867086 -0.6079142 -1.3853661 -3.1952004 -3.306964 -3.9362164
-2.5936756 -3.1215312 -2.1397028 -4.59209 -1.1614873 -1.7486784 -1.9136605 2.0263817
-1.99981 -1.3097649 -3.111266 -0.4039126 -4.3634267 -0.69064236 -2.5772862 -2.250638
-1.392561 -3.4096687 -2.957278 -3.057399 -1.0405369 -1.572775 0.009403241 -1.6599377
-3.0992134 -3.8607345 -2.6600091 -4.646674 -1.539096 -1.7355627 -2.520067 -3.1250744
-1.9776416 -2.0707018 -2.258003 -2.3943717 -1.9709401 -2.2651768 -2.2091527 -0.23870422
1.529081 -1.690123 0.75541645 -0.9605112 -1.9041024 -2.3878355 -2.1571856 -1.4167216
-2.0486903 -2.3040388 0.58079237 -1.644446 -1.7529763 -1.4611902 -0.8235621 -1.3032448
-1.3762331 -0.028514812 -2.5648594 -3.2092948 -1.9563198 -1.0907571 -4.7494726 -2.3412254
-2.3092172 -3.284646 -3.148054 -4.0974245 -1.5116593 -2.259545 -1.841335 -1.7244099
0.21504237 0.33656052 -1.2829359 -3.3587842 -3.7547655 -3.1804855 -3.4740267 -2.5665672
-3.3786511 -1.9559581 1.1549461 -5.572176 -2.8197052 -1.5972497 -1.5464531 -3.0598717
-4.0678835 -3.5767188 -0.8074769 -2.7241278 -1.288227 -2.0112429 -2.2619543 -0.7487801
-1.8800907 -1.518885 -1.3102189 -1.6496872 -0.7884649 -2.3521335 -1.4668152 -2.3125274
-3.1142092 0.7768037 -3.3211286 -1.6729466 -4.2353077 -2.5888422 -0.49662045 -3.0102763
-1.6376556 -3.2053325 -0.67455804 -2.2493742 0.12735431 -1.3210015 -1.2301729 -1.4153385
-2.2342205 -1.3800888 -3.3500416 -1.6054249 -2.4479585 -1.894975 -0.8632395 -1.2933265
-2.4488006 -2.0716279 -1.59657 -0.7526515 -1.7450705 -1.7340363 -0.7869465 -2.2035475
0.9428424 -1.5952857 -0.49487156 -2.0769281 -2.9188762 -3.0385041 -4.4318624 -0.39388305
-1.7757975 -1.4675673 -4.4646997 -1.6949744 -3.6010885 -0.7060266 -2.8976328 -1.5451332
-3.9218795 -3.8901186 -4.0472617 -1.7580584 -1.5740716 -3.33585 0.29895476 -3.5349214
-1.4011661 -1.1021821 0.29316798 -3.5949101 -1.4459289 -3.6830466 1.4228879 -0.918464
-1.792505 -3.120875 -1.1593899 -2.642482 -2.0302796 -0.62447196 -3.3748846 -0.04040853
-1.2308547 -1.1762418 2.3407073 -1.5436673 -1.7966964 -2.9879737 -2.7922037 -3.2024243
0.89241695 -0.6399244 -2.2244372 -2.6273897 -2.6662204 -1.1221517 -3.0922883 -3.3735728
-0.6415503 -0.50420266 -1.4853687 -3.4545913 -2.7608578 -1.5141381 -1.7992809 -3.5793445

bn1.weight f4 [400]
00000000: ebcc 3a3f d6a1 353f 71e2 29bf 495f 7a3e
00000010: 4782 933e 3a49 cd3e 96b9 393f 78b7 823f
00000020: f364 be3e 7d47 523f 74a2 c13e 2603 453f
00000030: 0862 e13e 0f52 283f 36d2 993e 014b 593f
00000040: bf97 903e ca06 553e 5c84 373f 9e10 373f
00000050: 634f 533f 0577 e03e d611 b13e b330 c9be
00000060: 4b68 343e 0848 963e b223 1f3f e2eb 033e
00000070: 4bcf 163e 7de0 883e 6c10 e63e 4dea 593f
00000080: 43c5 363e ddc2 053f 19e3 e03d 1f8a 753f
00000090: 5ad1 ae3e f76c 3d3f f690 a23e 82a3 0a3f
000000a0: e906 d93d 03d6 943e 63c7 c43e 74c0 053f
000000b0: e668 893e e259 933f c54c d63f ee69 ba3e
000000c0: 7891 a73f 1ee7 6a3d 68e3 f23e 7bc3 de3e
000000d0: 8fe8 00bc a980 2f3e 61b9 973e 80d2 4a3f
000000e0: 7461 c73e 83c1 8b3f c794 7e3e f2a5 e83e
000000f0: eb60 90bf 5d0c ce3e 92a9 9f3e 287f da3f
00000100: 279f 383f f8b6 343f e542 003f 8d6d 773f
00000110: fd0c 533f 722e 173f 272b ee3e 523e 513f
00000120: 6d7f 433f f703 d93e 84ab 3bbf ff4b ab3e
00000130: 4b10 0b3e 3677 11bf c276 cb3e c24d 233f
00000140: e1c2 c83e e8cd 6bbe 1a0a 4b3f d640 943e
00000150: 258f 96be 90d1 0b40 d5a6 9b3e 25a6 7a3e
00000160: 8357 9f3e f8dd a93e faf2 d63c 1e88 363f
00000170: f966 b33e 5d84 2d3f cd47 783f 04c7 763e
00000180: fb03 b33f b44b 063f ab60 e7be 0627 743f
00000190: 2edf 6e3f c85d c63e 1f26 903e 59cc f63e
000001a0: 755c 4c3f b2bc 863f e015 f43d 8684 023f
000001b0: fe6b 343e 42fb 313f a3a1 0d3f 456c 89bf
000001c0: 0c4a 1b3f 781b 27bf ce74 76be 2727 24be
000001d0: 73d9 b53e 6cc8 02bf 6608 103f df5e 71be
000001e0: a6de 8c3e 17a2 85be 8b15 7c3e 212e 9f3e
000001f0: 06b8 56be 79e3 0d3f 3baa 40be 4002 713f
00000200: 11da fe3e 313e 913e 4ac8 fb3e 8ad7 b33e
00000210: 1166 f33e 0f24 383f a551 0040 a0c6 483f
00000220: e56c 533e 5c38 9c3e 1ff8 433e e14d 093f
00000230: d409 363e 019c d53e ba39 313f 04a4 c63e
00000240: deba c23e dbf5 dd3e 2faf 4a3e a826 543d
00000250: 3cdd 25be 6710 813e 38ab a43e 31e7 f33e
00000260: 336b c53e ac00 e43e d25c 16bf 441b e23e
00000270: 6fed 57be 242f 3c3e 64d5 c0be 9de9 873e
00000280: 2e49 433f e473 053f f13a 973e bdde da3e
00000290: 18b1 ea3e 6d6b 613e 7494 3f3f 7876 053f
000002a0: 1cf8 f03e 3453 f63e 1f14 f83e 6b4f 173f
000002b0: 7752 903e 3304 af3e 552b 843f e23d 5a3e
000002c0: f350 143f c508 a53e 898b 9a3e 8325 963f
000002d0: 0eaf 743e 8c45 5d3e 81fa f73e 62a3 453f
000002e0: 70d6 163f 3de0 e8bf f745 b93e 88ae 773f
000002f0: b2a2 ac3e 2146 d53d 659d 6c3e 27cd 0b3f
00000300: a0a6 823f 1e41 3e3f 8951 813e 2ab5 05c0
00000310: ee6f a43e 7e03 0ebf 885a 05be c309 193e
00000320: f6d9 073f 6e59 023f 2a69 6c3f be46 6e3f
00000330: f11e 1f3e 96a3 983e b541 053e ed1c 633f
00000340: 1076 4c3f 3a8b 9abe 9ebe da3d 522e 583f
00000350: e279 203e fae2 633e 490d 413e 304d a23e
00000360: 325a 663f c7bb 713e cf2c e33e 8bf3 663e
00000370: 9c36 ac3e 1d50 373f c77a a73e d4f5 e93f
00000380: 8ef7 c13e b777 b63f 4107 943e ac63 e93e
00000390: c0a2 d73e 5d9e ad3e bf46 b43e 8d33 d33e
000003a0: 0e08 b23f fcdb b33e a1e7 cc3e bb72 9b3f
000003b0: 13b1 323e 4c01 273f 0dad 853e da03 a0be
000003c0: 4f4e b63e 7400 cb3d ce2f 553f b3de f13e
000003d0: 39ac 3bbf a298 363f bdf7 ab3e 107a d13e
000003e0: 7f71 aa3f 7965 753d f903 553e a49e 1b3e
000003f0: 4033 07bf 7fad 043f e96c b13f 495c f63f
0.7296893 0.7095007 -0.6636115 0.24450411 0.2881033 0.4009493 0.72548807 1.021224
0.37186393 0.8214033 0.37819254 0.7695793 0.44020104 0.6575021 0.3004319 0.8488007
0.28240773 0.20803371 0.7168634 0.7150973 0.8254301 0.43840805 0.3458392 -0.39294967
0.1761791 0.2935183 0.6216384 0.12882951 0.14727513 0.2673377 0.44934404 0.8512314
0.17848687 0.5225046 0.109808154 0.9591388 0.34144098 0.7399439 0.3175122 0.54155743
0.10597021 0.29069528 0.3843337 0.52246785 0.26837844 1.1511805 1.6742178 0.36408943
1.3091269 0.057349317 0.47439122 0.43508515 -0.007867946 0.17138924 0.2963362 0.7922745
0.38941538 1.091843 0.24861442 0.45439106 -1.1279577 0.40243807 0.3118406 1.7070055
0.7211785 0.7059169 0.5010207 0.96651536 0.82441694 0.59055245 0.46517298 0.8173572
0.7636631 0.42385837 -0.7330859 0.33456418 0.13580434 -0.56822526 0.39739043 0.63790524
0.3921118 -0.23027766 0.7931229 0.28955716 -0.29406086 2.1846657 0.3040072 0.24477442
0.31121454 0.3317716 0.026238907 0.7130145 0.350395 0.67780095 0.9698456 0.24099356
1.398559 0.52459264 -0.4519094 0.95372045 0.93309295 0.38743424 0.28154084 0.4820278
0.7982858 1.0526335 0.11918235 0.50983465 0.17619321 0.69524014 0.55324763 -1.0736166
0.6065986 -0.6527629 -0.24067995 -0.1603056 0.35517463 -0.5108707 0.56262815 -0.23571347
0.27513617 -0.26100227 0.24617593 0.3108988 -0.20968637 0.5542522 -0.18814938 0.9414406
0.49775746 0.2836776 0.49176246 0.3512538 0.47538808 0.7193002 2.0049832 0.7842808
0.20647009 0.3051175 0.1913762 0.5363446 0.17777187 0.41720584 0.6922871 0.3879701
0.38033193 0.43351635 0.1979339 0.051794678 -0.16197675 0.25207826 0.3216188 0.47637323
0.3855835 0.44531763 -0.5873538 0.44161427 -0.21086667 0.18377358 -0.37662804 0.2654542
0.7628354 0.5212996 0.29537156 0.4274806 0.45838237 0.22013636 0.74835896 0.52133894
0.47064292 0.48110354 0.4845285 0.5910556 0.28187916 0.3418289 1.0325724 0.21312669
0.5793602 0.32233253 0.30184582 1.1730198 0.23894903 0.21608561 0.48433307 0.7720243
0.58920956 -1.8193432 0.3618619 0.9675069 0.33717877 0.10413767 0.23106916 0.5460991
1.02071 0.7431811 0.2525752 -2.0891824 0.32116646 -0.5547408 -0.13022816 0.1494513
0.53066957 0.5091771 0.9234797 0.93076694 0.15539147 0.29812306 0.13013346 0.8871601
0.7986765 -0.30184346 0.106808886 0.8444568 0.15671495 0.22254553 0.18852724 0.31699514
0.8998138 0.23606788 0.44370124 0.22553842 0.33635414 0.7160662 0.3271086 1.8278146
0.37884182 1.4255284 0.28911784 0.45583856 0.42116356 0.33909884 0.35210225 0.41250268
1.3908708 0.35128772 0.4002047 1.2144388 0.17450361 0.65236354 0.2610859 -0.31252939
0.3560662 0.09912196 0.8327607 0.4724022 -0.73309666 0.7132665 0.33587447 0.4091344
1.3315886 0.059911225 0.20802297 0.15197235 -0.52812576 0.51827234 1.3861362 1.9246913

bn1.bias f4 [400]
00000000: d968 8f3e 4106 833e abba ffbe 3cfd f23d
00000010: e563 873e 8866 003e c7f2 aa3e 953d 3f3f
00000020: a45a 153d cbe7 533f b84e 293e d83c 283f
00000030: a1dc 4abd 43e4 d03e e228 413e 0e22 ad3e
00000040: 56ff 3a3d b3a3 3b3d 1232 ab3e c630 b73d
00000050: 0877 f93e fd6c 643e ad9c 173e 76e2 30bf
00000060: fb2d 9439 7447 0f3e 6b80 233f 2663 1cba
00000070: d895 bebc f0f9 f33d de9e ebbe 9933 093f
00000080: d742 b73c bed2 bd3e 3d68 53be de02 5e3f
00000090: 8d07 bebe 8538 ba3e 96c0 3cbd 647d 103d
000000a0: 2753 debc 7406 37bd 7190 e03d 739d 703e
000000b0: 0923 8a3c b1f7 6d3f 31f1 f53f e2f2 913d
000000c0: 8457 873f 6960 ebbc 58cf 483e 9acf 53be
000000d0: eecd ecbc 3031 ad3c cc64 b6bd b779 4a3e
000000e0: 6d55 953e bee9 413f e5f1 5e3e f730 0b3e
000000f0: 4984 11bf 58c3 fe3d 1d40 5a3e 448a 0540
00000100: ad72 933e f80b f93e 0181 a83d 8c0b 653f
00000110: 578d bc3e 7c2b 9c3e 8aac 1e3d 3038 043f
00000120: 3d07 f53f 333c a83d 3910 c4be 89aa 7b3d
00000130: 51bf 543e 8203 1abf 3310 193e 4852 7c3e
00000140: 7f78 4e3e c478 53bd 27e9 293f e7f8 b13b
00000150: dcdc f6bd aeae d73f 0b0a babd 25f4 0abd
00000160: 7990 983d 4995 463e b5b2 373d 3b8b 413e
00000170: eff7 653d 0292 c23e dbb0 7a3e d867 733e
00000180: 7474 503f 39b4 5a3e 82f2 55bf 1a45 b43f
00000190: 1247 cf3e 66bd aa3c 3a21 5ebd 0635 d23e
000001a0: 6b50 c33e 2cd6 003f 0f36 ca3d a7a8 593e
000001b0: e3b7 923d e8a4 203f b3e2 cb3c c260 0bbf
000001c0: 7c93 953e ac2c 26bf c8fd afbd c462 15bd
000001d0: 6bdf c03d e5a4 61be 958d 383e ac52 14be
000001e0: cff1 fb3b c7ed abbd e81b f03d 64e2 ca3d
000001f0: b5ce 98bd 48b5 cd3e 513f b8bd 066f 0f3f
00000200: e654 c73e e1e1 55bd 9adf 36bd 35d5 473e
00000210: 0c02 d63e b9cd 923e 6d3a 953f 5c1f d93d
00000220: b7be 923d 7b6b 4a3e 49b9 5b3c 3acd c4be
00000230: acf2 4a3c 01bc 5b3e 8b8c 543e 2504 0d3e
00000240: 79d7 c03d 7347 653d 30c9 cd3d 8229 b8ba
00000250: 1261 cdbd 7cda 75bc f20d 173e 2cad 9d3e
00000260: f3ca 333e 2c26 6b3e d0e9 2cbe 25e7 fc3d
00000270: 7b23 be3c 2b42 293c c742 1dbe 129d 15be
00000280: 920e 7b3e 407a 0b3f 7d65 f0bd c0c3 71bd
00000290: 6358 fb3d ba8e b63d 6ed0 a03e 493a 203e
000002a0: e95f a5bd 3d9a 2b3e 1b1c 093f ffdb 303e
000002b0: a59f a13e 1869 80be 2b60 343f f8d5 663d
000002c0: b1ac 473e d57b 393e 2eda 0fbc 10ae 323f
000002d0: 1aea d0bb 49fc 443e 8b31 e93e 826b e23e
000002e0: 932f 8d3e c3bf fdbf 25bc 323e 0128 dc3e
000002f0: 1554 ac3d 1e7a fbbc ceff 723d 0a53 a43e
00000300: ae01 733f 919a d73e 7165 5c3e 1d1b fabf
00000310: a5ad ce3d 08e0 87bd d638 e2bc 46ac b23d
00000320: e17e cd3e ab0c 863d b764 9e3e 8121 0a3f
00000330: b2ef 633d b80a 51bd 2c01 9d3d 6cdc 3d3f
00000340: d4e6 db3e 1fd2 2dbe b46f 9d3c 7e1a 2c3f
00000350: a5e6 123e 56ab 143e 5077 473e 1005 9a3d
00000360: 66a7 d33f 98ef 9a3d 87ab bd3d f153 1cbc
00000370: cada df3c e903 5f3e 0453 4c3e eb64 1340
00000380: 59db 8b3e eb82 793f 76a2 743d c2c2 753e
00000390: 52cd a33b 1fdb 4b3e 2c7b 2f3e 886e b73e
000003a0: ad2d 383f 8321 a2bd a512 5a3e df87 243f
000003b0: b661 483d 8a69 f33e d1bf fabc 6fee 03be
000003c0: 5005 a23e 9cf8 acbc 4a1b e23e 4b36 403e
000003d0: 936a 11bf 022d 003f 3709 c73d ab2c dc3d
000003e0: a97c f33e 3a3c fb3c 45bc acbb 4044 c33c
000003f0: c48d 19be 46e6 363e 9361 2e3f 1ec2 543f
0.2800968 0.2559071 -0.49947104 0.11864707 0.264434 0.12539113 0.3338835 0.7470334
0.036463395 0.82775563 0.16533935 0.6571784 -0.049526814 0.4079915 0.18863252 0.33815044
0.045653664 0.045810413 0.33436638 0.0894485 0.48723626 0.223072 0.14805861 -0.6909555
0.00028263018 0.13992101 0.63867825 -0.0005965702 -0.02326481 0.11912906 -0.46019644 0.53594357
0.022370739 0.37074846 -0.20645232 0.86723125 -0.37115136 0.36371246 -0.0460821 0.03527583
-0.02713926 -0.04468389 0.1096505 0.23497562 0.01686241 0.9295607 1.9214231 0.07126404
1.0573583 -0.028732495 0.19610345 -0.20684662 -0.028906789 0.021141618 -0.08905944 0.19772993
0.29166737 0.7574729 0.21771963 0.13592897 -0.56842476 0.124396026 0.2131352 2.086564
0.28798428 0.48641944 0.082277305 0.89470744 0.36826584 0.30501926 0.038738765 0.51648235
1.9142834 0.08214607 -0.38293627 0.061441932 0.20776106 -0.601616 0.14947586 0.24640763
0.20163153 -0.051628843 0.6637139 0.005431283 -0.12053844 1.6850183 -0.09083947 -0.03392424
0.07449431 0.19392885 0.044848163 0.18900768 0.05614465 0.3800202 0.24481528 0.23770082
0.81427693 0.21357812 -0.8357316 1.4083588 0.4048391 0.020842265 -0.054230906 0.4105608
0.38147292 0.503268 0.09873592 0.21255742 0.0716398 0.62751627 0.024888372 -0.54444516
0.29214084 -0.64911914 -0.08593327 -0.036471143 0.094176136 -0.22035559 0.1802276 -0.14484662
0.007688738 -0.08394962 0.11724073 0.09906462 -0.07461301 0.4017737 -0.08996452 0.56028783
0.3893196 -0.052217368 -0.044646837 0.19514926 0.41798437 0.2867258 1.1658455 0.106016845
0.07165282 0.19767563 0.013410875 -0.38437825 0.012386959 0.21458437 0.20756738 0.13771112
0.09416098 0.055976342 0.10048139 -0.0014050456 -0.1002828 -0.015005704 0.14751413 0.30796182
0.17557888 0.2296378 -0.16886067 0.12348775 0.023210278 0.010330717 -0.15357505 -0.14610699
0.24517277 0.54483414 -0.11738107 -0.059024572 0.12272718 0.08913942 0.3140902 0.15647234
-0.08074934 0.16758056 0.5355851 0.17271422 0.31567112 -0.2508018 0.7045924 0.0563564
0.1949947 0.18113644 -0.008780045 0.6979685 -0.0063755633 0.19236864 0.4554561 0.44222647
0.2757536 -1.9824146 0.17454584 0.4299927 0.08414475 -0.030697878 0.059325986 0.32094604
0.9492444 0.42110112 0.21523072 -1.9539524 0.10091714 -0.066345274 -0.027614992 0.08724265
0.40135863 0.06545385 0.30936214 0.5395737 0.055648513 -0.051035613 0.07666239 0.7416446
0.42949545 -0.16974686 0.019218303 0.67227924 0.14345796 0.14518484 0.19479108 0.07520497
1.6535461 0.0756523 0.09261232 -0.009541498 0.027326006 0.21778835 0.19953543 2.3030345
0.27315786 0.9746539 0.059725247 0.24000075 0.0049988413 0.19907807 0.1713683 0.35826516
0.71944696 -0.07916548 0.21296175 0.6426982 0.04892131 0.47541457 -0.030609043 -0.12883924
0.31644678 -0.02111464 0.44161445 0.18770711 -0.56803244 0.50068676 0.097185545 0.10750707
0.47556046 0.030668367 -0.005271467 0.023836255 -0.14995486 0.1786128 0.68117636 0.831087

bn1.running_mean f4 [400]
00000000: 1135 c13f 7d6f 3b40 0afb 5440 b541 373f
00000010: 2063 8b40 3978 473f 7924 e73e 002a 1440
00000020: 4175 0b3f cb43 8540 8d24 8040 86b4 4740
00000030: 79e8 043f 55f6 ef3f 8bf7 303f a976 773f
00000040: 7dc6 d23f 3ff5 1d3f 6158 f63f b2e3 db3f
00000050: 6680 0240 7539 5a40 664a 2a3f 7680 843f
00000060: 384d d43e f5e2 973f 1feb 8140 e93a 2d3f
00000070: 0cc6 5e3f 0ff9 2740 3c3a b73f 594a 9c3f
00000080: 3916 3e3f 127a 4e40 7eef 883e de61 1f40
00000090: ba72 7540 4a80 9c40 9f9a d23f a1f0 e73f
000000a0: e26f a63f d9a0 c73f 27ca b53f e989 1940
000000b0: e6fd 9b40 e1ae d43e 1f71 643f 34e7 9840
000000c0: f7e4 7f3f 98d2 8a3f 483c 4c3e 2ce2 d43f
000000d0: a5fc 8040 1e65 a23f 0ed2 323f 59ee 923e
000000e0: 94ff 4240 48fb cb3f ee10 4c40 2836 1a3f
000000f0: 545a fd3f 3819 e73e 1e2f 0440 0c81 8d40
00000100: df01 1440 43b3 3240 a427 253f d04b 9a40
00000110: 7d85 eb3e e8a0 0840 e59a 413f 0d06 4b3f
00000120: 698e 6340 7815 153f cd02 7640 46bd a93f
00000130: f3c7 b340 90db 4d40 f194 1f40 d407 9540
00000140: 489c 613f 1199 323f f7f9 9b3f cbe7 b03e
00000150: de15 bd3f 43aa 843f 33ef 8b3f 3e4b 533e
00000160: dff4 883f cc36 5940 c2d7 1440 aa4d 963f
00000170: 2284 753f 4255 033f edaa 0340 7536 e93f
00000180: 4ed9 ba3f 2ca4 ce3f bab9 d440 ee31 6540
00000190: 0981 a43f 8c6a db3f bcb9 123f 538f 2340
000001a0: 25c9 3040 bd7b 523f 155c d840 91eb b13f
000001b0: a88b a73f 3823 d53f 79fc 9a3f 255c 0c40
000001c0: 5dc1 c13f 066f 3440 0169 8940 ab88 7e40
000001d0: f0cf 1840 8462 c83f 4355 403f c453 e73f
000001e0: 63e8 5640 52f3 4a40 f243 423f 1a21 a83f
000001f0: c1f3 a43f fe5e 2d3f e3af e33f ab7f 8240
00000200: 9d12 ab40 a4d3 6f3f 6ec9 d13f aca4 8b40
00000210: 83c0 fa3f f95b ab3f 11f5 eb3e 5cdb b73f
00000220: 58e6 433e 3825 8740 9a58 3a40 c018 9d3e
00000230: 23ed 9a3f 1c37 8440 4163 4f3f e47f 823f
00000240: 604f 2f3f 0622 df3e 28f8 a540 d1d8 a83f
00000250: 7e99 f73f ac9e cb3f e619 713f ba5a b73f
00000260: 0414 0d40 86db d83e d798 b33f b3da 0040
00000270: 6dbf d140 37a1 1b3f 00a0 0940 323e 2a3f
00000280: 1a90 0040 94f7 8b40 1077 2f3f d8bc 0b3f
00000290: bc0a 063f a9ee f53f 5a31 2c40 2a99 e03f
000002a0: d0f0 0c3f f5df 173f 5d48 9240 2451 963f
000002b0: 38b0 e540 2ec9 8f3f 1522 a53f 2a7f 9640
000002c0: a20b 4040 5326 873f b120 413f f418 da3f
000002d0: 71ba df3f f3db e13f e209 7440 c715 a03f
000002e0: c0ab 843f 2284 2440 6705 6240 ae6b c53e
000002f0: 51e1 2b40 1ae1 9b3f 5ecc 413e f4a9 9f3f
00000300: 5849 9e40 2fea e140 e2b5 6b40 b504 3d40
00000310: 9ebc ca3f 1c82 8d3f 7806 183c 98ae 4240
00000320: bf41 fa40 7096 d23f f278 803f f7f0 c63f
00000330: a759 f73e 59e0 9d3f b35f 1940 9728 9d3f
00000340: ebba e53f 0b7a c63f 9e5d 943d c2a0 4d40
00000350: 82a1 4340 8ca0 e23f 1a80 0d41 1aa0 873f
00000360: b667 e93e c47b a33f 2e0d 7540 23fa a93e
00000370: 6e9f ea3f 0c47 b63f f413 cf40 9473 e13f
00000380: ef5a c33f e2a5 dc3e 3486 b840 4a1d ca3f
00000390: 147a 2440 3c33 9c3f eeb8 003f 8713 b140
000003a0: e502 833f fd56 b73f 2839 8740 6482 263f
000003b0: 5982 2440 c5eb d63f 5c6f 0840 eacc 553f
000003c0: f878 8640 0797 0241 69a3 4b3f c4ed 7e40
000003d0: 8b73 5c40 7bae 6c3f ddef f43f 55d5 753f
000003e0: 4ed8 0740 ba03 1f41 b73c 8d3e b008 d03f
000003f0: 963e 863f 53ef f13f 412f 1240 5996 363f
1.509432 2.9286797 3.3278222 0.71584636 4.35585 0.7791782 0.45145014 2.3150635
0.5447579 4.1645255 4.004462 3.1203933 0.51917225 1.874705 0.6912772 0.96665436
1.6466824 0.6170234 1.9245721 1.7178862 2.0390868 3.409757 0.66519773 1.0351703
0.41465163 1.1866137 4.0599513 0.67668015 0.87020946 2.6245763 1.4314647 1.2210189
0.7425266 3.2262006 0.26745218 2.4903483 3.8351274 4.8906603 1.6453437 1.8120309
1.3002894 1.5595962 1.4202317 2.3990424 4.8747435 0.41539672 0.8923511 4.778223
0.9995875 1.0845518 0.1994487 1.6631522 4.0308404 1.2687109 0.6985177 0.2869747
3.0468493 1.593606 3.1885333 0.60238886 1.9793191 0.45136428 2.0653758 4.422003
2.3126142 2.7921913 0.6451361 4.8217545 0.4600028 2.134821 0.75626975 0.7930611
3.555567 0.58235884 3.843921 1.3260887 5.618158 3.216526 2.4934657 4.6572056
0.8812909 0.6976481 1.2185658 0.34551844 1.4772298 1.036446 1.0932373 0.20634171
1.0699729 3.3939695 2.3256688 1.1742451 0.95904744 0.5130197 2.0573075 1.8219744
1.4597566 1.6143851 6.6476717 3.5811725 1.2851878 1.714189 0.5731466 2.5556228
2.762277 0.8222006 6.7612405 1.3900014 1.3089495 1.6651373 1.2108299 2.193124
1.5137135 2.8192763 4.294068 3.9770916 2.3876915 1.5655065 0.751301 1.8072438
3.3579338 3.171101 0.75884926 1.3135102 1.2886888 0.6772307 1.7788051 4.0780845
5.346022 0.9368231 1.6389596 4.3638515 1.959 1.3387443 0.46085408 1.4363818
0.19130838 4.2232933 2.9116578 0.30682945 1.2103618 4.131727 0.81010824 1.0195279
0.6848049 0.43580645 5.1865425 1.3191167 1.9343717 1.5907798 0.9418014 1.4324563
2.2043467 0.42354983 1.4031018 2.0133483 6.5546174 0.6079287 2.1503906 0.6650115
2.0087953 4.373972 0.6854105 0.5458503 0.5236013 1.9213458 2.6905122 1.7546742
0.5505495 0.59326106 4.5713334 1.1743512 7.177761 1.123327 1.2901026 4.703023
3.00071 1.0558571 0.7544051 1.7038865 1.7478772 1.7645248 3.8131032 1.2506646
1.0364914 2.5705647 3.5315797 0.38558716 2.6856272 1.217807 0.18925616 1.247374
4.946453 7.059837 3.6829762 2.9534123 1.5838811 1.1055331 0.009278886 3.0419064
7.8205256 1.645216 1.003691 1.5542287 0.48310587 1.233409 2.396466 1.2278012
1.7947668 1.5505995 0.072444186 3.2129369 3.0567327 1.7705245 8.843775 1.0595734
0.45586938 1.2772145 3.8289294 0.33198652 1.8329904 1.4240432 6.4711857 1.7613397
1.5262126 0.4309531 5.766382 1.5790188 2.569951 1.2203135 0.5028218 5.5336337
1.0235258 1.4323422 4.225727 0.6504271 2.5704558 1.6790701 2.1317968 0.835158
4.2022667 8.161872 0.7954622 3.983262 3.4445522 0.92453736 1.91357 0.96028644
2.1225772 9.93841 0.27585384 1.6252651 1.048785 1.8901161 2.2841341 0.7132316

bn1.running_var f4 [400]
00000000: 6220 3b41 8536 cb41 509a 2c42 eb3d 9940
00000010: adc6 1942 b0bf e940 39e9 0040 aef5 1741
00000020: dae6 3140 8bba 3f42 8097 0742 c22c 3d41
00000030: b9b3 1140 818e 2c41 3053 2a40 2125 2340
00000040: 18b7 9741 3f85 8c40 9551 6341 1848 1c41
00000050: fc10 8041 60e0 0642 5960 9940 5c82 e540
00000060: 9256 4540 e31b 1e41 6275 f241 5758 0341
00000070: be25 0141 b167 9d41 aa11 e640 fa4f 5041
00000080: f8f3 a840 3d41 8741 fe71 db3f 49d6 8b41
00000090: ed59 0d42 8d06 ac41 4175 6541 64b7 2a41
000000a0: 6e40 7041 2741 4341 cad4 3e41 8bc4 5f41
000000b0: 3cf4 0c42 4fa0 ce3f 1e4e 0741 08e3 0142
000000c0: c39b 8640 bd30 0c41 a424 6f3f d058 0241
000000d0: ffb2 3d42 d8bb 0c41 5aa6 8840 0e60 973f
000000e0: 8c43 1d42 0d35 2e41 8444 0b42 6529 4140
000000f0: 003c 6441 6c96 7040 80d1 9141 983e 7a41
00000100: 6c4a 4141 6616 b941 b31a 4540 0ddb 0342
00000110: 2477 db3f e961 d440 94f7 5540 8424 9140
00000120: a52c 3842 b268 8f40 12cc fd41 0cb5 5041
00000130: db07 4142 8054 0742 78ec 7d41 b737 7742
00000140: 6019 c240 aa8e 9340 3fbc c140 b097 ce3f
00000150: fffb 1441 a684 ab40 157a 2341 3253 7c3f
00000160: 56c4 f740 eac5 ec41 e9a7 a041 c272 ef40
00000170: e335 1e41 a831 8840 3b54 1b41 eb95 6541
00000180: d59c 9240 1341 e140 e8c2 b042 1af5 8f41
00000190: c554 f440 8474 0b41 e7be b440 9f04 9541
000001a0: bd0c c741 2a8e 7940 a117 9442 c422 dc40
000001b0: 64b0 8241 bb9a 7641 40ce 1641 0dc5 3241
000001c0: bf31 4441 6f04 d741 d1ba 3e42 28c3 0142
000001d0: affa 9841 e14f 6241 b169 9b40 b825 6841
000001e0: 78cd 0b42 e8fb c041 1601 c340 4f1a 3741
000001f0: fef2 1641 89a3 9040 b344 a241 a7ac 0542
00000200: 5abd 2f42 8ded 8340 edaa 4a41 6610 5042
00000210: 58bc 5741 157f 1041 f406 f43f d19a 4141
00000220: bcc8 973f 3026 1942 35e8 e741 12f4 b63f
00000230: 14ca 3c41 0219 3442 2899 8240 4352 eb40
00000240: f6c4 8840 dd7e 2140 55ff 9942 d483 4241
00000250: 874f 9841 6681 4141 fe87 1441 28ff 3741
00000260: eadf 9c41 9cf0 0940 7727 4841 7cd0 b741
00000270: f0cc ca42 6aa6 4740 6a81 6e41 3324 b640
00000280: 9c9c 4241 f37d cd41 957c 8040 b6f4 8640
00000290: fbc1 a140 2352 e641 fe15 f041 083c 0041
000002a0: 7f72 c03f e299 3c40 34e7 1d42 f0f6 4541
000002b0: f2b7 9442 5e31 bd40 5f76 d040 a2ec ee41
000002c0: cde2 fb41 74c0 4f41 44b7 b740 fdf8 0c41
000002d0: 429b a141 860f 9141 40ad 9641 2600 9440
000002e0: 4365 0841 daea 8741 1233 1a42 b917 0240
000002f0: 2fba fb41 18f1 3341 1551 9c3f 6aca f140
00000300: 0efb 1242 31dd b742 65f9 b041 382d d741
00000310: 6c94 3041 6555 a340 e2e4 363d ce20 1742
00000320: 9ff4 9242 541d 8e41 6e73 9640 2898 e540
00000330: bd9a 3d40 7ba3 aa40 6678 b041 be1d b340
00000340: 4e1a 0b41 5a33 5d41 3e4d ad3e 08b5 d041
00000350: fab0 0a42 a680 b041 5de4 d142 5039 3441
00000360: 0a55 2140 5b67 6941 dbfd e941 3779 0440
00000370: 4112 b841 3afc c240 be2f a042 2960 1941
00000380: f67c 3141 5b0a e83f 30ef 2642 8ecc 4741
00000390: 3c87 ca41 5743 9540 227c 8640 34e0 4d42
000003a0: be02 c340 4e63 4f41 4dc3 b641 a3a3 5e40
000003b0: 8880 de41 b034 1041 4582 8741 b7d4 fe40
000003c0: 394d d241 363f 1f42 54f3 8740 daca d641
000003d0: 0400 2442 dacd 7040 8c18 5941 68d9 de40
000003e0: b7b9 1642 ba75 eb42 950a 993f 1251 8341
000003f0: 795c 0d41 f534 fb40 0345 8841 1d99 7840
11.695406 25.40162 43.150696 4.7888083 38.44402 7.3046494 2.0142348 9.49748
2.779715 47.93217 33.89795 11.823427 2.2765944 10.784791 2.6613274 2.5491412
18.964401 4.3912654 14.2074175 9.767601 16.008293 33.719116 4.793011 7.172163
3.0834088 9.881808 30.307316 8.209067 8.071714 19.67563 7.1896563 13.019526
5.2797813 16.906855 1.7144163 17.479631 35.33782 21.503199 14.341126 10.669773
15.01573 12.203406 11.92695 13.985484 35.23851 1.6142672 8.456572 32.47171
4.206514 8.761899 0.93415284 8.146683 47.4248 8.79586 4.2703066 1.1826189
39.315964 10.887952 34.81691 3.0181515 14.264648 3.759181 18.227295 15.640282
12.080669 23.135937 3.0797546 32.963917 1.7145734 6.636952 3.343236 4.5357075
46.0436 4.48153 31.724644 13.044201 48.25767 33.83252 15.870232 61.80441
6.0655975 4.611165 6.0542293 1.6140041 9.3115225 5.3599424 10.217305 0.98564446
7.742717 29.596638 20.081987 7.4827585 9.888156 4.2560616 9.708064 14.349101
4.5816445 7.0391936 88.38068 17.994678 7.635348 8.715946 5.6483035 18.627256
24.88122 3.899302 74.04615 6.879244 16.336128 15.412776 9.425354 11.173108
12.262145 26.877165 47.682438 32.440582 19.122404 14.144502 4.856652 14.509209
34.950653 24.123001 6.0938826 11.443923 9.434324 4.519963 20.283545 33.418606
43.934914 4.122748 12.66673 52.016014 13.483482 9.031026 1.9064622 12.100297
1.1858134 38.287292 28.988382 1.4293234 11.7993355 45.02442 4.081196 7.3537917
4.274043 2.5233681 76.998695 12.157185 19.038832 12.094091 9.283201 11.499794
19.609333 2.1553106 12.509635 22.976799 101.40027 3.119532 14.906595 5.691919
12.163235 25.686499 4.015208 4.217372 5.0549293 28.790106 30.010738 8.014656
1.5034941 2.9468923 39.475784 12.372787 74.35927 5.9122763 6.5144496 29.865543
31.485743 12.984486 5.7411213 8.810788 20.20081 18.13258 18.834595 4.625018
8.524722 16.989674 38.549873 2.032698 31.46591 11.246361 1.2212244 7.5559587
36.74517 91.932014 22.121775 26.89708 11.036236 5.104174 0.044651873 37.782036
73.477776 17.76432 4.7015905 7.1748238 2.9625695 5.332456 22.058788 5.5973806
8.693922 13.825037 0.33847994 26.088394 34.67283 22.062817 104.94602 11.263992
2.5208154 14.587733 29.248953 2.0698984 23.008913 6.0932894 80.09325 9.585977
11.093008 1.812816 41.73358 12.48744 25.316032 4.66447 4.202653 51.46895
6.0940847 12.961744 22.845362 3.4787376 27.81276 9.012863 16.938608 7.963466
26.287706 39.81173 4.248453 26.849049 41.000015 3.7625642 13.568493 6.964039
37.681362 117.729935 1.1956354 16.414585 8.835076 7.8502145 17.033697 3.8843453

fc2.weight f4 [280, 400]
00000000: dcc7 473e 9e8e 96bf 6c47 2fbe b9ea ab3f
00000010: 0bb1 98bf c3f8 6a3f cbd5 94bf 6916 94bf
00000020: 16b0 9a3d ead6 02c0 f142 c2be 54fb 6cc0
00000030: c623 9dbf 4369 10bf 75e7 333f be57 c5bf
00000040: 0b95 753e 62ab 7e3e ca6b b4bf 5d18 96bf
00000050: 159c 95bf 3101 f1bd 318f 113f e52e db3e
00000060: fd23 493e ac12 1abe 6a48 aebd 4b88 cd3d
00000070: 4ce1 193e e527 00bf 4c83 39bd 96ed 7abf
00000080: dc70 363f 0545 d4bd 2bc0 e1bd 1e43 b8bf
00000090: 9629 7b3f ce0c 41bf 53d9 85be 8f2d 1f3d
000000a0: b422 a73e ba5f b23c 90a3 c13e d0c7 c7bf
000000b0: d91e c3bd 7bf9 aebf b2b9 dfbe 2d3b b53f
000000c0: 5f39 5fbe 37de 0fbf 5147 42bf 608a babf
000000d0: 148a d33e c5b3 4b3f b930 b7be d43e dbbe
000000e0: abd5 34bf 02d8 a5bf d75e 00c0 4c25 d0be
000000f0: 2e1c d4bf da83 3cbf af49 f1bf 9b2b 77be
00000100: ceb0 acbf 4ebc 44be 2af0 0e3f 6747 9abf
00000110: fb0d 3dbe 26cb ccbe fe9c b03e a5ef 05bf
00000120: 6862 a9bd a17d 3bbd 3f48 d4bd b613 30bf
00000130: c013 6abf 6b40 693f f3f5 aabf 67c9 dbbd
00000140: 2262 58be 3635 a23f d570 6fbf 4c83 e73e
00000150: 6377 603f 5b76 2ebf 7152 913f 9d24 0540
00000160: 673b 573f 068f acbd ddbb ecbe feaa a73e
00000170: cf8d c7bf 198e df3e b559 a5bf f9e4 23bf
00000180: bda9 103e 88be ab3e 7716 e23d d9c0 0cc0
00000190: 25b7 0c3f f58b 383f 400e 86bf c1ae cc3e
000001a0: a32f 55bd 7ee5 1bbf 6021 7a3f 7d5b ccbd
000001b0: fc4e 843c e201 883e 11b3 6dbf b039 f53e
000001c0: 4267 8bbf 647d 3e3f 4f52 b63f 8990 1abf
000001d0: 1863 d7bf 5765 323c 4978 95bf 9f65 f8be
000001e0: daec 453e f37c 203d b434 083f 5df1 553f
000001f0: a4ce 4cbe e163 b73e c015 9b3e 4425 e8bf
00000200: e0f4 0b3f 7fbc 903d ed67 5f3e e5c5 183c
00000210: e524 c6be 4801 30be 965c 08bf 7f4f 183f
00000220: f92b 9a3e 77df 4c3f a709 8e3f f0b5 bb3f
00000230: ab99 7e3e b86f 97bf 4286 98bf 0c4e e0bf
00000240: daa4 643f 1e07 23bf 7ba6 443f 3549 dd3f
00000250: 3d3f 9fbf 82f2 85bf c8de 73bf 30f3 a4bc
00000260: 14b1 403f a81d 6fbe c0cd d93e 7ee0 e03f
00000270: 19f8 323f fbc4 cd3d 9f5e 893f db08 8d3f
00000280: 4fdf b03f 053e 473e ac9d 28bf de98 05bf
00000290: 1d2a 633d 1452 433e 9bc6 8f3f f296 d83f
000002a0: 8d9d 09be 37e0 1dbe 5ec9 bfbf 4562 99bf
000002b0: 0e6f f33e aadc 41be 02cb 76bf e278 27bf
000002c0: 9340 753f fe58 a03c bfbc a43e 8e3c cd3e
000002d0: 1922 f73e 3fd2 02bf 3025 85be 60a4 39bf
000002e0: 941d e93e 0533 a4bb 65a6 39bf da1e 66bf
000002f0: b7f9 e9be 018e 49be dd06 d0bf 5833 01bb
00000300: cbaa 7dbf 3bec a23e 5dca 353d 9a77 9a3f
00000310: faeb 27be a8d5 9cbf 3d75 e9be d85d 90be
00000320: 1bf0 cdbf 28b1 933e 1bde b93f c252 8d3f
00000330: 7758 6bbf 8548 7c3f 04d2 e0be 6ede 853e
00000340: 3037 fabe be8c 07bf 5d81 ab3f 5400 bcbf
00000350: 5c35 b6bf 369a 87bf f16a 90bf dde4 2fbb
00000360: a1ba f9bf 2cf9 1cbf c0e1 413f 7986 2d3f
00000370: 5d29 b23e adfd 25c0 c6d4 2f3e 9efe 5fbf
00000380: d44f afbe abcf b0bf e95d 9d3f ea83 31bf
00000390: 739b b73d f56b 383e da51 0e3f 8643 01bd
000003a0: 14ea abbf 9d43 d23e f2d2 3dbf 38f7 cebf
000003b0: 3700 58bf 8c32 acbe ed93 1f3e eef0 71bf
000003c0: 7a6e a7bf d8ac 753e 6d09 d5bf c061 e4bf
000003d0: 9b85 ad3f 245b 573e a943 9d3f a97d 7a3e
000003e0: a0ad 743f abfb 843e 85f7 1b3f ee26 afbe
000003f0: 4816 843f cde1 af3d 188d 32bd 9e69 e5be
0.19509834 -1.1762273 -0.17117089 1.3431007 -1.1929029 0.9178583 -1.1627744 -1.1569339
0.07553117 -2.0443673 -0.37941697 -3.7028399 -1.2276542 -0.56410617 0.7027505 -1.5417402
0.23982637 0.24870065 -1.4095395 -1.1726185 -1.1688257 -0.11767805 0.5685912 0.42809215
0.19642635 -0.15046185 -0.08509906 0.100357614 0.1502735 -0.50060874 -0.04529123 -0.9801878
0.7126596 -0.10364727 -0.11022981 -1.4395483 0.9811033 -0.75410163 -0.26142368 0.038861807
0.32643664 0.021774162 0.378201 -1.5607853 -0.09527368 -1.3669885 -0.43696362 1.4158684
-0.21799229 -0.5619845 -0.7589007 -1.4573479 0.41316283 0.7957118 -0.3577936 -0.42821372
-0.7063853 -1.2956545 -2.0057886 -0.40653455 -1.65711 -0.7363869 -1.8850611 -0.24137728
-1.3491457 -0.19212458 0.5583521 -1.205304 -0.18462364 -0.3999874 0.34494776 -0.52318794
-0.08270723 -0.045774106 -0.10365342 -0.68780077 -0.91436386 0.9111392 -1.3356308 -0.10731774
-0.21131185 1.2672489 -0.93531543 0.4521736 0.8768217 -0.68149346 1.1353284 2.0803597
0.84075016 -0.08425717 -0.46237078 0.32747644 -1.5590152 0.436631 -1.2918001 -0.6402126
0.1412725 0.335438 0.11039441 -2.1992705 0.54966956 0.7208856 -1.0473099 0.39977077
-0.052047383 -0.6089705 0.97707176 -0.099783875 0.016150944 0.26563936 -0.9285136 0.47895575
-1.0890887 0.7441008 1.4243869 -0.60376793 -1.6827116 0.010888419 -1.1677333 -0.4851503
0.19328633 0.03918166 0.5320542 0.83571416 -0.20000702 0.3581839 0.3029003 -1.8136373
0.54670525 0.07067203 0.21816988 0.0093245255 -0.38700023 -0.17187989 -0.53266275 0.594963
0.30111673 0.8002848 1.1096696 1.4664898 0.24863307 -1.1830969 -1.1915972 -1.7523818
0.89314044 -0.63682735 0.7681653 1.7287966 -1.2441174 -1.0464633 -0.9526181 -0.020135492
0.752702 -0.23351157 0.42539787 1.756851 0.69909817 0.10047337 1.0732001 1.1018327
1.3818148 0.19457252 -0.6586559 -0.5218638 0.055460084 0.19074279 1.1232485 1.6921065
-0.13439007 -0.15417562 -1.4983327 -1.1983114 0.47545666 -0.18931833 -0.96403515 -0.6541883
0.9580166 0.019573685 0.32175252 0.40085262 0.48268202 -0.5110206 -0.26004934 -0.7251644
0.4553038 -0.005010965 -0.7251952 -0.89890826 -0.4569833 -0.19683076 -1.6252095 -0.001971444
-0.99088734 0.31820855 0.04438244 1.206775 -0.16398612 -1.2252703 -0.45597258 -0.28196597
-1.6088899 0.28846097 1.4520906 1.1040881 -0.9193186 0.98548156 -0.4391023 0.26146263
-0.4887023 -0.5294913 1.3398854 -1.46876 -1.4235034 -1.0593936 -1.1282636 -0.0026839294
-1.951008 -0.61317706 0.7573509 0.67783314 0.34797183 -2.5936081 0.1717101 -0.8749789
-0.34240592 -1.3813375 1.2294284 -0.6934191 0.089651965 0.18009932 0.55593646 -0.031558536
-1.343081 0.4106721 -0.7415 -1.6169195 -0.8437533 -0.33632314 0.15583773 -0.94508255
-1.308059 0.23991716 -1.6643502 -1.7842331 1.3556398 0.21030861 1.2286273 0.24461998
0.9557743 0.25973257 0.6092456 -0.34209388 1.03193 0.0858799 -0.04359159 -0.44807142

fc2.bias f4 [280]
00000000: 80cb b8bf 0108 ea3c 52b2 91bf 1543 a5bf
00000010: 77f5 c33e b885 2ebf 9d63 d4bf ccb1 74bf
00000020: c334 e8bf 2e78 e5be b61a 0cbe d814 73bf
00000030: d59c 5cbf 6acd 623f 412f 90bf 1bd4 c2bf
00000040: 6da2 21bf cda7 8bbf f05f 913d 39b3 e1bf
00000050: 4596 2ebf 52a0 c1bf 00b7 273f 4c6c 0fbf
00000060: 508f 3ebe 3991 e4be 9885 4cbe c6b1 85bf
00000070: 9e1f 813f 533e e6bf a27e ac3e e6bf 85be
00000080: df28 9bbf 3c80 43bf 8a9a 58bf 15cf fbbf
00000090: 5dbf b7bf c3f1 bfbe eb19 8abe 645f f33e
000000a0: 21ec dcbf bcd3 2bbf a413 76bf cabb d53e
000000b0: 9f8a 05c0 193d 70bd a86d 9dbf 7811 ff3d
000000c0: ed19 453d 02df a4bf f046 603c 563d a7be
000000d0: 2ff4 71bf 272a 313c 0d7e 923e 71e2 3f3f
000000e0: 3bd4 07c0 194f 53c0 ac99 e4bf 8a06 cbbf
000000f0: 0045 dbbf 4ec0 77bf a568 a5bf b09c 9d3e
00000100: 3947 7d3e 8031 6b3e f7bb 19bd 618f b6bf
00000110: 2b56 a7bf ed37 b2bf fbe1 f7bd 7955 9abe
00000120: 1a1b 65bf 9bbe 8abf 82a4 a03e 7c18 0abf
00000130: 6c78 79bf ee66 3dbf 865c e7bf 1f6c bb3f
00000140: 9d3f fe3e 92f3 07be aa19 7d3e c62e 50bf
00000150: b9db 89bf e7ce b33d 9389 563f 4d24 593f
00000160: fab0 41bf d9ef 62bf 2689 183f 5d08 fe3e
00000170: 5c08 6dbf f825 9ebf 96a7 8fbf cfab c5bf
00000180: 5e19 bfbf be05 983f 3018 6f3b c64d 25bd
00000190: bd49 51bf d9e7 b0bf a5bf 393e 355e ab3d
000001a0: 3220 81bf be19 fdbf 238f 403e 3714 adbf
000001b0: 8456 b43e aab5 cc3f 363e f3be 3187 9bbd
000001c0: a410 a3bf 723d 03c0 aa36 04c0 af06 40bf
000001d0: d145 adbe 3c52 08bf 26e6 f6be 9197 4fbf
000001e0: cc2b d4bf 0f47 503e fe1e ecbf b6b3 52bf
000001f0: 6601 dcbe aafa a6bf f797 82bf 6d42 26bf
00000200: ffd0 88bf 6cf4 c33e 709a 43bf 593c a83f
00000210: de56 f4be 54f3 8fbf 52b7 c13d b8b8 eabf
00000220: 6798 24bf a432 e63e bb63 b5bf b780 89bf
00000230: d159 2ebc e48a 1d3f fc6c 04bf 4116 103e
00000240: 483b 08c0 e6c6 cdbe c90c a5bf 1907 bdbe
00000250: e878 b4bc 073d bebf e80f 2abf 0b55 babf
00000260: c336 34bf f634 dabf 010a fdbe 71b9 1ebf
00000270: f8b0 2e3f b52a 27bf d3b2 dcbf 8dc4 b6bf
00000280: c684 18c0 c24b 6bbf 2e4d 3ebf d1d4 bbbf
00000290: ec98 2a3f d5f4 183f 9763 cc3e cc5c 033f
000002a0: 0f31 dc3e dbc8 b2bf 3bd5 abbf 8e8d b9bf
000002b0: 8ef6 0bbd 69d2 9d3e d3e9 f4be 3afa 8cbf
000002c0: 6599 bebf 2efb d4be ec66 6fbe a361 953f
000002d0: a8ee aebf a900 b1be 8ef2 04bf f8e9 b9be
000002e0: 0be8 793e f795 a4be 22dc 78bf 2a09 a1bf
000002f0: ba48 b3bf 94da 1a3e 36dd 41bf df30 5a3f
00000300: 3973 8c3e 6d53 64bf 6560 14c0 5268 a83e
00000310: 6d7b 14be 4be5 40c0 c893 39bf 9b5a bbbf
00000320: f45f b8bf af6f 33bf 021e 2cc0 d730 05c0
00000330: 386f 303e ae58 fdbf e251 52bf 0986 5d3e
00000340: 0008 1e3f deb2 63bf f608 90bf 6198 ba3e
00000350: d474 f9bf 8181 8fbf 2387 25c0 609d da3d
00000360: adc7 39be 45f1 53bf 3390 efbf 8f7c 88bf
00000370: daad f63c c39c bdbe 59a3 2cbf cbef f33c
00000380: 6db8 5cbf 5d9f 0bbf fed5 73bf b201 aabf
00000390: cd88 a83f 1a56 2ec0 959e 5cbe 9d89 d8be
000003a0: 38e0 9fbf ed1a b2be 02e3 b73e 5303 10bf
000003b0: b845 7c3e 71cf 2c3f a2be 5cbf 28f0 febe
000003c0: a01c 0e3f 1745 65bf fb53 9cbf e278 60bf
000003d0: d55a 563e 5738 4fbf a369 53bf 5b48 aabf
000003e0: dd43 c6be a595 aebf d4bb 93be f2bf 06bf
000003f0: 93dc 65bf 63f2 833c a0bf 94bf 7413 04bf
-1.4437103 0.02856827 -1.1382544 -1.2911097 0.38273212 -0.6817279 -1.65929 -0.95583797
-1.8141102 -0.44818252 -0.13682064 -0.9495368 -0.86176807 0.88594687 -1.1264421 -1.522098
-0.6313847 -1.0910584 0.07098377 -1.763282 -0.68198043 -1.5127051 0.6551361 -0.5602462
-0.18609357 -0.44642046 -0.19972837 -1.0444877 1.0087774 -1.798777 0.33690363 -0.2612297
-1.2121848 -0.76367545 -0.8461081 -1.9672571 -1.4355274 -0.37489137 -0.269729 0.47533715
-1.7259561 -0.67119956 -0.9612372 0.41744834 -2.0865858 -0.058652017 -1.229909 0.12454504
0.048120428 -1.2880557 0.013688788 -0.32663983 -0.9451322 0.010813273 0.28611794 0.749549
-2.1223285 -3.3017027 -1.7859397 -1.586137 -1.7130432 -0.9677781 -1.292256 0.30783606
0.247342 0.22968102 -0.037532773 -1.4262506 -1.3073171 -1.3923317 -0.12103649 -0.30143335
-0.8949448 -1.0839418 0.3137551 -0.5394361 -0.97449374 -0.73985183 -1.8075111 1.4642371
0.49657908 -0.13276508 0.24716821 -0.8132137 -1.0770179 0.08779698 0.8380367 0.84821016
-0.7566067 -0.8864723 0.5958427 0.49615756 -0.9259088 -1.2355337 -1.1223018 -1.5443057
-1.4929616 1.1876752 0.0036482923 -0.040357374 -0.8175314 -1.3820754 0.18139513 0.08367578
-1.008795 -1.9773481 0.18804602 -1.3521794 0.35222256 1.599294 -0.475084 -0.07594145
-1.2739453 -2.0506253 -2.0658364 -0.750102 -0.33842328 -0.5325048 -0.48222464 -0.81090647
-1.6575866 0.20339607 -1.8446958 -0.8230547 -0.42969817 -1.3045247 -1.0202626 -0.6494511
-1.068878 0.38272417 -0.7640753 1.3143417 -0.47722524 -1.1246133 0.09458794 -1.8337622
-0.6429505 0.4496051 -1.417106 -1.0742406 -0.010641531 0.61540055 -0.51728797 0.14070989
-2.1286182 -0.4019081 -1.2894527 -0.36919478 -0.022030309 -1.4862374 -0.6643052 -1.4557203
-0.7039606 -1.7047412 -0.49421695 -0.6200171 0.6823878 -0.6529954 -1.7242073 -1.4278733
-2.3831038 -0.9191247 -0.74336517 -1.4674321 0.6663959 0.59748584 0.3991973 0.5131347
0.4300618 -1.3967546 -1.3424448 -1.4496324 -0.03417068 0.30824593 -0.47834644 -1.1013863
-1.4890562 -0.41597885 -0.23379105 1.1670421 -1.3666582 -0.34570816 -0.5193261 -0.36311316
0.24404924 -0.32145664 -0.97210896 -1.2580922 -1.4006569 0.15122443 -0.75728166 0.8523082
0.27431658 -0.891898 -2.3183835 0.3289209 -0.14500208 -3.013995 -0.7249112 -1.4637026
-1.4404283 -0.7009229 -2.6893315 -2.081106 0.17229927 -1.9792688 -0.82156193 0.21633162
0.6173096 -0.88944805 -1.1252735 0.3644438 -1.9488778 -1.1211396 -2.586373 0.10674548
-0.18142577 -0.82790023 -1.8715881 -1.0663012 0.030112196 -0.37033662 -0.6743675 0.029777428
-0.8621891 -0.54540044 -0.952484 -1.3281767 1.3166748 -2.7240052 -0.21544869 -0.4229249
-1.2490301 -0.34786168 0.3591538 -0.5625507 0.2463597 0.6750403 -0.8622838 -0.497926
0.5551243 -0.8955855 -1.2213129 -0.8768445 0.20933087 -0.8094534 -0.82583064 -1.3303331
-0.3872365 -1.3639418 -0.2885424 -0.52636635 -0.89789695 0.01610679 -1.1620979 -0.51592183
