checkpoint_critic.pth (torch_old, 308649 bytes, 9 tensors)

fcs1.weight f4 [256, 33]
00000000: 7aaa 4d3c be30 cc3b 1b08 eabc 1679 e3bd
00000010: 68c8 3a3c 1fd7 a0bd 46c9 7abd 5a53 efbb
00000020: a892 a33c 988f 8cbc c522 2f3c c2da 1c3b
00000030: ef4d 98bc 737c dcbb 3bee 79ba f439 b23c
00000040: 793c 2f3d ef54 18bc cee8 08bd 84f2 873a
00000050: b9c5 65bb 6fa0 9cb9 b295 efbb a928 3ebc
00000060: d122 6d3b 6e74 bc3b b272 653e c488 0d3f
00000070: c930 24be f462 3bbd d307 10bf d61f 2b3d
00000080: 8838 0ec1 8a94 f1bf b1e5 a1bf f1c0 e1be
00000090: 6b27 b63d 4a45 48bf 3ec1 8cbf dfd7 993e
000000a0: 3e79 8dbf 4ed4 5abf d96b 6ebf dc35 dd3e
000000b0: 5743 08be 155b fcbe de5d f13e a993 273e
000000c0: 69d6 f53e 7440 c93d 6bca 553f a7a1 a53f
000000d0: 5bec 3b3f ccd2 4d3e 4221 9cbd cf69 103d
000000e0: a087 25be 1850 5bbe 0287 76be c5b7 bd3e
000000f0: 0c57 7f3e 4601 e5bd 7c0f 473d 19dc 50be
00000100: 9ae9 023d af43 fabf 79ee 21bf 780c 45bd
00000110: 1e0a 2d3f 7dda 86bf 038b 7abf 796b b0be
00000120: 4886 e43f 6589 c43d 1be1 57be cffa a13e
00000130: addf a63e 7a88 24be f006 9c3e 44b8 c5be
00000140: ea5f 07bf 7e41 0cbf 196f 19be 8e9c ee3e
00000150: 9adf a13f f8f7 2c3f 1f93 59be efd8 7cbd
00000160: 970e e13c f6ac 423e 6504 afbe 9b5e 76bb
00000170: 5e14 88bf ffb2 d83f 2abe 65bf 20b7 14bc
00000180: ba34 d5bf 5c04 453d 4392 d5be 120e d3be
00000190: adb4 e73e 2e2f 19bf acb5 923f 3636 4340
000001a0: 5497 a43f 673e 22bd 2fe0 a33c 8441 64be
000001b0: 096f 813e 75fe 37be 814b a13e 580c 2ebd
000001c0: 96ce 383e 5c12 513e 48b4 8cbd e2bd 4d3f
000001d0: 0754 363d ed15 18bf d50a a13f 6c16 c3bc
000001e0: 9930 983d 90bb 043d b0f0 bbbe a468 903e
000001f0: 21b0 e53e eb4f 85bf cff4 773f 4610 8c3f
00000200: 12f3 233d 5243 89bf 002c 98b8 91d5 1e40
00000210: 5e2f d1bc f08a d7bd d20e fbbe 8100 503e
00000220: 4432 6f3f 1eca d5bb 2caf cd3e 83cb b13d
00000230: 6d16 a8be 2f8d 723e af51 743d b191 543d
00000240: b870 75be 39e4 a03e 90a7 8e3e 1927 b23e
00000250: e93b ab3b b670 9b3c 8346 ac3e d5b3 23bf
00000260: 983e 5f3e 62a6 8a3c 9e47 67bd f221 bcbd
00000270: b2cc 4c3b 286a 8bbd 7feb 153f 8068 b23f
00000280: d9e7 8abe ac03 1c3d 834c a9bf 14fa 483d
00000290: 4aa3 b2c0 7c19 253e f4fa a03f 4d40 0b3f
000002a0: 8565 563f fb9b 44bf e283 193f 059c 0dbf
000002b0: 5133 323d 4779 1bbf d404 b6bf 750f 9d3f
000002c0: e377 943e cf28 1dbd c671 a33f 8a9f 8bbe
000002d0: a3db 1bbf 8424 5abf 901b fe3e 64e2 2f3d
000002e0: ceca f1be 842b 16bf 6093 e2bd bedb 743e
000002f0: 5967 0dbe dfe5 423e 852f 54be b533 293d
00000300: 5518 ef3f 1f9e 39bc de11 59bd 9653 eebf
00000310: 10ba d73c 33fa 8f3f 0050 68bd 3e44 6fbd
00000320: 392d 1ebc 7414 53be 77f6 273e a65f 243e
00000330: 2671 443e 7ced 15bc 793e 1bbb 6955 3bbd
00000340: e15b ccbc bafd b83a 4274 6dbc 420b ea3c
00000350: 4b24 2f3d 7bf1 30bc 61b0 2c3e 586d 133e
00000360: 3ada 1b3e 79ab ef3c ee85 24bc 598b 08bb
00000370: bde1 3cbc c58f 3b3b f491 f1b9 56b0 7a3b
00000380: eba3 dabe 3a0d 27be c732 b23e 9468 4dbd
00000390: dc72 f93d 30e9 c93c 1ce7 0041 3588 16bf
000003a0: a933 dfbe 2826 80be afd9 7b3f 6807 67bf
000003b0: 6123 63be 2dc3 333f 7eae ebbe 5b69 a73f
000003c0: 60d5 abbe 435d 75be dfad ba3e 63c2 a2be
000003d0: 959d cd3e 7d5a 093f 26f5 7dbf ac68 943f
000003e0: 87d9 05bd a5e0 bcbe 3801 213d 1b08 123e
000003f0: efa1 5f3e 5ce9 b93e f7f8 373f c5ee 56bf
0.012552852 0.0062313965 -0.028568318 -0.1110708 0.01140032 -0.07853531 -0.061227106 -0.0073036375
0.019967392 -0.017158315 0.010689442 0.00239341 -0.01859185 -0.0067287027 -0.00095340953 0.02175615
0.04278228 -0.0092975935 -0.033425145 0.0010371958 -0.003506048 -0.0002987417 -0.0073115462 -0.011606374
0.0036184082 0.005751184 0.22407034 0.5528681 -0.16034235 -0.045748666 -0.5626194 0.041778408
-8.888802 -1.8873456 -1.2648221 -0.44092515 0.08894237 -0.78230727 -1.0996473 0.3004751
-1.1052625 -0.854802 -0.9313331 0.43205154 -0.13306938 -0.4928824 0.47141927 0.16364922
0.48015144 0.098267466 0.8351199 1.2939957 0.73407525 0.20099944 -0.07623531 0.035257157
-0.16165018 -0.21417272 -0.24074939 0.37054268 0.2493555 -0.111818835 0.04859875 -0.2039646
0.03196106 -1.9551905 -0.63254505 -0.048107594 0.6759356 -1.0535427 -0.97868365 -0.34456995
1.7853479 0.095965184 -0.21081965 0.31636664 0.32592526 -0.16067687 0.30474043 -0.38617146
-0.5288073 -0.54787433 -0.14983787 0.46603817 1.2646363 0.6756587 -0.21247528 -0.06173032
0.027472777 0.19011292 -0.3418304 -0.003759301 -1.0631216 1.6929625 -0.8974329 -0.0090768635
-1.6656716 0.04809986 -0.4171315 -0.41221672 0.45255032 -0.59837615 1.1461692 3.0501838
1.2858682 -0.039610293 0.02000436 -0.22290617 0.25280026 -0.17968161 0.31502917 -0.04249224
0.18047556 0.2041716 -0.068703234 0.80367863 0.04451373 -0.59408456 1.2581431 -0.023814403
0.07431144 0.032405436 -0.36707067 0.28204834 0.44860938 -1.0415014 0.96857923 1.0942466
0.04002673 -1.072367 -7.2561204e-05 2.481785 -0.025535282 -0.10524547 -0.49034745 0.20312692
0.93436074 -0.0065243384 0.40172708 0.08681395 -0.3282961 0.2368667 0.059648212 0.051896755
-0.2396878 0.3142412 0.27862215 0.34795454 0.0052256477 0.018974643 0.33647546 -0.63946277
0.21801221 0.01692504 -0.056464784 -0.09186162 0.0031249938 -0.06807357 0.58562464 1.3938141
-0.2713001 0.03808944 -1.3226475 0.049066618 -5.5824327 0.16123003 1.2576585 0.5439499
0.83748657 -0.7680051 0.5996686 -0.5531619 0.04350597 -0.6073193 -1.4220223 1.2270342
0.28997716 -0.038368996 1.2769096 -0.27270156 -0.60882014 -0.8521197 0.49630404 0.042940512
-0.4722504 -0.5866015 -0.11063266 0.2391195 -0.13808955 0.19033001 -0.20721252 0.041309077
1.86793 -0.011329203 -0.052995555 -1.8619258 0.026333839 1.124823 -0.05671692 -0.05841469
-0.009654337 -0.20613271 0.16402613 0.16052112 0.19183788 -0.009150859 -0.002368836 -0.04573575
-0.024946155 0.0014113702 -0.01449305 0.028569821 0.04275922 -0.010799761 0.16864158 0.1439718
0.15219966 0.02925657 -0.010041697 -0.002083501 -0.01152843 0.002861963 -0.00046075846 0.0038252077
-0.42703184 -0.1631364 0.34804365 -0.05014856 0.12180111 0.024647325 8.056423 -0.58801585
-0.435941 -0.2502911 0.98379034 -0.90245676 -0.22181465 0.7021969 -0.46031564 1.3079027
-0.3356123 -0.23961358 0.36460778 -0.3178893 0.40159288 0.536537 -0.9920219 1.1594443
-0.032678153 -0.3689014 0.039307803 0.14260904 0.21839117 0.36310852 0.71864265 -0.83958083

fcs1.bias f4 [256]
00000000: 0ea7 eabe 00be cdbe 9282 e0bf 2d1e 73bf
00000010: 92cc 9bbf 4375 e9bf 3ae2 973d cff9 eebe
00000020: d77f bbbf 32f3 74bf 6fd4 c0bf e80d 76be
00000030: 8d61 88bf b54f fdbe 7647 debf 547a 55be
00000040: 34f0 f0be 5c94 ddbf 83a7 80bf 0c5d b6be
00000050: e690 fdbe bcc3 98bf f064 3ebf d82f b6bc
00000060: 3c4c 5bbe cd5c 19bf 028e d03d 2c05 77bf
00000070: 695f cbbf 367c 8fbe de27 81be f1e9 a1bf
00000080: 935d f3bd fa38 d6bd 2610 02c0 d238 8d3f
00000090: faba 99bf 0122 d2bf 1b61 bfbf f10f 1d3f
000000a0: 4373 d0bf 8c22 38bf 7414 c5bf e69e c7be
000000b0: d09b 673d ca33 c5be a9df 05bf 55ad 88bf
000000c0: 3b60 95bc b7f9 66bf dd7b eabf a02c f8be
000000d0: 8b02 b7be 4198 8fbe 7e05 48bf 183b df3d
000000e0: c5bc 8bbf 5f24 2abf bb6f 53bf 10b8 cdbf
000000f0: 38f1 98bf 47b6 01be 1d62 17c0 b8e4 c1bf
00000100: 53fe 69bf d1a8 a63c e15a 56bf 5e20 5dbf
00000110: 7787 04c0 e190 d6bf cee5 3abf fd76 78bf
00000120: e329 b9bf ec39 57bf 7c13 afbf 806f 1b3f
00000130: 034c babf c1b8 99bf 8f10 17bf 5a87 c9be
00000140: c34e e6be 2a22 2abf 4676 d0bf a039 88bf
00000150: 2f2d 2dbf ef67 b4bf 2ff5 a2bf 8bd3 adbf
00000160: ea5f 5abf 06ec 9dbf 9f65 e5bf 0857 81bf
00000170: 4daa 273d ece8 97bf e1ca 9b3f 2e7a 85bf
00000180: 2d62 503e 40cf c5bf 2314 b73e 0cf1 92bf
00000190: 27fc 80bf 973d a9bf 3306 7abf cf2b 2dbf
000001a0: 6360 aebf b349 b5be 25e8 8dbf 2ce3 91bf
000001b0: 648d 21bf 2a53 e5bf 1e5f 51be c41f 90bf
000001c0: 35f9 85bf 291e 43bf 8474 65bf 1069 46bf
000001d0: 5914 debf c895 a3bf 835e 253f 65ab a7be
000001e0: a15b 9cbf 4e00 a4bf bdf2 8cbf f386 103f
000001f0: 2df6 833e 41c7 a8be b83d 85bf 53b7 bdbf
00000200: a5a2 0dbf e669 9abf f022 e2bf 462c 28be
00000210: 2fb6 23bf bb55 3dbe 6930 36bf f35f abbf
00000220: 64bc 87bf 26a7 dcbf f2ab 79be c786 7abf
00000230: df81 a5bf c56e 0ec0 5f81 8fbf f0c2 0dc0
00000240: b7b1 4f3f 081b c0bd 6a23 0fc0 0e56 ffbd
00000250: 073a cabf f3f2 7ebf d474 b8be 998e 9bbf
00000260: 75ab a0be 141f 98bf ccfb 8bbf 7ded edbf
00000270: b170 6dbf 937b 75bf 0b9a 603e 7c4c cdbd
00000280: 1ab2 b7bf 7502 88bf 4d89 57bf 4eaa 9abf
00000290: d58d a9bf e80a 05bf c868 b0bf da2e c9bf
000002a0: b0e6 dbbf 7fa1 a2bf 19df 6dbf 8c61 26bf
000002b0: 8178 debd 2954 8fbf 81b3 e3be b9c5 9e3e
000002c0: 60b6 5f3f 7b29 64be 3b82 65bf 618a fbbf
000002d0: 7b36 8dbf 39f8 c5bf 6cc6 de3f 350c 01c0
000002e0: 6a2e e6be d6ee 78bf 78bf b7bf 6d25 59bf
000002f0: b4a9 dbbf 88e2 bfbf 3d5a 48bf 5b4b 97bf
00000300: a457 bbbf 453c 843e 56f2 0d3f 60d4 ed3e
00000310: e579 90bf 13cb dbbf d601 b0bf e6e4 4abf
00000320: 5ed3 06be ee1a 73bf 55b3 d4bf d881 f9bf
00000330: 450f ffbf e32d 833a b1a2 05bf 6db8 5bbf
00000340: e48d d5bf 4053 17bf d94b a9bf d613 cb3e
00000350: 51a3 9ebf 6b0e 26c0 9a48 66bf fb6a 3bbe
00000360: 94fc 84bf d7ec b7bf 8800 283e 97ac 7abe
00000370: c8a1 84bf 8919 1ec0 d9fc 9fbf acf6 81bf
00000380: f6ff 21bf 5a6d a6bf e209 50bf 144b 5cbf
00000390: add2 abbf e270 86bf 70ee babf 4817 2fbf
000003a0: e77c 04bf 956c 05bf e2d1 973e dabe 91bf
000003b0: 352e 7b3e a589 48be 6598 8cbf 4d0a 69bf
000003c0: 47ff 47bf a602 37bf 1841 9cbf b954 b6bf
000003d0: a5b9 cebf 3044 a1bf 2f45 bbbf afa1 0dbf
000003e0: 7fe0 cebf 09f4 39bf 32d4 89bf a1ae 93bf
000003f0: e1af 713f c4c2 f8bf 1d9c 08bf 2107 f9bf
-0.45830578 -0.4018402 -1.7539847 -0.9496792 -1.2171805 -1.823891 0.07416196 -0.46674964
-1.4648389 -0.95683587 -1.506483 -0.24028742 -1.065477 -0.49474874 -1.7365558 -0.20847446
-0.4705826 -1.7310901 -1.005112 -0.35617864 -0.4952461 -1.1934733 -0.7437277 -0.02223961
-0.214158 -0.5990723 0.10183336 -0.96492267 -1.5888492 -0.28024453 -0.2522573 -1.2649518
-0.11883082 -0.10460086 -2.0322356 1.1032965 -1.2010186 -1.6416627 -1.4951509 0.6135245
-1.6285175 -0.71927714 -1.5396867 -0.38988417 0.05654508 -0.38516074 -0.52294403 -1.0677897
-0.018234363 -0.90224785 -1.831905 -0.48471546 -0.35744128 -0.28045848 -0.7813338 0.10899943
-1.0916983 -0.6646175 -0.8259236 -1.6071796 -1.1948614 -0.1266719 -2.3653634 -1.5147924
-0.9140369 0.02034417 -0.8373242 -0.86377513 -2.070768 -1.6762964 -0.73006904 -0.9705656
-1.4465908 -0.84072757 -1.3677821 0.6071701 -1.4554447 -1.2009507 -0.5900964 -0.39361078
-0.44981965 -0.6645838 -1.6286094 -1.0642586 -0.6764707 -1.4094218 -1.2731074 -1.3580183
-0.85302603 -1.2337654 -1.7921637 -1.0104685 0.040933896 -1.1867957 1.2171289 -1.0427911
0.20349951 -1.5453873 0.3575755 -1.1479812 -1.0076951 -1.3221921 -0.9766571 -0.6764497
-1.3623165 -0.3540779 -1.108647 -1.1397452 -0.6310637 -1.7916005 -0.2044644 -1.1259694
-1.0466677 -0.76217896 -0.89630914 -0.7750406 -1.734996 -1.2780085 0.6459734 -0.3274795
-1.2215463 -1.2812593 -1.1011578 0.56455916 0.25773755 -0.3296452 -1.040946 -1.4821571
-0.553263 -1.2063568 -1.7666912 -0.16423139 -0.63949865 -0.18489735 -0.7116762 -1.3388656
-1.0604367 -1.723851 -0.24381998 -0.97861904 -1.2930259 -2.2255108 -1.1211356 -2.215023
0.81130546 -0.09380156 -2.2365365 -0.124675855 -1.5798959 -0.9958946 -0.36026633 -1.2152892
-0.3138081 -1.1884484 -1.0936217 -1.8588101 -0.9275008 -0.95891684 0.21933763 -0.10024354
-1.4351227 -1.062575 -0.8419388 -1.2083223 -1.3246409 -0.51969767 -1.3781977 -1.5717423
-1.7179775 -1.2705535 -0.92918545 -0.64992595 -0.10862828 -1.1197559 -0.44472888 0.31010225
0.8738766 -0.22281449 -0.8965184 -1.9651605 -1.1032251 -1.5466377 1.7404304 -2.01637
-0.44957286 -0.97239435 -1.4355307 -0.8482273 -1.7161164 -1.4991007 -0.7826269 -1.1819872
-1.4636121 0.25827232 0.554479 0.46451092 -1.1287199 -1.7171348 -1.375056 -0.7925552
-0.13166568 -0.94962966 -1.6617228 -1.949275 -1.9926535 0.0010008182 -0.5220137 -0.85828286
-1.6683927 -0.59111404 -1.3226272 0.3966357 -1.239359 -2.59463 -0.8995453 -0.18302529
-1.0389581 -1.4369153 0.16406453 -0.244799 -1.0361872 -2.4703085 -1.2499038 -1.0153403
-0.6328119 -1.3002121 -0.8126508 -0.8605206 -1.3423668 -1.0503199 -1.4604015 -0.683949
-0.51753086 -0.5211881 0.29652315 -1.1386368 0.24529345 -0.19583757 -1.0984007 -0.9103134
-0.781239 -0.71488416 -1.2207365 -1.4244605 -1.6150404 -1.2598934 -1.4630488 -0.55324835
-1.6162261 -0.72637993 -1.0767882 -1.1537668 0.94408995 -1.9434438 -0.5336321 -1.94553

bn1.weight f4 [256]
00000000: ced4 813f 081b 243e 4e90 333e 9bc5 253e
00000010: 4bfe 123e 6cef e03d 25ac 313f 3913 393e
00000020: 2353 363e 1f08 2f3e cc46 e73d 7639 693e
00000030: 5fa5 bc3d fb97 1f3e d23e 133e ea9d de3d
00000040: 5220 bf3d b256 f53d c2bc f73e 8286 1e3e
00000050: c7e4 e83d 3d59 e53e cd51 273e 4b32 3f3e
00000060: c2de eb3d 1307 d23d f238 7a3d 0f5a 2a3e
00000070: 80a7 0c3e bdd0 113e 961b cf3d 546e 183e
00000080: 4644 433e bad5 c43d 978f cd3d 1991 283e
00000090: 0936 c93d b9fb e03d db9e 5f3e 2966 9d3e
000000a0: 84aa 0f3e 3a61 063f 97ba 013e 5069 c33d
000000b0: e30e 9b3d d76a 0c3e b37c 493e cbdf 5c3e
000000c0: fbc0 173e c3d1 c73d 42ae bd3d 135c e83d
000000d0: ff91 ea3d 734a 473f a914 f33d 8f80 e73d
000000e0: 2609 043e 4bcc 1a3e 78b7 c33d 9119 663e
000000f0: fd5a 133e 66c5 e83d ae08 293e caf0 873e
00000100: fb74 193e d1a2 ff3d 77d7 1c3e 3011 cd3e
00000110: 6907 b03d 0463 223e 9ead 1d3e ee9e db3d
00000120: 062e ac3d c953 093e 2833 fd3d 1558 e93d
00000130: 8ed4 da3d 19be 003e ddd6 1c3e b29a 9d3f
00000140: 6476 a43d dc84 a03d 79ae 913d fde6 3b3e
00000150: c4e6 dd3d 3d22 1e3e 580f c3bd c2d8 253e
00000160: baa1 2b3f 5987 053e 45b9 ca3d c67c 183e
00000170: 2761 7b3e df2b 01be 0f45 0d3e eb93 693e
00000180: 706e d13d 958c 03be 7c98 cd3d 6cb6 053e
00000190: fcb4 2c3e d524 a03e e1f0 283e b9e2 e13d
000001a0: 1d4e 1d3e d155 193e 6808 d93d b104 1e3f
000001b0: 912b 043e a95e 003e d037 3c3e aa52 e93d
000001c0: 8bb4 ff3d 20a8 fc3d fccb 783d aa48 d23d
000001d0: 5a7d 013e 77a9 d03d 8caa 303e 39d8 313f
000001e0: 66b8 13be f0ac 483e c27d 283e 3537 ec3d
000001f0: 49d6 b83d e361 dd3d 23e3 e13d 9598 cc3d
00000200: 6d13 123e 1861 db3d 9fea 0d3e a90b 1b3e
00000210: 2435 f93d b453 b6be fea0 e33d 710d 233e
00000220: 6c90 cc3d 930a 273e 2b4b 813e 3cab 123e
00000230: bd1f c73d f81b 153e 07cd 00be 34b9 ec3d
00000240: f4b8 ef3d fe4f dd3d e6e4 2c3e ef89 f2bd
00000250: 0404 c73d 42f3 e13d 953e 4c3e f46d 013e
00000260: b149 35be c0b4 083e b517 e33d 332e 703d
00000270: 67f6 2f3e 5ac6 f13d 09e5 fa3d d260 0e3e
00000280: f41a 253e 699d fe3d 70b5 a13d 92dd c83d
00000290: 251d 043e c5d4 aa3d 691c dd3d 0a45 3a3e
000002a0: 3871 213e 2fc6 0b3f 8cec 243e b70e e73d
000002b0: 3133 f83d 3247 da3d 1aee f63d 2d8f 153e
000002c0: fdf6 013e d82d e93d 13e1 333e 6f47 383e
000002d0: b0d1 f13d 517f 373e 2824 293e 2f56 0e3e
000002e0: b102 05be e38e f93d 55ec aa3d e949 4b3d
000002f0: 0ec3 9f3d aae9 103e 6dbf 193e ef4a 263e
00000300: bdc2 b83d 234c d63d 55ec 493e a05a 633e
00000310: 652d ea3d 8d7a 9f3d 41a0 f83d f955 1a3e
00000320: c411 973e ff99 dc3d ff17 3a3d 38d9 ed3d
00000330: 9a6e fbbd 923e 4a3e 91b0 3e3e c60a 003e
00000340: 7ef1 0e3e e02b 203e a99f ba3e f563 333e
00000350: e863 e43d 4de0 df3d e276 7f3f 3f00 e43d
00000360: d9cb 133f d377 ac3e b19d 313e a6ab bd3d
00000370: fd34 b13d 459d 403d d93b ac3e 6f89 1e3e
00000380: c1cd 393e 6459 1a3e e7bc 333e 4bae 323e
00000390: 9f68 363e 8558 2c3e 19c6 e83d 2068 2ebe
000003a0: 4f00 43be 2262 f83d 60a2 773e 07ff 563e
000003b0: 6720 8a3e a6e1 873e 748b cb3d 47b4 833f
000003c0: c9a8 1b3e 49ed 093e 971d 0a3e 65fe a13d
000003d0: 7e97 083e 7a5b d83d 5de9 8a3e 9019 ffbd
000003e0: 5116 f03d 9da2 413e 677b 3e3e 80f2 a83d
000003f0: 4328 3f3e 5744 123e d2d5 1e3e 1b42 fa3d
1.0143068 0.16025937 0.17535517 0.16188662 0.14354818 0.10983166 0.69403297 0.18073739
0.17805152 0.17092942 0.112928 0.22775826 0.092112295 0.1558532 0.14379433 0.108699635
0.093323365 0.119794264 0.48386198 0.15480998 0.11371761 0.44794646 0.16339798 0.18671529
0.11517097 0.102552556 0.061089464 0.16635917 0.13735771 0.14239784 0.101126835 0.14885837
0.19069013 0.096110776 0.10037153 0.164616 0.098247595 0.10985512 0.21837942 0.30742005
0.1402989 0.52492106 0.12668835 0.09541571 0.07571199 0.13712631 0.19676475 0.21569745
0.1481971 0.09756806 0.09261753 0.11345687 0.11453628 0.77847975 0.11869175 0.113038175
0.12894115 0.15116994 0.09556478 0.2247069 0.14390178 0.11365776 0.16507217 0.26550895
0.14986031 0.12482227 0.15316568 0.40052176 0.085951634 0.15858084 0.15398261 0.10723673
0.08407216 0.13410868 0.12363273 0.113937534 0.10685073 0.12572517 0.15316339 1.2312834
0.08030394 0.07837841 0.07113356 0.18349834 0.10835031 0.15442748 -0.09524411 0.16195968
0.6704365 0.13039912 0.098986186 0.14891347 0.2454878 -0.12614392 0.13795875 0.22810332
0.102261424 -0.12846597 0.1003885 0.1305787 0.16865915 0.312781 0.16498138 0.11029572
0.15361829 0.14974143 0.105973065 0.6172591 0.12907244 0.1253611 0.18380666 0.1139272
0.12485608 0.12336755 0.06074141 0.10267766 0.12645474 0.10188573 0.17252558 0.69470555
-0.14425811 0.1959722 0.16454223 0.115339674 0.09025247 0.10809686 0.11029651 0.0999004
0.14265223 0.107118785 0.13859032 0.15141167 0.12168339 -0.35610735 0.11114691 0.15923096
0.09988484 0.16312627 0.2525266 0.14323133 0.097228505 0.1456145 -0.12578212 0.11558762
0.11705199 0.10806273 0.16884193 -0.11842715 0.09717563 0.11032726 0.19945748 0.126396
-0.17703892 0.133502 0.11088506 0.05863781 0.17183839 0.11805411 0.12250716 0.13904122
0.16123563 0.12432367 0.078959346 0.09807886 0.12901743 0.08341364 0.107964344 0.18190399
0.15765846 0.5459928 0.1610586 0.112821035 0.12119139 0.10658111 0.12057133 0.14605398
0.12691875 0.11385697 0.17566328 0.17996 0.11807573 0.17919661 0.16517699 0.13900064
-0.12989308 0.121854566 0.08345858 0.049631033 0.078008756 0.14151636 0.1501443 0.16239522
0.090215184 0.10463741 0.1971906 0.2220254 0.114344396 0.077870466 0.12139941 0.15071858
0.29505742 0.1077156 0.04543304 0.11613697 -0.12276955 0.19750431 0.18622042 0.1250411
0.1395931 0.15641737 0.36449936 0.175186 0.11151868 0.10931454 0.99790776 0.111328594
0.5773292 0.3368517 0.17345311 0.09261255 0.08652685 0.047024984 0.3363941 0.15482114
0.18144895 0.15073162 0.1755253 0.174493 0.17813347 0.16830643 0.11365909 -0.17031908
-0.19043086 0.12128092 0.24183035 0.20995723 0.26977846 0.26539344 0.09938708 1.0289391
0.15201105 0.13469423 0.1348785 0.0790985 0.1333904 0.10564323 0.27131167 -0.124560475
0.117230065 0.18909688 0.18601762 0.08249378 0.18667702 0.14283882 0.15511253 0.1221964

bn1.bias f4 [256]
00000000: 4a44 de3e 1a45 603d 7d44 953d c3aa b83d
00000010: a2e5 823c 03aa 15bb 1a75 213e c4a9 913d
00000020: baa7 e33c 4b53 663d 3c9e 033d 274d 1ebd
00000030: 7481 a13d 10be cc3d d55a 4bbc 215f 56bd
00000040: 1024 d2bd befc 6fbb 3a0f 753e a636 443d
00000050: 6814 833c 42fa 203e bf5c 863c 7407 39bb
00000060: f659 9f3c 5d1a f83c cb2c 3dbf 55f9 213e
00000070: 7210 5d3d b1a1 c9ba 091e 0dbc b3ec 01ba
00000080: e575 413d e1e2 5e3c cc6a bf3c a9a4 04b9
00000090: 5491 673c 6232 2bbd 738c ba3c 7d84 253d
000000a0: 3cd6 e73a 408b 703e bb5a a53d ab46 ff3c
000000b0: 0507 583b 71eb 5a3c 0d08 593d 79cf fe3c
000000c0: 77ab 483d 6707 433c 2f55 143d a7c4 033d
000000d0: 3a31 083b 78b7 a13e eca3 0d3d 02a7 963c
000000e0: 1592 fe3c 284c 983c 8b55 12bd 82df ae3d
000000f0: 2eb2 123d 7104 bdbc 2f57 4c3c 8289 ff3d
00000100: b82e fe3c aab0 7d3d e3e2 d33c 7d0c 3f3e
00000110: c1d5 77bb 7b34 5dbc 6042 a43d a38f d53c
00000120: 1337 963c 0647 863d 0f87 ec3a 487e 903b
00000130: f8d5 213c dc29 20bd a099 7b3d ba54 bf3e
00000140: 6137 58bb 9355 99b9 1f99 c93c 2c52 fa3b
00000150: d8b9 3ebd b7ec 1f3d 4ea3 33bd 4ddf 963d
00000160: 26d5 e33e 8459 263d 1fab 433d 82c5 453d
00000170: caf3 cd3c 95ca 3f3c ebcb 9c3d aff4 943d
00000180: b03f 323d d0f0 e0bc 6d0d 003c b403 48bd
00000190: e2fe 883d cfbe ba3d 377c 3739 4665 523c
000001a0: f8cb aa3d d2fc 853d 7613 56bc f0c7 083e
000001b0: 5e61 2c3e 5cd2 e03b 05ce 863d c653 4c3c
000001c0: c2c2 a43b 67a8 a9bb bf8c bdbb 68f3 d63a
000001d0: 1f6a df3a c99f 6d3d a086 0abc d942 823e
000001e0: 951d 94bd 5f95 7c3d 700c 343d 36d6 f13c
000001f0: 78dc 3a3d 05b7 18be c7f2 9f3d 6601 f9bc
00000200: 8980 b63c 5abc c43c fe1d 6a3d 11da 003d
00000210: 6ea8 14bb bf6b 90be 8c12 eab9 a1cf 163d
00000220: ee3f 58bc 86d9 a23d db7c d03d 4e61 26bd
00000230: e982 e1bb b599 193d ef4f b8bd 5f9b ec3c
00000240: 794f 7e3d 3029 c23a c465 f23d 48d1 e7bd
00000250: 562e da3b d5e8 9e3c 5caf f93c 7533 aebb
00000260: c412 6dbd 6fc8 a53a ba22 0f3c f39c 333b
00000270: ec32 b93c 50aa cfbb 78e8 973d d743 023a
00000280: 1747 1abc 8520 8bbd c788 033b fd1d bd3c
00000290: 0a4f a13b 4ee2 8abc 2d40 ba3b 7e40 b83d
000002a0: f37a 47bd e2be 923e 571d 213d 4b24 163d
000002b0: da97 0a3d b7df 003d ab27 283d 7a3d 333d
000002c0: eca6 ca3c 66b3 173d 9ff4 ca3c 37bc 9a3d
000002d0: 87e1 003d b1f1 603d 5455 dabb 01e2 553c
000002e0: 12fb 2fbd dd38 363c 9fa2 933c 1473 833a
000002f0: c798 c33c fa31 213d 6993 813d 5a92 d33c
00000300: af0a 22bc b755 2abd 9d8f f63d 143b f13c
00000310: 09a8 a7bb 7234 cfbc 1fe3 21bd 3275 39bb
00000320: fd3d 473e 98c1 bd3c 196d 8bbb 3d64 f93c
00000330: 168c afbc b671 253d 106f d03d 5a82 833d
00000340: 960a 813d a665 0c3d c9c6 0d3e 116f b93d
00000350: 05a7 823d 5477 93bc 0364 123e dd89 51bc
00000360: 4b3b 9e3e c428 2c3e 0eb5 debb 7bf1 2bbc
00000370: c913 dd3c e826 15bd 70b4 df3d 242b ce3d
00000380: 69d8 a13d 52f0 5a3d f26f 83bb a6d0 81bc
00000390: d393 0a3d 508a 003d 4306 1a3d 0ac5 9cbd
000003a0: 34c9 d2bd 21bc 6f3d 419d cd3d 81c4 b33d
000003b0: 6692 c43c 240d 1e3e e4df f33b baa5 e83e
000003c0: c197 5f3d 776a 553c f0ac e33c d8af 2f3b
000003d0: 8adc afbc f8bc 973c 8a7c bd3d a492 36bd
000003e0: bd5f 6d3a 8eb6 433d 139d e63d af2d e43b
000003f0: fbd3 423e 99d2 fc3c c298 793c b90f 453c
0.43411475 0.0547534 0.07288454 0.09016945 0.015978638 -0.002283693 0.15767327 0.07112458
0.02778994 0.056231778 0.032133326 -0.038647797 0.07886019 0.09997189 -0.012411793 -0.052336816
-0.102607846 -0.0036619152 0.2393159 0.04790368 0.016000941 0.15720466 0.016401647 -0.0028233202
0.019452076 0.030286008 -0.73896474 0.15817769 0.05397076 -0.0015383271 -0.008613118 -0.00049562304
0.047231574 0.013603897 0.023366354 -0.00012649842 0.01413377 -0.041796096 0.02277205 0.040409554
0.0017687748 0.2349062 0.08073946 0.031161627 0.0032963168 0.013361798 0.052986193 0.03110479
0.048991647 0.01190362 0.03621405 0.032169964 0.0020781294 0.31585288 0.034580156 0.018390182
0.031075517 0.018591002 -0.03572611 0.085387245 0.035814457 -0.023073407 0.012471958 0.124773994
0.031028137 0.061936058 0.025865024 0.18657108 -0.0037816616 -0.013501282 0.080204725 0.026069468
0.018336808 0.065565154 0.0018045622 0.004409585 0.009877674 -0.03910242 0.061425805 0.3736933
-0.0032991993 -0.00029246192 0.024609147 0.00763919 -0.046563953 0.03904411 -0.04385691 0.0736681
0.44498557 0.040612713 0.047770616 0.04828406 0.025140662 0.011706014 0.07656082 0.07273232
0.04351777 -0.027458578 0.007815701 -0.048831657 0.0668924 0.09118425 0.00017498514 0.012841528
0.08339685 0.06542362 -0.013066163 0.1335752 0.16834018 0.0068610143 0.06582264 0.012471145
0.0050280998 -0.005177546 -0.0057846005 0.0016399445 0.0017045176 0.05801371 -0.008454949 0.25441626
-0.07232205 0.06166589 0.043957174 0.029521089 0.04562041 -0.14913566 0.07809978 -0.030396175
0.022278087 0.024015594 0.05715751 0.031457964 -0.00226834 -0.28207204 -0.00044645777 0.036819104
-0.013198836 0.079516456 0.10180064 -0.04062014 -0.006882061 0.037500102 -0.08999621 0.02888268
0.06208751 0.00148133 0.118358165 -0.11319214 0.0066583557 0.019398132 0.030479126 -0.0053161927
-0.057879224 0.0012648235 0.008736307 0.0027406781 0.02260729 -0.0063374415 0.07417387 0.00049692154
-0.009416363 -0.06793312 0.002007054 0.023085589 0.0049227523 -0.016953614 0.00568392 0.08996676
-0.048701238 0.28661257 0.03933462 0.036655705 0.033836223 0.03146335 0.041053455 0.0437598
0.024737798 0.037036322 0.024774848 0.075554304 0.03146508 0.054917995 -0.006663004 0.013054372
-0.04296405 0.011121956 0.01802188 0.0010028803 0.02387656 0.039354302 0.063269444 0.025826622
-0.0098902425 -0.04158565 0.12039111 0.029447116 -0.005116467 -0.025293563 -0.03952324 -0.0028298614
0.1945724 0.023163602 -0.004254949 0.030443305 -0.021429103 0.040391646 0.101774335 0.06421347
0.06300847 0.034276627 0.13845362 0.09054387 0.06379513 -0.018001236 0.14295964 -0.012789217
0.30904612 0.16812426 -0.0067964857 -0.010494585 0.026986973 -0.036414057 0.109230876 0.10066822
0.07902605 0.053451844 -0.0040111477 -0.015846562 0.033832382 0.031381905 0.037603628 -0.0765477
-0.10292283 0.058529023 0.100397594 0.087777145 0.02399559 0.154347 0.0074424613 0.4543894
0.054588083 0.0130258715 0.027792424 0.0026807692 -0.021467466 0.018522725 0.092522696 -0.04457344
0.00090550986 0.04778152 0.11260428 0.0069634537 0.19026177 0.03086214 0.015234174 0.012027674

bn1.running_mean f4 [256]
00000000: 84f3 d03f 8b19 af3f 5c2d 2840 917f 0140
00000010: ec25 393f 15ee 973f 0f4e 2440 d6b5 5440
00000020: e91b 133f a23d eb3f bad3 dd3e d32b 1140
00000030: 9343 773f 98c9 4d40 e5ab aa3f 8b59 ad3f
00000040: de28 2240 95ea 183f 5b1f 3b3f 9e0a 1e40
00000050: 542b 873f 5b6f 373f eba8 2a40 e2c8 5f3f
00000060: 5a44 ab40 1854 1c3f 5356 5540 e792 1240
00000070: 0cab 333f d283 0040 5478 8e3f 5c16 673f
00000080: 527c 273f 7ebd bc3f 4077 233f 6c38 0140
00000090: 55a2 ab3f 9f48 fb3e b056 0c3f 20f4 8940
000000a0: 57a4 213f f09b 9a3f f2c3 d23f 9dc6 5240
000000b0: 29ca 9c3f 4647 8a3f 5f1a 0140 236e a93f
000000c0: 4015 0340 2251 5f3f d34e 153f 22fc d43f
000000d0: dc67 923f 9f53 d93f 80e2 ec3f 39f5 0e40
000000e0: 93e2 a13f ee22 a13f 6808 fb3f d77e f73f
000000f0: 12e8 7c3f 94ca ae3f f261 7f3e fb69 403f
00000100: 44a4 bc3f 9092 1140 0e48 0240 eebc 803f
00000110: 7aed ae3f 4dfa a73f abe8 6f3f 32d0 4a3f
00000120: dc72 a33f 82e6 7a3f 98b0 363f e9e4 c43f
00000130: d0f8 373f 73ba ff3f ffe1 1640 15bf 0e40
00000140: 0ecb 563f c523 6a3f 220c 0b3f 655e c33f
00000150: 7f2b 483f b190 d33f 8f39 9c3f 3665 ac3f
00000160: 9cc9 b03f e907 b03f fe83 633f 117b 8e3f
00000170: 30a0 b53f 46e0 833f 3106 ab40 96dd 2a3f
00000180: 7e50 6040 a20e 0740 c0f3 ba3f 23d8 ba3e
00000190: e9b6 ee3f f966 a03e 78d7 b33f 36bd 7a3f
000001a0: c813 0940 3add f03f 15ed b03f 8f4f 823f
000001b0: 5693 833f c170 7a3f d329 3840 3187 a93f
000001c0: 513b cc3f ecaa 183f a464 a23f 7524 ad3f
000001d0: 0809 843f fb12 0940 ca74 8e40 96f3 de3f
000001e0: 991d f63f 11fe 9b3f 64aa ef3f dcbe 3c40
000001f0: 7b08 e03f dbb6 f23f 57c2 3140 195b aa3f
00000200: 66a7 4f40 4696 763f 7966 e13f 3cfc 5d40
00000210: 849d 6e3f a4e1 3440 f363 8e3f 828e 4b3f
00000220: a556 4a3f 54ed e03f 5db3 e93f 6ba0 f23e
00000230: b715 f63f 8a41 1e3f deda b03f 8d50 af3f
00000240: b212 4a40 8b6c 453f 319c 593f 7760 5b3f
00000250: 75bf a03e 1489 133f d682 713f 2e84 e83f
00000260: ba9b 893f a693 0f40 4ab8 833f 73bd 023f
00000270: 3b7b 1540 2bcb 9b3f 7e21 1940 00e5 da3f
00000280: 4aa4 e53f 7875 1440 77ce 893f dd99 b43f
00000290: 6278 873f 0d6a 3a3f 20b7 2d3f 4ede ff3f
000002a0: 16de 603f e6a0 283f 1f4f d13f 16fe ae3f
000002b0: b23c b73f ed39 993f e7cb 3240 e5c6 3e40
000002c0: 3992 ec3f dc87 e83f 23dd fc3e d9f4 a23f
000002d0: 6ab8 f63f c565 7c3e 148f 0740 15c0 813f
000002e0: 9631 0e40 245f 2a3f 372e 553f 7162 a73f
000002f0: 52e0 383f 4b73 e53e e73d e83f 011f 0340
00000300: 1c1d 763f 0346 1440 4558 0140 362c 8440
00000310: 4c33 593f 8e74 d43e 68d8 3e3f b5e8 1a3f
00000320: aa13 1540 166b 463f 6124 bc3e cf59 8c3f
00000330: bceb 3f3f e9a6 2b40 eb11 0a40 f99e 833f
00000340: b817 633f 73e7 d43f 649d 7e3f 9993 3640
00000350: 358d f13f 7c62 183f 695e a03f 336c 2a40
00000360: 290a 993f 4def 303f e5dd b33f e58a 753f
00000370: fe15 a63f c229 863e 8b9f 403f d011 2640
00000380: bb0b 5b40 3b41 b43f a4db 153f 1cd2 be3f
00000390: 45fe da3e 5ec8 0c3f f65c 5d3f 543c 4f3f
000003a0: 5dca a53f 8d40 db3f 18a9 b13f 2e50 9c3f
000003b0: f6c3 0640 08f2 6640 0069 e83f a667 f93f
000003c0: be91 933f 3cb2 563f 92e5 103f 2166 db3e
000003d0: 12ef 8d3e edea 923f 6837 823f 783e 503f
000003e0: 04eb 4a3f 1fd5 473f 757d e93f 907b ac3f
000003f0: d526 0441 788c 8c3f 7adf 1d40 cb0d c93e
1.6324315 1.367967 2.6277685 2.023411 0.7232349 1.1869532 2.5672643 3.3235984
0.5746446 1.8378184 0.43325597 2.2682998 0.96587485 3.2154293 1.3333708 1.3542951
2.5337443 0.59732944 0.7309472 2.469398 1.0560098 0.7165429 2.66656 0.874159
5.3520937 0.61065817 3.3333938 2.2902162 0.7018287 2.0080457 1.1130471 0.9026849
0.6542407 1.4745328 0.63853836 2.0190687 1.3408915 0.49078843 0.54819775 4.3110504
0.6314139 1.2078838 1.6466048 3.2933724 1.2249194 1.0803001 2.0172346 1.3236736
2.048172 0.87233174 0.583234 1.6639445 1.1437945 1.6978644 1.8506622 2.2337172
1.264727 1.2588785 1.961194 1.9335583 0.9879161 1.3655572 0.24939707 0.75161713
1.473763 2.2745705 2.0356479 1.0057657 1.3666222 1.3123261 0.937144 0.7922393
1.2769427 0.98007977 0.7136321 1.5382358 0.7186403 1.9978775 2.3575437 2.2304127
0.83903587 0.9146083 0.5431539 1.5263182 0.7819137 1.6528531 1.2205065 1.3468387
1.3811526 1.3752414 0.8887328 1.1131307 1.418951 1.0302818 5.344506 0.66744363
3.5049129 2.110268 1.4605637 0.36493024 1.864957 0.31328562 1.4050131 0.9794496
2.1418324 1.8817513 1.3822352 1.0180529 1.0279338 0.978283 2.8775527 1.3244382
1.5955602 0.59635806 1.2686963 1.3526751 1.0315256 2.1417835 4.4517565 1.7418087
1.9227782 1.218691 1.8723874 2.9491491 1.7502588 1.8962053 2.7774866 1.3309051
3.2445922 0.9632305 1.7609397 3.4685202 0.932091 2.826272 1.1124252 0.79514325
0.7903846 1.7572427 1.8257862 0.47388014 1.9225377 0.61818755 1.3816793 1.3696457
3.157391 0.7711875 0.85003954 0.8569407 0.3139607 0.5763104 0.94340265 1.8165338
1.0750649 2.2433867 1.0290616 0.51070327 2.3356464 1.2171377 2.3926692 1.7101135
1.7940762 2.3196697 1.0766133 1.4109455 1.0583613 0.7281807 0.6785755 1.9989717
0.87838876 0.6587051 1.6352271 1.3671291 1.4315398 1.1970803 2.7936952 2.9808896
1.8482124 1.8166461 0.49387464 1.2730972 1.9275029 0.24648197 2.1181078 1.0136744
2.2217765 0.66551423 0.83273643 1.3076917 0.72217286 0.44814524 1.8143891 2.0487673
0.9613817 2.3167732 2.0210125 4.130397 0.848439 0.41495174 0.7454896 0.6051133
2.3293252 0.7750715 0.36746505 1.0964907 0.7496908 2.6820624 2.1573436 1.028289
0.88708067 1.6633133 0.9945891 2.8527586 1.8871218 0.59525275 1.2528812 2.662854
1.1956226 0.69115144 1.4052092 0.9591506 1.2975461 0.26203734 0.75243443 2.5948372
3.422591 1.4082407 0.5853827 1.490787 0.42772117 0.54993236 0.8646997 0.8095143
1.2952381 1.7129074 1.3879728 1.2211969 2.1057105 3.6085224 1.8157043 1.9484756
1.1528852 0.83865714 0.56600296 0.42851356 0.2772146 1.1477944 1.0173159 0.8134532
0.79264855 0.7805957 1.8241411 1.3475208 8.25948 1.0980368 2.466765 0.39268336

bn1.running_var f4 [256]
00000000: 0a22 c040 56d1 aa40 3b4f 9741 17fa 4441
00000010: 519f 3540 44d4 b140 ce59 4541 475b fe41
00000020: 7fd0 1140 ef68 5541 d1c8 1940 29c8 2841
00000030: b465 7840 2b74 ee41 592f dd40 97a2 bd40
00000040: e727 9f41 c3fb 2840 cc59 2f40 a937 b841
00000050: 566e ac40 f051 1840 52d7 8e41 0ed9 b240
00000060: 89b1 2342 12e8 8940 a2ce c741 ab7e 6e41
00000070: ab6b 3e40 6a6a 4341 b4ad 0a41 4e84 8e40
00000080: 9908 0e40 98da c140 1d08 4a40 7a1a 3941
00000090: 978d 2641 dd5e 0640 af9e 2940 896f c041
000000a0: ac8b 3540 5246 9740 a10b 3241 5c50 9e41
000000b0: a7a4 ad40 5e85 8f40 14f3 2b41 afea d040
000000c0: e431 4441 e6fe 5d40 b123 2240 bcd3 d840
000000d0: 893a ce40 30ea d140 2035 1741 8855 4041
000000e0: 33a0 be40 e71b bd40 0785 3b41 9a5f 3641
000000f0: a171 9540 9137 ad40 56ab 3b3f ff77 5040
00000100: ae5f fa40 3e14 7341 13a0 4741 6882 7040
00000110: 50e5 0241 19ba d140 166f 5440 723c 5540
00000120: b98e 1041 3b37 7b40 ff41 2540 4197 c840
00000130: 7aa7 3340 9bcc 9841 ae14 a641 7510 3341
00000140: 9b64 6340 fdce ad40 a8f6 3540 51b3 fa40
00000150: dc8a 4f40 cda8 4a41 e7f9 f040 25f3 1f41
00000160: 32c8 c940 a680 c740 4519 a840 fa7e 8540
00000170: 08ee d740 1ea9 c540 55b0 2542 67fa 3440
00000180: 36e1 ce41 c04a 3b41 4649 ca40 89e7 ae3f
00000190: 13ce 4541 a905 5a3f c92e db40 668a 7440
000001a0: 91ea 2841 7d16 1141 00ee 3d41 4e07 9f40
000001b0: f92b 3440 1040 8c40 d00d 8641 f7c3 db40
000001c0: d6c5 d640 e6f4 8140 f7cc eb40 322d 5441
000001d0: aa93 d040 8b0d 5141 15ef fe41 915b da40
000001e0: ef8e 2541 6f75 b040 8318 2141 57d4 7641
000001f0: 494d 1341 0c75 6041 2082 8c41 2262 e540
00000200: 3e59 7741 7e7a 9340 0b3a 1041 fb2b df41
00000210: 8912 c740 5b7d 8a41 68dc a340 110e f840
00000220: 142d 9b40 2551 1241 6252 0741 4329 f83f
00000230: 118b 5441 d8f9 2d40 e858 1a41 b97d cb40
00000240: f976 a741 e975 9540 a1b6 6340 c941 9740
00000250: fd68 ef3f 7b63 8540 ba18 cf40 864c 4541
00000260: 0aca 8640 4ae6 7d41 68d9 f040 f22a 1540
00000270: fcb0 6041 cd02 e040 3df5 1941 a090 1341
00000280: f8c9 1141 7fcc 5e41 9cb4 bf40 8955 0141
00000290: acd0 d640 109e 8440 4fff 5540 2717 2641
000002a0: d6c7 b440 99c7 0140 39a9 8041 f908 2741
000002b0: 0d56 f940 ed85 9240 3d51 9141 4263 9341
000002c0: 6daa 1d41 7613 2d41 c5ea 2140 9ad2 d140
000002d0: 61d7 1a41 dffa 383f 167a 2d41 c295 cb40
000002e0: 0720 3641 2184 9b40 6d7c b940 14cf f040
000002f0: 8ce2 2e40 391c e33f fa3a 0b41 21aa 2341
00000300: 90c4 ac40 2949 8041 076f 8041 f5f4 a841
00000310: 2287 7340 28d5 1040 b2cc 7140 b660 5540
00000320: 4a37 2041 72a5 9540 e80d f33f 3c5a f140
00000330: 92ae cd40 7404 8d41 c8d5 4c41 1dc2 a640
00000340: 2c48 9340 b367 4f41 6484 9040 8d3e 9641
00000350: 2a82 6341 120c 3940 9145 a340 7077 4d41
00000360: b807 b640 8c4c 3640 9d24 2641 7c0f 7c40
00000370: 882f ed40 f414 c63f f4ac 3140 070e aa41
00000380: c0d3 eb41 5911 2241 40dc 8440 9b1b 0f41
00000390: e167 dd3f a62d 6840 78b9 4d40 6e61 d540
000003a0: 8d14 b440 a4e4 0b41 378a d940 973d c740
000003b0: 3628 2a41 6d52 d541 a6ec 2941 1b95 0941
000003c0: bf75 ba40 02d0 b540 1c33 ab40 a8fd f73f
000003d0: 960c ad3f 5033 c140 1dc4 8840 5ec8 9240
000003e0: 440d 5e40 3c3a 9a40 6e31 2241 1538 0741
000003f0: d793 9642 e4f9 9640 dec1 a541 dfe3 0e40
6.004155 5.3380537 18.913687 12.311057 2.837849 5.5571613 12.334425 31.794569
2.2783506 13.338119 2.4028819 10.548867 3.8812075 29.806723 6.9120297 5.9260974
19.894484 2.6403663 2.7398558 23.027178 5.3884687 2.380001 17.855137 5.588996
40.923374 4.309579 24.975895 14.905925 2.9753215 12.21348 8.667408 4.4536505
2.2192748 6.057934 3.1567452 11.568964 10.409568 2.09954 2.6503103 24.05446
2.83665 4.727334 11.127839 19.789238 5.426349 4.48503 10.746845 6.528648
12.26218 3.4686828 2.5334284 6.7758465 6.4446454 6.5598373 9.45047 12.020882
5.9570556 5.909656 11.719977 11.39834 4.6701207 5.413033 0.7330831 3.257324
7.8241796 15.192442 12.476581 3.7579594 8.1809845 6.553967 3.3192801 3.3318143
9.034844 3.925246 2.582153 6.2684636 2.807097 19.099905 20.760098 11.191518
3.5530155 5.431517 2.8431797 7.834389 3.2428503 12.666211 7.5305057 9.996861
6.305688 6.234454 5.2530847 4.17175 6.7478065 6.176894 41.4222 2.8277833
25.859966 11.7057495 6.3214445 1.3664409 12.362811 0.85164887 6.849461 3.8209472
10.557267 9.06799 11.870605 4.9696417 2.8151839 4.38282 16.756744 6.8676715
6.71165 4.061145 7.36877 13.261034 6.5180254 13.065806 31.86674 6.8236775
10.347396 5.514335 10.068484 15.426841 9.206368 14.028576 17.563538 7.168229
15.459288 4.6087027 9.014171 27.896475 6.2210126 17.311209 5.120655 7.751717
4.8492527 9.144811 8.457613 1.9387592 13.283952 2.7183743 9.646706 6.359097
20.933092 4.6706433 3.5580218 4.7267804 1.8703915 4.1683936 6.4717684 12.3311825
4.212163 15.868723 7.526539 2.3307462 14.043209 7.000342 9.622373 9.222809
9.111809 13.924926 5.990797 8.083383 6.7129726 4.1442947 3.3437078 10.380652
5.649394 2.0278075 16.082628 10.439691 7.7917542 4.5788484 18.164667 18.423466
9.854108 10.817251 2.5299542 6.556958 9.677583 0.722578 10.842306 6.362031
11.382819 4.859879 5.7964387 7.525278 2.7325773 1.7742988 8.701899 10.229035
5.3989944 16.035723 16.054213 21.119608 3.8051229 2.26301 3.7781186 3.3340278
10.013498 4.676446 1.8988619 7.542265 6.42756 17.627174 12.802193 5.2111955
4.60256 12.962817 4.516161 18.780542 14.219278 2.8913617 5.102242 12.84166
5.688442 2.848422 10.383939 3.938445 7.412052 1.5475144 2.7761812 21.25685
29.478394 10.129235 4.151886 8.94424 1.7297326 3.6277862 3.214445 6.6681433
5.6275086 8.74332 6.798122 6.2262683 10.634817 26.665247 10.6202755 8.598903
5.8268733 5.6816416 5.349989 1.9374285 1.3519466 6.0375137 4.2739396 4.586959
3.4695597 4.8196087 10.137068 8.451192 75.28875 4.718004 20.719662 2.2326581

fc2.weight f4 [256, 260]
00000000: 7984 59bf a384 033c 5c09 85be 2438 69be
00000010: f208 873f 7ef4 c2be 6d5b 793e fd49 95be
00000020: f3ea 483d ecea 06bf f5e2 0e3f 056f 05bf
00000030: 042c 063c e23b 85bd f34a cfbe 0766 8abd
00000040: 6662 9e3e bb9c f0be 1cde 2bbe a4be 963e
00000050: db53 333f 55ab 51bf 8e42 8c3e a936 06bf
00000060: a868 68be 6869 3c3e 6fac 013f ceda a9bd
00000070: 1ccb fbbe f5f3 4bbf 2e68 20be 50a3 a33e
00000080: 0aa9 9a3c 9330 b53e 203d fb3e 1f0e 333e
00000090: 3e83 bdbc 328d ecbd a483 283c c38c a1bd
000000a0: 480e 4d3e 502d 2bbf 4984 39bf 9340 bcbe
000000b0: 4b1f 3ebf 5899 77bf fdf8 20bc 6364 8dbf
000000c0: 9e1e b43d 90c6 82be 96d3 81be 5c4e 913c
000000d0: 3513 d43d fa91 f7bf 0867 9cbe a095 8fbe
000000e0: 65e2 8fbe b5f3 06bd a877 073f 485b c3be
000000f0: 5d86 753e e40c 283c a223 4abd 4d6e ae3d
00000100: d82f 9bbe 7c09 213f a5da 383e 0196 3d3f
00000110: 07b1 d1be 3657 c53e d4a8 afbc d210 8abf
00000120: 83d0 1c3e 2a97 62bf 9951 3b3f b4bb a63e
00000130: 7f44 1d3e 1492 bfbe 916e e73e f351 ffbe
00000140: eefa b9be 20db 093f 3d2c 843f 6a82 03bd
00000150: 66f5 443f afa8 04bf de34 ab3f 0fce 15be
00000160: 1427 32c0 7e4e 60be 92f7 bf3e 4c2a fabe
00000170: 5643 e7be 0a48 403f 4c6b 16be 6ab0 113e
00000180: 70ee 9c3d 80bf a2be 184a 4c3e b45a ac3e
00000190: 85bb 203d fbfb 263e cff5 f43e 73d4 19be
000001a0: 5a64 6d3e 626e 04be 134a 26be 4ef9 943e
000001b0: 865d 29be e3ec 18bf e286 0bbf ea30 4dbe
000001c0: 491b bb3e 03ef babe 7ca5 40be ed82 863d
000001d0: c906 9fbe 51cf 62bd fd29 083e fed2 2fbf
000001e0: 41d2 b1be 11f4 b1be c83d cbbe baed babe
000001f0: f033 5f3e 795b 25be dad1 b03e 3316 dd3d
00000200: ecb2 a93c a9a2 01bf 3d08 ccbe eec3 57bf
00000210: 69a6 8fbf 54b5 3cbf f56b f33e 03c8 79be
00000220: 3bf3 9dbe dfe0 debe c441 74be 6f7b f23d
00000230: 53e1 1fbf 0dee 23bd e595 d9be 4fc6 3ebf
00000240: d211 313e 528c 7f3e 4e57 0bbe 88e9 383e
00000250: dca2 59be caf5 243f 46f3 80be f51b bebd
00000260: 8688 fa3d 8c5d adbd 7be6 60be 96c1 7bbe
00000270: 5cf1 833d fa42 603c a52a ac3d 1a31 4ebf
00000280: 808f 02bf a34a dd3e 308a 55bd 8ae4 ebbe
00000290: eb89 c13d de19 203e 5e96 0abf 7bf3 153e
000002a0: 8db0 393f 9e85 98bd 9ac2 d9bd 9e7b dc3e
000002b0: 3f9b 52bf 3642 ffbe 59da 0fbf 8db6 5b3c
000002c0: d576 2a3d 1a7d 4b3e 98f0 86bc dcd8 263f
000002d0: 93bb e13e 1c8a e23e ef5d 08bf 05a7 32bf
000002e0: 27bd 093e 0e9c d8bd 02fe e0bd 5b7e 8bbe
000002f0: aa5a 413e ae2e afbe 261b 223f 0c03 70be
00000300: e756 833d 37f7 a3be 96d8 0abd fd0f 683d
00000310: 8f63 26be a645 52be 62df eb3d d6d7 b1bd
00000320: 0139 ab3e 3541 98be 00e6 0bbe 1cf9 b83e
00000330: 82be ddbd 3ef2 a1be e8a1 e5be 36c5 4abe
00000340: 0feb 85be d1c2 5ebd 5626 ff3e 9718 adbe
00000350: 3d32 4fbf a217 b63e 0ba9 463f b930 f1be
00000360: cb16 743e 9ac5 6ebf 7ad9 fb3d 2a04 9bbd
00000370: 5b44 813f 5467 31bd 4c6b 483d c991 adbe
00000380: bca3 ed3e ef87 51be a35a 113f 2ce6 7e3e
00000390: 57d3 8c3f c760 b33c 5cad 9a3d 6f3d ab3d
000003a0: 6a1a ab3d d807 4e3e ce71 c3be 3ba5 11bf
000003b0: e19f fbbe 1c32 81bd 76fc b2be bd35 37bf
000003c0: 3750 b03e fd9a 86bf 2915 783e 4a8c e3bd
000003d0: eb80 f3be 3b66 4f3b c56b debe a69a 42be
000003e0: b048 1a3e 9fdf 92be bb0d ebbe d7d3 cc3e
000003f0: 0479 9a3d c5f0 883f f72e 53bc b09c b23d
-0.8496776 0.0080272285 -0.25983703 -0.22775322 1.0549605 -0.38077158 0.24351282 -0.2915801
0.04905219 -0.5270221 0.5581506 -0.5212253 0.008189205 -0.06505562 -0.4048687 -0.067577414
0.30934447 -0.46994576 -0.16783947 0.29442322 0.7004983 -0.81902057 0.27394527 -0.52427155
-0.22696173 0.18399584 0.5065374 -0.08293687 -0.49178398 -0.79669124 -0.15664741 0.31960535
0.018879432 0.35388622 0.49070072 0.17485856 -0.02313387 -0.11550368 0.010285292 -0.07888176
0.20024979 -0.66866016 -0.72467476 -0.36768016 -0.742665 -0.9671836 -0.009824988 -1.104626
0.08794902 -0.25542116 -0.2535674 0.01773756 0.10355226 -1.9341424 -0.30547357 -0.28043842
-0.28102413 -0.03294726 0.52916956 -0.3815558 0.23977037 0.01025698 -0.04935039 0.08517132
-0.3030994 0.62905097 0.18052156 0.7405701 -0.40955374 0.385431 -0.021442808 -1.0786383
0.15313916 -0.8851191 0.73171383 0.3256508 0.1535816 -0.37416136 0.45201543 -0.4986721
-0.36324257 0.53849983 1.0326 -0.032106794 0.7693695 -0.5181989 1.3375509 -0.14629386
-2.7836351 -0.21904942 0.3749357 -0.48860395 -0.4516856 0.7510992 -0.14689368 0.14227453
0.07662666 -0.31786728 0.1995014 0.3366295 0.039241333 0.1630706 0.47843787 -0.15022449
0.23182812 -0.12932733 -0.16239195 0.29096454 -0.16539583 -0.5973646 -0.5450269 -0.2003819
0.36544254 -0.36510476 -0.18813127 0.06567941 -0.31059864 -0.055373494 0.13297267 -0.68681324
-0.34730724 -0.3475652 -0.39695573 -0.36509496 0.21797156 -0.16148175 0.34535104 0.1079525
0.0207152 -0.50638825 -0.39850035 -0.8428334 -1.1222659 -0.73714185 0.47543302 -0.24392705
-0.30849633 -0.43530938 -0.23853213 0.11839949 -0.6245319 -0.040021945 -0.42497173 -0.74521345
0.17291954 0.24955872 -0.13607523 0.18057835 -0.21253532 0.64437544 -0.25185603 -0.09282676
0.12233071 -0.08465108 -0.21962921 -0.24585566 0.0644252 0.013687843 0.08406571 -0.80543673
-0.51000214 0.43221006 -0.05213374 -0.460728 0.09450134 0.15634868 -0.5413569 0.14643662
0.7253502 -0.074473605 -0.106328204 0.43063062 -0.82268137 -0.49855202 -0.5619255 0.013410223
0.041617233 0.19871941 -0.016472146 0.6517465 0.4408842 0.44245994 -0.5326833 -0.697861
0.13451062 -0.1057664 -0.10985948 -0.2724484 0.18882242 -0.342153 0.63322675 -0.23438662
0.0641306 -0.32024547 -0.03389796 0.056655873 -0.16248916 -0.20534381 0.11517216 -0.086837456
0.33441928 -0.2973725 -0.13661957 0.36127555 -0.10827352 -0.3163013 -0.44850087 -0.19801793
-0.26155898 -0.05438501 0.49833935 -0.33807823 -0.8093603 0.35564905 0.7760169 -0.47107485
0.2383682 -0.93270266 0.1229734 -0.075691536 1.0098985 -0.043311432 0.04893045 -0.33900288
0.46413982 -0.20462011 0.56778926 0.24892491 1.1001996 0.021896733 0.07552597 0.08361327
0.083546475 0.2012018 -0.38172764 -0.56892747 -0.49145415 -0.06308386 -0.34958237 -0.71566373
0.344362 -1.0516049 0.24226822 -0.111107424 -0.47559294 0.0031646627 -0.43441597 -0.19004306
0.1506679 -0.28686234 -0.45908913 0.4000537 0.07542613 1.0698477 -0.012889615 0.08721292

fc2.bias f4 [256]
00000000: b842 48be 7181 15bf 424d fb3c e794 9dbe
00000010: 6259 22bf a8d9 0cbf c3d4 0dbf c9e6 01bf
00000020: 45aa 6ebd 770f d1be 6058 23bf 0a65 61bf
00000030: 3538 22be e2bc 08bf f851 0ebf c31a fdbe
00000040: f21c 32bf ffe1 3dbe ff70 fcbe 2bb9 32bf
00000050: cf0c 60bf b50b 6fbf e333 30bf 509e 2dbf
00000060: 9fa4 f6be 4df7 06be e36d 08bf e13a 36bf
00000070: bbcb bf3e e027 9cbd b99f d8bd a21f e93e
00000080: 0eb0 32c0 4d01 69bf e749 81bf 6b07 d6be
00000090: 0a11 58be a94b a03d c043 4abf 35f3 7abe
000000a0: 5a82 b2be 2b7c 2fbf 9507 71be 0cce 20bf
000000b0: 9d68 64bf b114 8dbe caa4 5fbe b1c0 e5be
000000c0: b87f 29c0 cf0e 08bf 952d 61bf 0e37 2abf
000000d0: ecd6 debe d79f 63bf cd95 1d3e 84ae 74be
000000e0: eb6a 5ebf 832b f2bf 1866 9abe f81e 49bf
000000f0: 98f0 a7be 9ea2 17bf 1adf 20bd f002 8a3e
00000100: be08 58be a63a 62bf 9270 9cbf 09cd 07bf
00000110: 40c3 24bf d460 20bf 1821 0ebf 2699 20bf
00000120: 5453 9fbe d749 67bf 9654 f1be a51a 08bf
00000130: c1fd 33bf bc4a 3ebd f38b 10bf 30bf 5cbc
00000140: bda0 1ebf 520b 25be 2be8 01bf 8579 d4bf
00000150: a412 d9be 6fae 18bf 06a9 01bf f160 03bf
00000160: b3cc c4bd 4e0c 22c0 8910 103f c55e bfbe
00000170: d1c9 a4be dfef cabe 5be4 76bf 49e7 94be
00000180: 6255 24bf 4796 edbe 091e 69bf 8fa9 f0be
00000190: b8b1 65be 41b6 85bf 9db3 21bf f687 9bbd
000001a0: a548 0fbf 3c25 acbe 8a2c d4bd c4bc 82be
000001b0: 5040 c7bd 89fd 19bf 5bf0 efbe 5eef e0be
000001c0: f7b8 5fbe b4c1 b3be 1af4 74bf 6883 39bf
000001d0: 7598 d8be 8f69 3dbf 4041 0cbe 5fd4 c3be
000001e0: 8093 c7bd 5203 e4be b865 fb3e 67c5 28bf
000001f0: 4cf4 32bf 5649 21bf f532 36bf 3633 3abf
00000200: b675 ddbe f7d6 66be cb68 903e fba0 b9be
00000210: 2c7d 02bf 801d 4ebe 3def 0dbf 7369 8abf
00000220: f361 133e 5ec0 d3be ca0c 3fbf f11c 733e
00000230: 4f6d d5be c274 0ebe 54cf 95bf 7c33 95bf
00000240: 8c51 45bf 550e b5be 92f8 d9be f498 a6be
00000250: 39c4 3ebf 6513 20bf e300 1ebf 515c 54be
00000260: 3de2 acbe 6d45 7abf 2a28 16bf 419f 40bf
00000270: 8003 a7be 2880 16bf ae19 19bf a177 b7be
00000280: 1563 acbe 6968 13bf a9f1 25bf 0b41 2fbf
00000290: b903 b13e 3449 ba3e 955c f4be 3804 3abf
000002a0: 2a78 6fbf 8dc8 50bf 3842 96bd c693 0bbf
000002b0: 9bbe 0cbf 63ed 54be 1b5d 3e3d 8a15 3abf
000002c0: f77d 44bf 90b5 0abf 6596 5a3d 2c21 f0be
000002d0: 57cf 49be a0f7 d6be ebf9 c5be 7bdc 91bd
000002e0: 3454 39bf 744f df3e 2d6e ccbe 8665 01bf
000002f0: 5cad 89bf 10c7 51bf eac7 dcbe 015d 53be
00000300: dd98 15bf 90aa 58bf ff58 08bf 204b 7fbe
00000310: d15e 4ebf 2243 21bf d55f 2fbf 6a1c 37bf
00000320: 4177 693f c843 d1be b4cf 12bf c2e7 14bf
00000330: d231 c4be 57ba bfbe 51f6 7e3e 2e6a a6bf
00000340: 108d 78bf 7db5 98be fc64 a3be be23 8cbe
00000350: b48c 34bd 2876 57bf a446 56bf 4807 c0be
00000360: eba2 9abc fda2 35bf 43fb 51bf 6129 c3be
00000370: 4c95 89bf 04f5 fbbe 264c 62be f649 22c0
00000380: 299b 23bf d751 efbe 73ae 34be d508 08bf
00000390: 6264 03bf b374 2ebf 70cf 4bbe 0759 21bf
000003a0: 777d bdbd 7852 e3be 2179 07bf ad0d c63e
000003b0: 420e bbbe a2f6 a6be 39c5 86be cd5a 88be
000003c0: 6a8e 54bf 1834 0d3e 8efb d6be 02cd 55bf
000003d0: 6a4e 55bf d21f 33bf 1b25 2dbf 8b6a 07bf
000003e0: a935 4bbe 86d2 90be c80b 84be 82bd b93d
000003f0: 114b ecbe f492 77bf d894 7bbf a2e8 55bd
-0.19556701 -0.58400637 0.030676488 -0.30777666 -0.6341764 -0.5501962 -0.55402774 -0.50742775
-0.05826785 -0.4083211 -0.63806725 -0.880448 -0.15841754 -0.5341321 -0.55593824 -0.4943448
-0.6957542 -0.18543242 -0.4930496 -0.69813794 -0.87519544 -0.9337724 -0.6882917 -0.6781969
-0.4817247 -0.13180275 -0.53292674 -0.7118359 0.37460122 -0.07624793 -0.1057734 0.45531946
-2.7919955 -0.9101761 -1.0100678 -0.41802534 -0.2110025 0.07826931 -0.7900963 -0.24506839
-0.34865075 -0.6854884 -0.23538049 -0.628144 -0.8922213 -0.2755485 -0.21840206 -0.44873574
-2.6484203 -0.53147596 -0.8796018 -0.66490257 -0.43523347 -0.8891577 0.15389176 -0.23894697
-0.86881894 -1.8919529 -0.30156016 -0.7856288 -0.32800746 -0.5923251 -0.039275266 0.26955366
-0.21097085 -0.8837074 -1.2221854 -0.53047234 -0.6436043 -0.6264775 -0.5551925 -0.62733686
-0.31118262 -0.90347046 -0.47134846 -0.53165656 -0.7030907 -0.04645799 -0.56463546 -0.013473317
-0.6196402 -0.161176 -0.50744885 -1.6599585 -0.42397034 -0.59641165 -0.50648534 -0.51319796
-0.09609356 -2.532001 0.5627523 -0.3737699 -0.32185224 -0.39636132 -0.9644219 -0.29082707
-0.64192784 -0.46403715 -0.91061455 -0.47004363 -0.22431076 -1.0446244 -0.63164693 -0.07594292
-0.5597022 -0.33622158 -0.10360058 -0.25534642 -0.097290635 -0.6015249 -0.46863064 -0.43932623
-0.21847902 -0.3510872 -0.9568497 -0.72466135 -0.42303815 -0.73989195 -0.13696766 -0.38247964
-0.0974493 -0.44533783 0.49101043 -0.6592621 -0.6990402 -0.63002527 -0.71171504 -0.7273439
-0.4325387 -0.2254294 0.2820495 -0.3625563 -0.5097225 -0.20128441 -0.55443174 -1.081343
0.14392833 -0.41357702 -0.7462889 0.23741509 -0.41684958 -0.13911727 -1.1703897 -1.1656337
-0.77077556 -0.35362497 -0.42572457 -0.3253857 -0.7451816 -0.62529594 -0.61720103 -0.20738341
-0.33766356 -0.97762185 -0.58655035 -0.75243 -0.32619858 -0.587893 -0.5980481 -0.35833457
-0.33669344 -0.5758119 -0.6482187 -0.6845862 0.34573153 0.36383975 -0.47726884 -0.7266269
-0.9354273 -0.81556016 -0.07336849 -0.5452236 -0.5497834 -0.20793681 0.04647551 -0.72689116
-0.7675471 -0.5418329 0.053366084 -0.46900308 -0.19708 -0.41985798 -0.38667235 -0.071221314
-0.7239411 0.43615305 -0.39927807 -0.5054554 -1.075603 -0.8194437 -0.43121272 -0.20640947
-0.58436376 -0.8463526 -0.532608 -0.24931002 -0.8061343 -0.6299306 -0.68505603 -0.7152773
0.9119759 -0.40872025 -0.5734818 -0.58166134 -0.3831926 -0.37446854 0.2489865 -1.3001153
-0.97090244 -0.29825965 -0.31912982 -0.2737102 -0.044079497 -0.8416467 -0.8370154 -0.37505555
-0.018876513 -0.70951825 -0.8202402 -0.38117507 -1.0748687 -0.4921037 -0.22099361 -2.5357642
-0.6390863 -0.46742126 -0.17644672 -0.53138477 -0.51325047 -0.6814682 -0.1990335 -0.6302647
-0.09252446 -0.44398856 -0.52919203 0.3868231 -0.36534315 -0.3261004 -0.26322344 -0.26631775
-0.83029807 0.13789403 -0.41988796 -0.8351594 -0.83322775 -0.6997043 -0.67634743 -0.52896947
-0.19844688 -0.28285617 -0.25790238 0.09069349 -0.4615102 -0.9670861 -0.9827399 -0.05222381
