checkpoint_critic.pth (torch_old, 517200 bytes, 9 tensors)

fcs1.weight f4 [400, 33]
-1.8991579 -1.2636344 -1.3250301 0.09542106 -0.8706277 -0.10168584 -0.12525584 0.2787749
1.3291638 0.74317306 -0.2594417 0.11073719 0.186273 1.629648 1.4338794 2.1413126
0.09554305 -0.01428865 -0.66609514 0.24858391 -0.03138024 -0.043288603 -0.015781345 0.54771215
0.109728776 0.45664096 -0.34228265 -1.8171562 -1.2967969 -0.046992984 1.845841 -0.03994285
-6.938868 1.8375962 0.5383875 1.6973864 0.023679188 1.1521995 -0.15427263 0.06112293
0.006974181 1.3774145 1.1784663 0.38890395 -0.07829981 0.032958798 -2.567888 -0.3641437
-2.2967622 0.18221712 0.008611715 0.17732729 -0.07186478 -0.030644508 -0.03778353 -0.008268952
-0.56704366 0.13594596 -0.5346306 1.3713286 -0.56783855 0.790358 0.027224366 0.5623139
-0.031880934 1.6939577 -0.41784173 -0.37697673 -0.27204558 0.778911 0.54532313 1.6064314
-0.65645045 -0.08311275 1.0815886 0.0814004 -0.1667912 -0.037040714 -0.09863664 0.35231796
0.82752204 0.28532127 0.5603995 0.78970176 -0.20217568 -1.7061784 0.06785356 0.3559232
-0.17872249 0.36638212 0.07812886 0.119262755 0.9768527 2.0664701 0.040170945 -0.045589328
-2.0283935 -0.021318728 -14.5824795 0.062118832 -0.66391367 -0.9675513 -0.63641953 -0.35593402
-1.8775408 0.71230006 0.27652812 0.8649475 -0.0011770198 0.21818827 -0.11403786 -0.28915563
0.17726137 0.14759745 0.009455268 -1.7298164 1.767988 2.0852914 0.6312591 -0.09303203
0.075457275 0.030260354 -0.16849427 0.24569593 -0.28618246 -0.22939818 2.8933294 -0.5381081
0.009770989 -2.807573 -0.04197387 14.504594 0.26446387 0.6555797 -0.9541205 -0.62652916
-0.20850106 -1.4183208 0.69917804 -0.085960515 0.48754022 -0.45949522 0.06866028 -0.08892966
-0.389472 0.15603848 0.41441444 0.12594406 0.25493267 0.40157557 -0.9592153 -2.7826962
-0.10438979 -0.29291326 0.12225769 -0.42768887 0.0391084 0.019911215 -0.6872003 1.7109135
1.2359445 0.045129728 -1.7300395 0.048258323 11.299471 -2.354868 2.3725328 0.8735768
-0.980528 -1.3583658 -0.059473556 0.550848 -0.3165944 -0.106036745 -2.7475605 0.72622633
0.9970649 -0.27343905 0.747656 -1.6484064 0.42999762 1.0445153 -0.86907107 -0.19742623
-1.3513432 0.18955657 -1.1686993 -0.20394485 1.3820652 -1.0227585 0.13519745 2.0509639
3.1249304 0.8287652 -0.031956874 -3.070541 0.047465358 -3.1243944 0.1010194 0.28207913
-0.09584198 1.894842 0.66346633 -2.755022 0.37809008 -0.107435994 0.12076081 -0.18602997
0.07795619 0.07855133 -0.040244553 -0.04815253 0.044261765 -0.04539109 0.17319322 -0.36136374
-0.09385423 0.040873326 -0.020318167 0.010851111 -0.0005692236 -0.053346887 0.07534588 -0.013135311
-0.23328853 2.0199578 -0.20586532 -0.01238066 -1.9663439 0.013346281 15.850932 2.4353023
1.3205076 -0.20583932 0.50082153 2.2978175 2.71911 -1.1669935 1.4650352 -1.8347883
0.0002847506 -1.9195118 -1.5350473 -2.7553968 -0.9838918 0.49686784 1.3248835 2.94851
1.1197929 -3.4007509 2.3833916 -0.20391302 -1.5576048 -0.8232356 0.74665284 0.60123557
00000000: 9b17 f3bf c6be a1bf 969a a9bf 1e6c c33d
00000010: 75e1 5ebf aa40 d0bd 1143 00be 95bb 8e3e
00000020: 0a22 aa3f 9740 3e3f 8bd5 84be 2eca e23d
00000030: 59be 3e3e 4e98 d03f 5c89 b73f 440b 0940
00000040: 13ac c33d f11a 6abc 3685 2abf c88c 7e3e
00000050: 9188 00bd 644f 31bd e147 81bc dd36 0c3f
00000060: 7bb9 e03d d8cc e93e ac3f afbe 9398 e8bf
00000070: 71fd a5bf b77b 40bd 8544 ec3f 1d9b 23bd
00000080: 350b dec0 5a36 eb3f c3d3 093f f543 d93f
00000090: dbfa c13c 467b 933f a5f9 1dbe 0a5c 7a3d
000000a0: ac87 e43b 1e4f b03f fcd7 963f 6b1e c73e
000000b0: a75b a0bd ceff 063d 4758 24c0 0b71 babe
000000c0: 27fe 12c0 2097 3a3e 2718 0d3c 4995 353e
000000d0: d72d 93bd 310a fbbc e7c2 1abd 807a 07bc
000000e0: c629 11bf 6b35 0b3e 8ddd 08bf b287 af3f
000000f0: de5d 11bf e754 4a3f a205 df3c cef3 0f3f
00000100: 9595 02bd 9bd3 d83f 5aef d5be 1803 c1be
00000110: 8f49 8bbe b666 473f 4c9a 0b3f 8b9f cd3f
00000120: 230d 28bf 0437 aabd 7f71 8a3f 41b5 a63d
00000130: 50cb 2abe 01b8 17bd 0202 cabd 0563 b43e
00000140: 7cd8 533f a115 923e 5776 0f3f e529 4a3f
00000150: 2407 4fbe 0e64 dabf cff6 8a3d 913b b63e
00000160: 0703 37be 7096 bb3e 0602 a03d 0840 f43d
00000170: 0513 7a3f 0c41 0440 4a8a 243d e0bb 3abd
00000180: 33d1 01c0 9da4 aebc d651 69c1 5170 7e3d
00000190: 3ff6 29bf 71b1 77bf 64ec 22bf fc3c b6be
000001a0: 4253 f0bf 4c59 363f 1895 8d3e 336d 5d3f
000001b0: 3b46 9aba bf6c 5f3e ae8c e9bd 350c 94be
000001c0: 0184 353e c923 173e 45ea 1a3c a06a ddbf
000001d0: 6e4d e23f 6a75 0540 329a 213f 9487 bebd
000001e0: 5889 9a3d 90e4 f73c c389 2cbe b797 7b3e
000001f0: 8286 92be 5be7 6abe 4f2c 3940 74c1 09bf
00000200: 8016 203c 47af 33c0 cbec 2bbd d112 6841
00000210: cf67 873e 12d4 273f 3e41 74bf 3764 20bf
00000220: 4d81 55be 898b b5bf 55fd 323f 110c b0bd
00000230: df9e f93e f542 ebbe c39d 8c3d c120 b6bd
00000240: e068 c7be 8dc8 1f3e 212e d43e 7bf7 003e
00000250: 8986 823e 509b cd3e 228f 75bf b217 32c0
00000260: 50ca d5bd baf8 95be 3d62 fa3d 09fa dabe
00000270: 2130 203d d81c a33c 5cec 2fbf 37ff da3f
00000280: 6e33 9e3f f3d9 383d ef71 ddbf 85aa 453d
00000290: a2ca 3441 28b6 16c0 94d7 1740 bba2 5f3f
000002a0: e203 7bbf eede adbf 8b9a 73bd 6004 0d3f
000002b0: a918 a2be cb29 d9bd 08d8 2fc0 f8e9 393f
000002c0: a53f 7f3f 3400 8cbe 6266 3f3f fbfe d2bf
000002d0: a628 dc3e adb2 853f 717b 5ebf 1a2a 4abe
000002e0: d0f8 acbf 1e1b 423e f097 95bf ebd6 50be
000002f0: 83e7 b03f c0e9 82bf 3371 0a3e fe42 0340
00000300: dcfe 4740 f529 543f 36e5 02bd be83 44c0
00000310: 096b 423d 14f6 47c0 42e3 ce3d ad6c 903e
00000320: cd48 c4bd 2f8a f23f eed8 293f 4852 30c0
00000330: 0695 c13e 6707 dcbd 7251 f73d a47e 3ebe
00000340: 7fa7 9f3d 85df a03d 79d7 24bd 963b 45bd
00000350: d34b 353d 02ec 39bd 9059 313e ab04 b9be
00000360: a636 c0bd ca6a 273d 4972 a6bc dcc8 313c
00000370: f337 15ba 4482 5abd f14e 9a3d 7d35 57bc
00000380: 30e3 6ebe fd46 0140 5cce 52be 40d8 4abc
00000390: 28b1 fbbf 5caa 5a3c 6b9d 7d41 fedb 1b40
000003a0: 6506 a93f 8bc7 52be d735 003f 710f 1340
000003b0: e605 2e40 0b60 95bf 4686 bb3f 58da eabf
000003c0: 944a 9539 90b2 f5bf 6e7c c4bf 6c58 30c0
000003d0: 55e0 7bbf 7665 fe3e c895 a93f 63b4 3c40
000003e0: 6055 8f3f e7a5 59c0 7d89 1840 93ce 50be
000003f0: 985f c7bf 91bf 52bf a424 3f3f 93ea 193f

fcs1.bias f4 [400]
1.9596176 0.4830145 -2.2385683 -2.8571537 -1.8510929 -2.9979312 -1.9582596 0.9897173
-1.6993451 -1.413518 0.11848324 -2.6316688 -1.5152955 -1.8378206 -1.2358958 -1.7203522
-1.8951813 -2.9160855 -0.56118774 0.6803865 -3.4881513 -0.5142451 -1.1866442 -3.7927332
-1.0455333 -0.39333746 -0.42848536 -0.8907985 -1.55653 -1.9235686 0.16094205 -0.38302326
-1.0163833 1.3855246 -0.9144598 1.2147933 0.92331547 -1.1166364 -0.8129782 -1.0934919
-2.844458 -1.6690221 -2.0475385 -3.8066404 -2.7407043 -0.038996737 -1.8803229 -2.04308
-3.569661 -0.7118025 -2.5018659 -1.8854712 -3.212523 -1.1031789 -3.8482573 0.9667145
-1.7880263 -2.4136994 -3.0975237 -2.5040047 -0.7553221 -1.836022 -0.48602518 0.69502246
-0.5315024 -1.1079979 -1.1747414 -0.08325292 -0.5158766 1.23938 -1.1987596 -3.6871743
-2.6617308 -0.89672256 -3.2979877 -3.9158382 -0.6152798 0.20793119 2.4387767 -1.1581007
-1.3720739 -1.8914418 -2.1013265 -3.5823836 -1.3776135 -1.484429 -0.35915935 -2.5908635
1.1915436 -1.3658357 -1.6292088 0.2714874 0.705061 -0.5376664 -1.9527307 -2.1181283
-2.7122593 -0.66021574 -0.4389102 -2.0183544 -1.6315258 -0.8798221 1.945223 -2.413837
-1.4002743 -2.2891195 -2.478334 -1.1828928 -2.4452941 -1.2029812 2.0433464 -3.2064264
-3.9503062 1.4749498 -4.3119664 1.0076516 -1.0826472 -1.8140835 -2.2641258 -1.9601964
-3.102327 -2.025533 -3.793923 -1.3013092 -0.3979119 0.49031675 -2.982149 -3.61843
-0.80346066 -0.67401636 -2.0971987 -2.3813097 -4.19594 -1.098072 -0.26930985 -1.9103218
-0.34119734 2.491782 -2.1642663 -0.9464661 -2.8155453 -2.6599362 -1.0671471 -0.8383522
0.4686087 0.6612804 1.0748826 -2.048269 -0.6359736 0.24462824 -2.8174748 4.7618093
-2.1243978 -0.50730246 -1.079615 -1.2915901 -2.3113487 -2.3594103 -2.2741203 -1.4216492
1.938188 -2.006803 -3.360316 -2.4542263 -4.059139 -1.1920611 -0.6722037 -0.20245738
-1.7010353 -2.523218 -1.0678526 -2.361434 -1.7242197 -3.6658027 -3.2557466 -0.95471025
-2.588746 0.756966 -2.9033277 -2.5831234 -0.0022036904 -0.1887717 -1.911047 -3.1574526
-0.667459 -2.8171108 -0.48659232 -3.2420292 -3.4134188 -1.5651786 -1.0996491 -2.6189737
-2.6422992 -0.5877649 -2.3777688 -0.705545 -0.94238013 -1.9673679 -1.2279766 1.4340253
-3.6398814 -0.7946181 -1.0619898 0.47943148 -1.5096831 -1.4228438 -2.0388877 -1.6467658
-0.7349735 -2.9133966 -2.7443655 -1.5738969 2.177472 -2.5395684 -2.549338 -3.5401533
-2.4752457 -4.6409664 -2.003994 -2.2933352 -1.5104759 2.0703435 -2.0876436 -0.5445283
-4.0116343 0.46642384 -2.0595129 -0.14593813 -4.248845 -0.92903286 -2.2247145 -1.5583699
-4.0197 -1.6289129 -3.4714205 -1.7684888 -1.6052318 0.45734325 0.5141706 -3.8107026
-3.6233366 -1.5101495 0.8478747 0.008485024 -1.1996266 -1.2196006 -1.4643726 1.4456667
-3.319328 -2.5738506 -1.4947265 -1.8992442 -1.1343013 -1.2539513 -2.4819508 -3.395239
00000000: c0d4 fa3f ad4d f73e b444 0fc0 9bdb 36c0
00000010: 9df0 ecbf 1bde 3fc0 40a8 fabf 1d5e 7d3f
00000020: 2484 d9bf 28ee b4bf 57a7 f23d 436d 28c0
00000030: 34f5 c1bf b53d ebbf d531 9ebf 8034 dcbf
00000040: 4d95 f2bf 25a1 3ac0 00aa 0fbf cf2d 2e3f
00000050: df3d 5fc0 91a5 03bf f5e3 97bf 24bc 72c0
00000060: 09d4 85bf 8763 c9be 6f62 dbbe 5f0b 64bf
00000070: 603c c7bf 7f37 f6bf fecd 243e a01b c4be
00000080: d918 82bf df58 b13f 0a1a 6abf 597e 9b3f
00000090: 675e 6c3f f1ed 8ebf 571f 50bf 8bf7 8bbf
000000a0: 9a0b 36c0 84a2 d5bf df0a 03c0 ff9f 73c0
000000b0: b367 2fc0 0bbb 1fbd 6cae f0bf d3c1 02c0
000000c0: 5375 64c0 b038 36bf 921e 20c0 1f57 f1bf
000000d0: fa99 4dc0 f734 8dbf d949 76c0 9a7a 773f
000000e0: 0cde e4bf 0d7a 1ac0 d43d 46c0 9d41 20c0
000000f0: ca5c 41bf c502 ebbf 4bd8 f8be feec 313f
00000100: 8b10 08bf e0d2 8dbf ed5d 96bf 8280 aabd
00000110: 7d10 04bf 01a4 9e3f f470 99bf aafa 6bc0
00000120: cc59 2ac0 9c8f 65bf 3b12 53c0 189d 7ac0
00000130: fa82 1dbf eaeb 543e eb14 1c40 a53c 94bf
00000140: 1ea0 afbf c41a f2bf 227c 06c0 c645 65c0
00000150: a455 b0bf c501 bebf bce3 b7be b5d0 25c0
00000160: 8084 983f b4d3 aebf ea89 d0bf 6600 8b3e
00000170: e17e 343f 81a4 09bf 14f3 f9bf 6a8f 07c0
00000180: a895 2dc0 e603 29bf d6b8 e0be b82c 01c0
00000190: d6d5 d0bf 053c 61bf 11fd f83f 4e7c 1ac0
000001a0: 303c b3bf ef80 12c0 069d 1ec0 0869 97bf
000001b0: b37f 1cc0 4afb 99bf 30c6 0240 1736 4dc0
000001c0: d1d1 7cc0 28cb bc3f a1fb 89c0 bafa 803f
000001d0: 2f94 8abf e333 e8bf 70e7 10c0 b7e7 fabf
000001e0: 878c 46c0 55a2 01c0 a2cf 72c0 4d91 a6bf
000001f0: 1cbb cbbe cc0a fb3e 87db 3ec0 5b94 67c0
00000200: 99af 4dbf 568c 2cbf 8138 06c0 6167 18c0
00000210: 2445 86c0 a08d 8cbf fbe2 89be 6d85 f4bf
00000220: 6bb1 aebe 5b79 1f40 5783 0ac0 9a4b 72bf
00000230: e531 34c0 653c 2ac0 4798 88bf 409e 56bf
00000240: 7bed ef3e ac49 293f c195 893f d716 03c0
00000250: 2acf 22bf d37f 7a3e 8251 34c0 be60 9840
00000260: 22f6 07c0 93de 01bf d330 8abf d352 a5bf
00000270: 23ed 13c0 9400 17c0 308b 11c0 9af8 b5bf
00000280: 8b16 f83f 766f 00c0 6b0f 57c0 0b12 1dc0
00000290: 77e4 81c0 7595 98bf 8b15 2cbf fd50 4fbe
000002a0: 86bb d9bf 677c 21c0 65af 88bf bc21 17c0
000002b0: 3bb3 dcbf 839c 6ac0 275e 50c0 e467 74bf
000002c0: 04ae 25c0 86c8 413f 1fd0 39c0 e551 25c0
000002d0: ca6b 10bb 5e4d 41be 309d f4bf b413 4ac0
000002e0: 98de 2abf 8b4b 34c0 a122 f9be 687d 4fc0
000002f0: 7475 5ac0 c657 c8bf 4dc1 8cbf 449d 27c0
00000300: 6e1b 29c0 c377 16bf 5d2d 18c0 999e 34bf
00000310: d33f 71bf b6d2 fbbf 562e 9dbf 248e b73f
00000320: d1f3 68c0 186c 4bbf 48ef 87bf 0b78 f53e
00000330: 4c3d c1bf bf1f b6bf 237d 02c0 39c9 d2bf
00000340: 3927 3cbf 1775 3ac0 afa3 2fc0 7475 c9bf
00000350: b45b 0b40 4a88 22c0 5b28 23c0 df91 62c0
00000360: 6d6a 1ec0 cc82 94c0 7041 00c0 01c6 12c0
00000370: 4657 c1bf 8280 0440 f49b 05c0 3566 0bbf
00000380: 4f5f 80c0 1bcf ee3e 0fcf 03c0 ce70 15be
00000390: 8af6 87c0 19d5 6dbf b961 0ec0 aa78 c7bf
000003a0: 62a1 80c0 3880 d0bf c12b 5ec0 d75d e2bf
000003b0: 3c78 cdbf e528 ea3e afa0 033f 8de2 73c0
000003c0: bfe4 67c0 944c c1bf 510e 593f c504 0b3c
000003d0: 5d8d 99bf df1b 9cbf 9070 bbbf 9b0b b93f
000003e0: df6f 54c0 f8b9 24c0 3353 bfbf 6f1a f3bf
000003f0: c930 91bf 7a81 a0bf 48d8 1ec0 994b 59c0

bn1.weight f4 [400]
0.2595208 0.18187638 0.11235381 0.13334788 0.15372999 0.07164924 0.47126314 0.057385623
0.1603298 0.05807495 0.08776335 0.10766107 0.09489157 0.1008173 0.08980834 0.09407704
0.117305964 0.15617102 0.087518275 0.04576969 0.11889563 0.13968287 0.063939475 0.20827377
0.05885399 0.18419656 0.09467889 0.081733614 0.6125647 0.11265964 0.09436545 0.11636948
0.038837682 0.10103299 0.12782033 0.11807511 0.07598125 0.06630939 0.09070763 0.13238913
0.075438306 0.083773844 0.10527495 0.13099916 0.03925626 0.08257631 0.08602768 0.10742373
0.09502514 0.09167612 0.094588675 0.1827216 0.46128646 0.075213276 0.11909109 0.083952494
0.19216098 0.14351687 0.13093823 0.07417953 0.09071084 0.14793736 0.110340975 0.08285693
0.089146554 0.062073957 0.79816604 0.0845728 0.20374182 0.043132283 0.07683103 0.042098973
0.13183942 0.20184374 0.11315655 0.23296079 0.113013 0.108313255 0.13571535 0.09446159
0.08728271 0.10010103 0.17946774 0.055991884 0.048919365 0.11936798 0.05062467 0.10467639
0.5081287 0.10227679 0.07334456 0.07083306 0.13949803 0.056679536 0.3172328 0.06682114
0.06122963 0.05619439 0.14250414 0.079282604 0.089505695 0.10753102 0.052779075 0.11978679
0.07555408 0.10515608 0.116795756 0.0714837 0.06534735 0.107705355 0.13591114 0.22277318
0.11505051 0.15234739 0.12414272 0.10605439 0.0666623 0.08897823 0.28100982 0.06619818
0.063851975 0.07471915 0.11395039 0.13495395 0.07641331 0.06363499 0.06951457 0.16084409
0.28838515 0.054881923 0.10021382 0.06578792 0.14120375 0.069624364 0.19124693 0.1390208
0.11862174 0.04610568 0.24320279 0.062443137 0.29261538 0.14894614 0.087622456 0.13123608
0.17044948 0.09814686 0.16239072 0.2611559 0.12407731 0.08855199 0.17227264 0.110788286
0.05206202 0.07257357 0.08369265 0.062073503 0.10824038 0.14143105 0.07249848 0.055183098
0.095474064 0.104849786 0.110164054 0.09597405 0.17154007 0.06965266 0.10468067 0.104407035
0.059854973 0.4441079 0.0525626 0.098232895 0.09918321 0.0584893 0.07370562 0.06825989
0.06311862 0.093702905 0.0797991 0.047600526 0.10059599 0.08855257 0.14047363 0.09554235
0.21985994 0.09271273 0.13540621 0.12028317 0.10977065 0.07561604 0.13209912 0.069580615
0.13411726 0.025279794 0.5017895 0.13276823 0.07496883 0.025947977 0.24777503 0.21974908
0.12543799 0.062242825 0.12086874 0.1461977 0.09360551 0.24558003 0.083962485 0.18442136
0.08502352 0.11200218 0.052699674 0.07784188 0.1349987 0.0942331 0.060186613 0.16577761
0.24826238 0.06381789 0.17036413 0.12262022 0.10412556 0.08296143 0.13280682 0.120716855
0.06888805 0.090407856 0.08797503 0.13564351 0.12543803 0.15071814 0.15256418 0.17143635
0.12656158 0.271882 0.1851474 0.22904521 0.07897121 1.2449684 0.09902223 0.07664435
0.07189153 0.05920112 0.1337182 0.10360554 0.16015208 0.10992844 0.08164699 0.07467574
0.09780001 0.040764578 0.10078946 0.087054454 0.0387984 0.06332032 0.4478811 0.058333345
00000000: e9df 843e cd3d 3a3e c119 e63d 598c 083e
00000010: 656b 1d3e d6bc 923d 6749 f13e 300d 6b3d
00000020: 7f2d 243e 00e0 6d3d 45bd b33d 687d dc3d
00000030: 8356 c23d 4d79 ce3d 6fed b73d 77ab c03d
00000040: 1c3e f03d 4ceb 1f3e c83c b33d 0079 3b3d
00000050: 8d7f f33d 0709 0f3e b3f2 823d b845 553e
00000060: e210 713d 069e 3c3e 02e7 c13d f463 a73d
00000070: 0ad1 1c3f 19ba e63d ac42 c13d 1f53 ee3d
00000080: 4314 1f3d 62ea ce3d 55e3 023e 5dd1 f13d
00000090: 0f9c 9b3d 38cd 873d ecc4 b93d 0491 073e
000000a0: 667f 9a3d 9f91 ab3d 659a d73d a524 063e
000000b0: 2ccb 203d c51d a93d 482f b03d f900 dc3d
000000c0: 8a9c c23d b1c0 bb3d b5b7 c13d 5f1b 3b3e
000000d0: bd2d ec3e 6b09 9a3d 08e6 f33d 49ef ab3d
000000e0: d9c5 443e 16f6 123e ac14 063e 70eb 973d
000000f0: 9bc6 b93d e47c 173e 73fa e13d e5b0 a93d
00000100: 7892 b63d 4341 7e3d 9c54 4c3f 8134 ad3d
00000110: b2a1 503e 7aab 303d 9659 9d3d f96f 2c3d
00000120: ea00 073e 20b0 4e3e 9fbe e73d 468d 6e3e
00000130: 5c73 e73d 57d3 dd3d f7f8 0a3e 1475 c13d
00000140: 47c1 b23d c501 cd3d 64c6 373e bf57 653d
00000150: ac5f 483d 3377 f43d d05b 4f3d 9360 d63d
00000160: b914 023f 7e76 d13d ac35 963d ec10 913d
00000170: 92d8 0e3e cd28 683d 566c a23e 86d9 883d
00000180: eccb 7a3d 172c 663d 9bec 113e eb5e a23d
00000190: c34e b73d 3939 dc3d df2e 583d c752 f53d
000001a0: 19bc 9a3d 125c d73d 9d32 ef3d 0c66 923d
000001b0: d5d4 853d a094 dc3d 4a2c 0b3e a71e 643e
000001c0: 9a9f eb3d f400 1c3e 8a3e fe3d 0b33 d93d
000001d0: 3e86 883d 383a b63d 85e0 8f3e e992 873d
000001e0: d3c4 823d 5b06 993d d25e e93d 5e31 0a3e
000001f0: 957e 9c3d 1053 823d a85d 8e3d 50b4 243e
00000200: 38a7 933e decb 603d e73c cd3d d1bb 863d
00000210: b797 103e 3897 8e3d 3cd6 433e 785b 0e3e
00000220: f4ef f23d 4fd9 3c3d 270a 793e 60c4 7f3d
00000230: afd1 953e 5685 183e 6773 b33d c062 063e
00000240: 4f8a 2e3e 3901 c93d c149 263e 3ab6 853e
00000250: 3f1c fe3d bf5a b53d 3d68 303e f8e4 e23d
00000260: fc3e 553d 74a1 943d 0d67 ab3d c940 7e3d
00000270: 22ad dd3d 4dd3 103e 157a 943d ac07 623d
00000280: e887 c33d 7cbb d63d b19d e13d 0b8e c43d
00000290: 33a8 2f3e 0ea6 8e3d d262 d63d 5bd3 d53d
000002a0: 7d2a 753d 1c62 e33e e14b 573d 542e c93d
000002b0: 9120 cb3d 7a92 6f3d f9f2 963d d7cb 8b3d
000002c0: 5644 813d 4fe7 bf3d b66d a33d c5f8 423d
000002d0: 4505 ce3d 0d5b b53d 52d8 0f3e b5ab c33d
000002e0: f722 613e 2ce0 bd3d eda7 0a3e 0657 f63d
000002f0: 6fcf e03d 95dc 9a3d fe44 073e 4880 8e3d
00000300: 0956 093e 9217 cf3c 4775 003f 65f4 073e
00000310: 4289 993d da90 d43c bdb8 7d3e e705 613e
00000320: d172 003e 55f2 7e3d 088a f73d dab4 153e
00000330: 3fb4 bf3d 5579 7b3e 86f4 ab3d f4d8 3c3e
00000340: d020 ae3d 6661 e53d 9ddb 573d 906b 9f3d
00000350: 193d 0a3e 49fd c03d 3d86 763d 9bc1 293e
00000360: 7e38 7e3e f4b2 823d ef73 2e3e 4f20 fb3d
00000370: c83f d53d afe7 a93d 83fe 073e 663a f73d
00000380: 2e15 8d3d c127 b93d 412c b43d 22e6 0a3e
00000390: d472 003e db55 1a3e c939 1c3e 038d 2f3e
000003a0: 5c99 013e 1e34 8b3e 4897 3d3e d48a 6a3e
000003b0: a8bb a13d 205b 9f3f 2bcc ca3d b7f7 9c3d
000003c0: de3b 933d e07c 723d 6ced 083e 242f d43d
000003d0: e8fe 233e 2922 e13d 8936 a73d 98ef 983d
000003e0: 5f4b c83d c2f8 263d b46a ce3d 9b49 b23d
000003f0: 12eb 1e3d 15ae 813d ac50 e53e f2ee 6e3d

bn1.bias f4 [400]
-0.06027819 -0.029833866 0.04834597 0.07305702 0.030719705 0.00503865 0.09568694 0.023619715
-0.009051247 0.004508275 0.019193357 0.048216928 0.0057653007 0.019255057 -0.016952286 0.011672081
0.023625914 0.026663153 0.023529857 0.012975746 0.016083462 0.044916086 -0.0077773104 0.0698423
-0.4296106 -0.047481425 0.0044058887 0.008118844 0.29783288 -0.023139114 -0.005264865 0.011518461
0.0004581308 0.0067841066 0.009332916 0.076651946 0.0010399101 0.02469862 0.025170296 -0.00136877
0.002275881 0.0038725822 -0.008779895 0.009622773 0.0050726193 0.004364658 0.027659398 0.006335151
-0.0016088045 0.0010726447 -0.04689165 0.060312234 0.026095862 -0.020353537 0.020989412 0.021843912
-0.002249922 -0.0143441735 0.052041277 0.0043146326 0.0024622953 0.0257714 -0.04205536 -0.024110788
0.035343304 0.01769067 0.37967518 0.030149238 0.15435697 -0.0039108726 -0.024820557 0.006583871
-0.0021425432 0.07056737 0.045179904 0.061896224 0.016860597 0.007018529 0.036035493 -0.014621911
0.022057611 0.03186842 0.017410552 0.004763788 0.014206373 -0.003540062 -0.0042583696 0.032082118
0.16261655 0.03899379 -0.010278971 0.038456846 -0.00024776906 0.0060829287 0.116271466 -0.013695465
0.00013540553 0.022316337 -0.005393261 0.004669125 0.039915975 0.021509025 -0.01567558 -0.026117848
0.009004818 -0.026960908 0.05709746 0.006630676 -0.004857751 0.063301586 -0.0077922735 0.0692986
0.004095296 -0.0056954254 0.02497705 0.0015173601 0.0015522925 -0.0067291535 0.11019445 0.023512552
-0.0044934666 -0.004238416 0.01796432 0.021549696 0.027917782 0.017719653 0.015135761 0.027490892
-0.09276659 -0.012827497 0.039574567 0.022582168 0.0633491 0.0063642273 0.03345717 0.053930473
0.08123642 1.6183542 0.13810836 0.0068392614 0.055247866 0.029318765 0.02154454 0.0045873197
0.023203459 0.005014896 -0.016931977 0.0989363 0.012793498 0.012831548 0.05281417 0.08156667
0.010922122 0.0061722146 0.021781454 0.008224479 0.020227598 0.029939638 -0.014578642 -0.004755557
0.0040722676 -0.012455632 0.034613382 0.041671973 0.060697075 0.021108098 -0.005240817 0.016004506
1.4197172 0.10596727 0.0032228157 0.009198644 0.00021772346 -0.013050532 0.0073966966 0.014352242
-0.011812372 -0.011216582 -0.0015443786 -0.0027396714 0.0039655846 0.009821386 0.070183136 0.034150798
0.08332417 0.0038315025 -0.030975558 0.0395886 0.030645736 0.027389575 -0.018172765 -0.004052084
0.059737273 -0.00061183044 0.16263802 0.066471234 0.026846044 0.008380858 0.088668466 0.22914204
-0.0008827235 0.011995776 0.052657444 0.042595487 -0.8019236 0.0075117187 0.003584258 0.05281869
0.018174758 0.028466446 0.004039554 -0.0031114165 -0.011924085 -0.013728343 0.009360776 0.08145547
0.048438586 0.0062038456 0.017830947 -0.0031084158 0.016392795 0.5785262 0.026582882 0.004801996
0.016356725 -0.013396016 0.007642197 0.011319855 0.04581627 0.018088263 0.07301295 0.04493316
0.018748764 0.13934389 0.03555813 0.0363687 0.02094807 0.06582236 0.026862796 0.0040063905
0.013603918 -0.0077502206 0.065411076 0.019180246 0.008134125 -0.0051323324 -0.0005972561 0.004308051
0.0031951915 0.00380721 0.018305864 0.023965802 0.0059661902 0.014346716 0.09703826 0.028787846
00000000: 43e6 76bd 2766 f4bc 6d06 463d eb9e 953d
00000010: e4a7 fb3c 421b a53b 84f7 c33d 227e c13c
00000020: ae4b 14bc 27ba 933b 633b 9d3c 1d7f 453d
00000030: d9ea bc3b c8bc 9d3c 85df 8abc 423c 3f3c
00000040: 228b c13c af6c da3c b0c1 c03c 3998 543c
00000050: 77c1 833c eef9 373d cfd8 febb 7b09 8f3d
00000060: ecf5 dbbe e27b 42bd 465f 903b e604 053c
00000070: 8d7d 983e 3d8e bdbc e384 acbb edb7 3c3c
00000080: 4631 f039 364d de3b 16e9 183c b2fb 9c3d
00000090: 984d 883a c354 ca3c f031 ce3c 4d68 b3ba
000000a0: f226 153b 26cb 7d3b 8cd9 0fbc d6a8 1d3c
000000b0: 3738 a63b 6805 8f3b f695 e23c 1997 cf3b
000000c0: 85de d2ba fc97 8c3a 7511 40bd f609 773d
000000d0: fdc6 d53c 76bc a6bc fdf1 ab3c 01f2 b23c
000000e0: 6d73 13bb d303 6bbc 3c29 553d c361 8d3b
000000f0: 765e 213b 8b1e d33c 3e42 2cbd fd83 c5bc
00000100: 24c4 103d 06ec 903c c964 c23e 89fb f63c
00000110: c10f 1e3e c726 80bb 7b54 cbbc 83bd d73b
00000120: e969 0cbb a085 903d 900e 393d e586 7d3d
00000130: 3c1f 8a3c b0fb e53b f499 133d bd90 6fbc
00000140: 2ab2 b43c 7688 023d 93a0 8e3c 8d19 9c3b
00000150: d9c1 683c 6300 68bb cb89 8bbb 8a68 033d
00000160: f484 263e f4b7 1f3d 2169 28bc ed84 1d3d
00000170: 00e7 81b9 4e53 c73b bc1f ee3d f262 60bc
00000180: a5fb 0d39 c0d0 b63c f4b9 b0bb 76ff 983b
00000190: ef7e 233d b233 b03c 136a 80bc 19f5 d5bc
000001a0: f288 133c 1fdd dcbc 07df 693d 2446 d93b
000001b0: c52d 9fbb 43a4 813d 5456 ffbb 6dec 8d3d
000001c0: d531 863b b1a0 babb ac9c cc3c 28e2 c63a
000001d0: 4b76 cb3a 3b80 dcbb a1ad e13d 659d c03c
000001e0: ee3d 93bb 69e2 8abb e929 933c fd88 b03c
000001f0: d5b3 e43c ce28 913c fcfb 773c 9434 e13c
00000200: 69fc bdbd 6c2a 52bc f118 223d 3dfe b83c
00000210: 2cbd 813d 028b d03b 630a 093d 33e6 5c3d
00000220: 485f a63d 3b26 cf3f 476c 0d3e e21b e03b
00000230: 964b 623d e82d f03c 2d7e b03c 3a51 963b
00000240: 2e15 be3c ff53 a43b eeb4 8abc 1d9f ca3d
00000250: d29b 513c 6a3b 523c ac53 583d 6d0c a73d
00000260: b3f2 323c 4a40 ca3b 056f b23c f7bf 063c
00000270: 59b4 a53c f943 f53c 42db 6ebc 81d4 9bbb
00000280: a870 853b b512 4cbc c3c6 0d3d 3bb0 2a3d
00000290: 7f9d 783d e4ea ac3c 29bb abbb e21b 833c
000002a0: 4bb9 b53f 5e05 d93d e035 533b e9b5 163c
000002b0: b24c 6439 e6d1 55bc fd5f f23b ab25 6b3c
000002c0: ae88 41bc c1c5 37bc bf6c caba 0f8c 33bb
000002d0: bcf1 813b e1e9 203c 2dbc 8f3d b5e1 0b3d
000002e0: dda5 aa3d f219 7b3b 74c0 fdbc a827 223d
000002f0: c40c fb3c 1a60 e03c 0ddf 94bc 58c7 84bb
00000300: 12af 743d 3f63 20ba 958a 263e 1222 883d
00000310: 3cec db3c de4f 093c d097 b53d 36a4 6a3e
00000320: 9266 67ba ee89 443c 55af 573d 9b78 2e3d
00000330: dd4a 4dbf dd24 f63b dfe5 6a3b 6958 583d
00000340: 3be3 943c 7732 e93c 3c5e 843b e8e8 4bbb
00000350: 3d5d 43bc d8ec 60bc f15d 193c 20d2 a63d
00000360: 8a67 463d a149 cb3b 3512 923c 90b6 4bbb
00000370: 2f4a 863c 4b1a 143f 58c4 d93c 105a 9d3b
00000380: 8afe 853c f77a 5bbc 656b fa3b ea76 393c
00000390: d7a9 3b3d d62d 943c d087 953d d50b 383d
000003a0: 0297 993c 2ab0 0e3e 67a5 113d 59f7 143d
000003b0: 499b ab3c e0cd 863d 5e0f dc3c 0a48 833b
000003c0: f8e2 5e3c 90f5 fdbb 3ef6 853d e41f 9d3c
000003d0: fe44 053c 202d a8bb 2e91 1cba 8d2a 8d3b
000003e0: 6b66 513b 6282 793b 2ef6 953c ee53 c43c
000003f0: 0880 c33b 7d0e 6b3c ffbb c63d 7dd4 eb3c

bn1.running_mean f4 [400]
3.943219 2.3977568 1.7060999 1.168272 0.8725244 0.9583966 1.580161 3.3864553
1.1109239 4.4675813 3.6952298 1.6625758 1.314765 0.9825711 2.1179323 1.0179338
4.7060027 1.9658288 5.1592407 1.5847424 3.472523 3.0312355 1.4121503 0.38658053
5.962692 1.2039213 0.58212626 1.3153341 2.2651567 0.896031 3.1710036 4.1364346
2.5239596 1.9221029 1.0471033 3.8048513 5.46282 2.4648342 1.7411586 1.4551425
0.25615487 0.23526041 0.7110763 1.2870365 2.4218583 6.408352 1.809983 1.8010759
0.04638322 0.6845255 2.1517336 3.2939696 0.5094579 2.3094556 0.7700492 2.5855758
1.217117 0.23441559 2.499806 2.2621863 1.1928902 1.5889387 2.7302344 4.0725045
3.4916725 5.346846 3.2583594 3.3087506 2.314885 7.799025 0.27875185 1.1575403
1.116668 3.0473936 0.6393292 1.1529988 1.1385248 1.508693 4.671466 1.2345675
3.704024 4.371753 1.4655434 1.5545611 1.2966211 1.1626728 1.6664807 4.351429
5.7856045 2.8474715 6.8714685 3.7128325 0.66335946 1.9510113 1.4718014 3.450137
0.58945066 5.7457614 0.6367599 0.53015774 1.4527363 3.7647388 2.670159 0.60630053
2.906684 1.1010857 2.9246423 2.0457833 1.9396636 4.780591 2.4472551 1.3621262
1.6030201 10.536044 1.2704194 4.35497 1.8522946 0.28180498 1.6558955 3.1100097
0.26960498 0.5999183 3.303532 0.6180043 1.9615562 1.8697268 0.25723946 0.6676732
3.9806519 1.6754634 4.975567 3.0161672 1.2804652 2.1704342 1.577055 2.7217896
2.8819664 8.62039 1.9448793 7.0739174 1.2164108 0.2860038 3.745767 0.75344324
4.055527 5.008757 1.5543157 1.6155603 0.9651696 1.1259875 0.758039 12.797663
1.1315016 1.9877571 1.4478688 0.39128047 1.1928798 2.4394245 1.6202061 3.7613816
4.833529 3.23972 1.7952999 0.85404897 1.0627908 1.9546181 1.5808896 1.0788043
2.5137212 0.7530594 1.5548373 1.2538785 4.402626 0.5361989 0.36626258 1.7765791
0.4686472 4.4305654 1.8508925 0.387673 2.4971902 1.5154598 2.620519 0.8671985
5.0719833 3.8274155 1.3961301 2.2203403 0.9939641 6.712377 2.1362002 0.15565835
4.964755 4.4623313 1.0932704 1.2640139 5.3613977 0.583339 1.1320608 6.107914
0.84191144 2.0293317 6.9312162 2.7290688 2.391404 1.6809479 0.1722834 2.8861794
1.2645663 2.070646 1.8763905 1.3288765 2.7389944 0.49669772 0.078413405 0.406413
2.19608 0.53577703 1.1412665 0.899404 4.1857977 16.98059 1.8801911 1.7629642
0.6573886 0.82572395 1.1145407 3.2630746 1.4730718 3.48049 2.1639574 2.1601648
0.18717001 1.9012504 0.88538855 0.68242455 2.3264012 6.667691 2.062046 1.6505582
0.8927844 3.2205067 5.248922 2.539314 2.9219892 3.9726682 1.5377988 1.4469968
0.4634813 0.48723683 2.0731883 2.1225216 0.80599606 2.4178479 1.5998152 0.74553436
00000000: b35d 7c40 d974 1940 7b61 da3f f089 953f
00000010: c25d 5f3f 7b59 753f b742 ca3f afbb 5840
00000020: c132 8e3f 6df6 8e40 a57e 6c40 49cf d43f
00000030: 384a a83f c889 7b3f 348c 0740 a84b 823f
00000040: 9397 9640 47a0 fb3f 8018 a540 d7d8 ca3f
00000050: d13d 5e40 c3ff 4140 57c1 b43f e2ed c53e
00000060: 5fce be40 181a 9a3f 3a06 153f de5c a83f
00000070: 54f8 1040 4a62 653f b9f1 4a40 ac5d 8440
00000080: 8e88 2140 7807 f63f 7b07 863f af82 7340
00000090: 6ccf ae40 d8bf 1d40 49de de3f 1c42 ba3f
000000a0: bb26 833e 1be8 703e 1909 363f 9dbd a43f
000000b0: baff 1a40 3811 cd40 86ad e73f a889 e63f
000000c0: 55fc 3d3d 103d 2f3f 01b6 0940 66d0 5240
000000d0: d56b 023f 1fce 1340 f221 453f 137a 2540
000000e0: 7dca 9b3f a40a 703e d2fc 1f40 a9c7 1040
000000f0: a0b0 983f 5862 cb3f 29bc 2e40 f551 8240
00000100: 9077 5f40 5d19 ab40 f688 5040 92c2 5340
00000110: 1327 1440 9d91 f940 90b8 8e3e 482a 943f
00000120: faee 8e3f 7f08 4340 14ab 233f 7795 933f
00000130: 2ebb 913f da1c c13f a67c 9540 4f06 9e3f
00000140: bb0e 6d40 67e5 8b40 ed96 bb3f dcfb c63f
00000150: aef7 a53f 76d2 943f 3d4f d53f e83e 8b40
00000160: ac23 b940 f93c 3640 12e3 db40 0c9f 6d40
00000170: edd1 293f bdba f93f fd63 bc3f 0bcf 5c40
00000180: 3de6 163f 47dd b740 b202 233f 6bb8 073f
00000190: 43f3 b93f 7bf1 7040 e3e3 2a40 8336 1b3f
000001a0: 1c07 3a40 60f0 8c3f 572d 3b40 1dee 0240
000001b0: e646 f83f 9afa 9840 d49f 1c40 275a ae3f
000001c0: c32f cd3f a393 2841 1a9d a23f ea5b 8b40
000001d0: fd17 ed3f be48 903e 62f4 d33f 660a 4740
000001e0: aa09 8a3e 3f94 193f 116d 5340 8835 1e3f
000001f0: 4614 fb3f 3553 ef3f e4b4 833e a1ec 2a3f
00000200: 00c3 7e40 9675 d63f d837 9f40 e208 4140
00000210: 49e6 a33f 65e8 0a40 f0dc c93f cd31 2e40
00000220: 2372 3840 1eed 0941 cef1 f83f 885d e240
00000230: 59b3 9b3f 176f 923e a6ba 6f40 a8e1 403f
00000240: e1c6 8140 bd47 a040 d1f3 c63f aeca ce3f
00000250: 5b15 773f 5c20 903f d80e 423f 3ac3 4c41
00000260: 0bd5 903f d36e fe3f c453 b93f ea55 c83e
00000270: 49b0 983f 881f 1c40 ea62 cf3f 7aba 7040
00000280: 45ac 9a40 9357 4f40 63cc e53f f4a2 5a3f
00000290: 8709 883f ed30 fa3f 975a ca3f 4216 8a3f
000002a0: cfe0 2040 80c8 403f e904 c73f 177f a03f
000002b0: 50e2 8c40 5544 093f c586 bb3e f266 e33f
000002c0: 87f2 ef3e 31c7 8d40 0cea ec3f 137d c63e
000002d0: f7d1 1f40 96fa c13f 95b6 2740 b900 5e3f
000002e0: b04d a240 60f4 7440 64b4 b23f 0e1a 0e40
000002f0: 6e74 7e3f cbcb d640 81b7 0840 e764 1f3e
00000300: 46df 9e40 6bcb 8e40 49f0 8b3f 35cb a13f
00000310: 9290 ab40 b455 153f 5ee7 903f 0874 c340
00000320: 8287 573f 92e0 0140 86cc dd40 10a9 2e40
00000330: c30c 1940 4d29 d73f 0f6b 303e 2ab7 3840
00000340: 4fdd a13f 7785 0440 902d f03f a018 aa3f
00000350: af4b 2f40 2a4f fe3e 3597 a03d 5d15 d03e
00000360: 938c 0c40 af28 093f 0515 923f 573f 663f
00000370: 0ef2 8540 40d8 8741 1aaa f03f d0a8 e13f
00000380: 9f4a 283f a562 533f 45a9 8e3f 37d6 5040
00000390: 9e8d bc3f 59c0 5e40 477e 0a40 2440 0a40
000003a0: 7fa9 3f3e 2c5c f33f d3a8 623f 60b3 2e3f
000003b0: c2e3 1440 ba5d d540 90f8 0340 7e45 d33f
000003c0: 858d 643f c81c 4e40 2bf7 a740 1f84 2240
000003d0: df01 3b40 3240 7e40 97d6 c43f 3137 b93f
000003e0: 6c4d ed3e 1b77 f93e 1eaf 0440 65d7 0740
000003f0: c255 4e3f 05be 1a40 bfc6 cc3f 57db 3e3f

bn1.running_var f4 [400]
24.3737 10.054879 15.088966 8.392937 5.1173687 7.5332794 10.625384 18.795668
4.7616324 32.6007 19.827377 16.315947 9.830457 8.197302 14.642026 6.124339
39.513874 17.292349 72.028114 11.883473 23.668264 22.284786 8.908053 2.6351736
78.59812 7.7693577 2.7492888 12.793829 16.81024 7.04255 23.60991 47.695034
18.839352 17.082506 6.6246843 23.239641 37.924255 18.638456 13.03643 13.659201
1.722366 1.301775 3.4931529 7.2574434 30.503862 74.734 15.404477 19.403572
0.60110474 3.5689542 16.60881 27.870836 1.9727036 18.805134 5.9980116 15.86535
6.338111 1.4155589 16.695776 24.456306 9.170155 11.217253 18.793913 30.370436
28.579428 40.253765 27.348713 20.87997 11.20205 55.660732 2.8091588 9.530079
7.21036 18.780748 4.116454 10.280674 6.88209 13.403628 19.514793 7.8716187
51.40847 41.687454 9.953944 8.310646 13.196016 5.0468607 12.906266 66.68519
43.992607 27.046732 62.33787 32.636482 2.5530174 16.712734 7.963683 25.366386
9.194971 60.15609 2.3062322 2.4838192 14.694194 46.287613 19.012384 2.894144
18.783102 9.520597 28.702103 17.44644 22.226488 37.998432 8.782541 8.9199505
11.470022 142.58888 9.439382 22.01185 14.432651 1.6576006 14.13684 35.157494
2.6683624 5.056316 27.136736 2.578693 15.151879 13.200077 1.9034746 4.54236
28.312986 15.41282 40.396626 28.081043 8.572693 20.542446 12.022018 23.122023
27.625818 90.52256 12.977519 46.5847 7.511009 1.7590116 23.186043 3.7057416
13.71343 52.519894 6.349543 11.074745 7.534384 5.865542 4.3506927 44.37757
7.1571474 28.787025 14.757017 2.573049 8.365432 18.858915 13.001211 61.16812
25.699411 24.534721 14.651794 5.486501 6.9221015 8.602827 10.302376 4.3410053
20.62288 4.0594215 13.621608 14.203221 51.032978 2.8226566 2.6317651 12.279966
2.728207 41.97955 15.403093 5.0527263 26.649235 9.380451 19.882996 5.9816313
40.788082 27.354525 6.2731004 16.263464 7.525377 66.25794 17.169762 1.1473563
75.61895 37.669662 5.6822343 4.770586 83.26788 7.109607 6.9075956 48.889538
6.929756 12.622438 76.11209 13.967039 15.725929 10.57828 2.7294312 19.142338
9.887852 11.549559 15.075621 10.210784 15.501936 2.2435117 0.7114935 5.3899794
17.999458 6.936591 7.264504 4.7929254 42.916855 175.12154 19.396233 18.501318
8.118549 7.539724 6.415771 13.797375 11.40851 21.680756 14.909303 17.337637
1.3248737 13.155867 5.7371664 5.1905394 16.201817 80.30433 15.579051 15.515025
6.6495967 25.465593 21.787111 9.281909 15.62957 47.867912 9.001316 7.993421
4.2527843 6.3214583 18.503847 15.224804 6.8003225 23.721758 12.078431 9.717113
00000000: 56fd c241 c9e0 2041 686c 7141 7849 0641
00000010: 7cc1 a340 a010 f140 9301 2a41 875d 9641
00000020: 4b5f 9840 1e67 0242 789e 9e41 0f87 8241
00000030: 8d49 1d41 2628 0341 bd45 6a41 96fa c340
00000040: 350e 1e42 bb56 8a41 650e 9042 b522 3e41
00000050: 9b58 bd41 3e47 b241 6387 0e41 afa6 2840
00000060: 3d32 9d42 949e f840 59f4 2f40 86b3 4c41
00000070: 5f7b 8641 925c e140 18e1 bc41 b7c7 3e42
00000080: feb6 9641 f9a8 8841 6afd d340 c9ea b941
00000090: 70b2 1742 8f1b 9541 3895 5041 168c 5a41
000000a0: 7d76 dc3f 90a0 a63f d18f 5f40 fa3c e840
000000b0: e907 f441 cf77 9542 bd78 7641 843a 9b41
000000c0: 00e2 193f bf69 6440 d8de 8441 79f7 de41
000000d0: 8d81 fc3f ea70 9641 b6ef bf40 79d8 7d41
000000e0: ced1 ca40 0931 b53f f390 8541 84a6 c341
000000f0: f4b8 1241 de79 3341 ef59 9641 a7f6 f241
00000100: aba2 e441 db03 2142 2aca da41 2e0a a741
00000110: 993b 3341 97a4 5e42 42c9 3340 347b 1841
00000120: 45bb e640 f93e 9641 feb9 8340 a47d 2441
00000130: 153a dc40 4375 5641 4c1e 9c41 4de4 fb40
00000140: 46a2 4d42 f4bf 2642 5b43 1f41 68f8 0441
00000150: e222 5341 e27f a140 1180 4e41 d15e 8542
00000160: 6ef8 2f42 b55f d841 fb59 7942 c28b 0242
00000170: a364 2340 aeb3 8541 7ed6 fe40 5cee ca41
00000180: 9a1e 1341 d69f 7042 4f99 1340 e5f6 1e40
00000190: 6b1b 6b41 8426 3942 5d19 9841 a839 3940
000001a0: cb43 9641 5e54 1841 e89d e541 4f92 8b41
000001b0: d9cf b141 65fe 1742 4a85 0c41 1eb8 0e41
000001c0: 3685 3741 c196 0e43 b507 1741 4518 b041
000001d0: 23ec 6641 422c d43f 7f30 6241 46a1 0c42
000001e0: 73c6 2a40 57cd a140 0918 d941 4e09 2540
000001f0: 196e 7241 8433 5341 0ea5 f33f 035b 9140
00000200: ff80 e241 e99a 7641 2596 2142 faa5 e041
00000210: c029 0941 ee56 a441 305a 4041 e7f9 b841
00000220: ad01 dd41 8d0b b542 eba3 4f41 bc56 3a42
00000230: 305a f040 4b27 e13f 047d b941 df2a 6d40
00000240: 366a 5b41 5f14 5242 752f cb40 2832 3141
00000250: ac19 f140 85b2 bb40 e038 8b40 a282 3142
00000260: 5a07 e540 d44b e641 be1c 6c41 d6ac 2440
00000270: cfd8 0541 0fdf 9641 f604 5041 28ac 7442
00000280: 6598 cd41 1c47 c441 c06d 6a41 6b91 af40
00000290: db81 dd40 2ea5 0941 88d6 2441 84e9 8a40
000002a0: a9fb a441 c8e6 8140 1bf2 5941 6540 6341
000002b0: c521 4c42 68a6 3440 d76e 2840 be7a 4441
000002c0: f29a 2e40 0feb 2742 1273 7641 efaf a140
000002d0: a231 d541 5416 1641 6010 9f41 8669 bf40
000002e0: ff26 2342 11d6 da41 3dbd c840 931b 8241
000002f0: e3cf f040 1184 8442 ac5b 8941 92dc 923f
00000300: e73c 9742 bcad 1642 ddd4 b540 a4a8 9840
00000310: 2889 a642 e781 e340 060b dd40 e38e 4342
00000320: 90c0 dd40 82f5 4941 6439 9842 fe78 5f41
00000330: 689d 7b41 a340 2941 00af 2e40 8223 9941
00000340: a434 1e41 feca 3841 be35 7141 5f5f 2341
00000350: ee07 7841 b295 0f40 7024 363f b67a ac40
00000360: e4fe 8f41 8ef8 dd40 d176 e840 a55f 9940
00000370: dcaa 2b42 1d1f 2f43 7c2b 9b41 b302 9441
00000380: 94e5 0141 6b45 f140 ff4d cd40 0cc2 5c41
00000390: 4289 3641 3072 ad41 818c 6e41 7bb3 8a41
000003a0: 7695 a93f 6e7e 5241 de96 b740 e618 a640
000003b0: 529d 8141 d19b a042 cb43 7941 8b3d 7841
000003c0: 7fc9 d440 89b9 cb41 014c ae41 b382 1441
000003d0: b812 7a41 be78 3f42 6405 1041 1bca ff40
000003e0: cf16 8840 6349 ca40 e107 9441 cc98 7341
000003f0: 3e9c d940 29c6 bd41 4141 4141 4b79 1b41

fc2.weight f4 [280, 404]
0.6792469 0.58132166 -0.4510916 0.19551757 0.053986866 -2.2171812 0.2730234 -0.66115564
0.5785644 -1.3177142 0.68860817 -0.28282613 -1.321321 1.093125 0.2342818 0.017459024
-0.3970704 -1.0737743 -1.513865 2.4840426 -0.58603513 0.24313879 -0.22829345 -1.5734528
0.19357765 -0.5179852 -0.63971585 0.24168472 0.8747275 0.20500833 -0.6095698 0.28473082
-0.9077566 -0.10388509 -0.70971364 -0.48891363 -0.5103529 -0.6902347 1.4159034 0.47212684
-1.3056815 -0.5517005 0.73569244 -0.95161706 0.15482938 -0.93541956 0.5814043 -0.65248054
-2.4026177 -0.10564403 -1.0570685 0.16048525 0.17767951 -0.8253109 -0.29146066 0.3513016
-0.8746028 -1.4025915 1.0913233 -0.5286871 1.8481679 -1.2172005 0.8798113 -1.0005931
0.0037017274 -1.9772606 -0.14938201 -1.009572 0.26447558 0.84612626 -1.4452171 -0.57299095
-1.6430769 0.18417136 0.11694581 -2.743817 -1.0590932 0.34690294 0.12327384 -1.1799269
-1.4141134 -2.2974849 -2.7202935 -1.194523 -1.2113961 -0.21157563 -1.1202047 0.22357413
-1.2850457 -1.0627346 1.4179424 0.93079716 0.24559624 0.5418417 0.4690175 -1.160491
0.6142373 -0.9149952 -1.2985865 -0.20343745 -0.8392309 1.4023079 -1.2803669 -1.8785923
-1.640467 -0.15608087 -0.7878624 0.03385223 -0.11619683 0.46679622 0.98209715 1.5880427
-1.006114 0.21197204 -1.1477654 -0.13443783 0.9449501 -0.29526725 -0.5224356 1.1354537
-0.027084388 -1.6439419 2.061208 -1.1450123 0.15002479 1.5261405 -0.7063823 0.70151997
-0.16574293 -1.4827558 0.62895733 -0.7603297 0.09571494 0.76549435 1.0079083 0.9746894
0.63014376 -0.53169304 0.89194864 -1.91605 1.2315861 -0.7368085 -0.09326937 -1.848304
-1.5624001 0.97546965 0.1911429 -1.7620617 -0.7142529 -0.0015297516 -0.057589225 0.66851455
-0.45155445 -1.2304672 1.2146345 -0.7715691 0.6737404 0.53422153 0.63692534 -1.185133
0.5434652 1.2442325 1.0789794 -1.0290833 -1.9444405 0.62173337 0.62801045 1.3550847
-0.38844448 -0.4482785 0.01652014 -0.28609627 0.5108209 0.8669496 -0.85933095 1.2553622
-0.7274473 -0.4106531 -0.0064594834 1.5829519 -0.14810348 -0.8628195 -0.89792836 -2.0879667
-0.29257908 0.46991122 -0.7957858 0.8242842 -2.7143831 -0.1447308 -0.9545116 -2.044992
0.024071278 -0.08874351 0.9707232 0.99297005 -1.1803466 1.0857054 0.391947 0.20758544
-0.7376822 0.25518405 -0.36837822 -0.10068017 0.49657086 0.098435 -0.7821126 0.19319381
0.30659962 -0.4972749 -0.5624892 -0.22610417 0.22208485 0.63627887 0.26124808 -0.02213354
0.20548579 0.18866627 0.3444969 1.5383887 -1.6566323 0.0763568 -0.21245784 -0.916565
1.0924624 -1.1360114 -0.05840961 -1.0850027 -1.0981755 0.19351125 0.14090538 0.20327806
-0.4710748 0.21407823 -0.77676994 -0.7933862 -1.341427 -0.4251388 -0.104033016 -1.1124524
-0.79866534 -0.07490978 -0.7913532 0.6613608 -0.3333362 -1.2792746 -0.5236822 -2.4468365
1.3294092 -1.322761 -0.18827991 -1.641373 0.30437458 -2.4644454 -1.8064188 -0.92755115
00000000: 20e3 2d3f 7fd1 143f 7af5 e6be c235 483e
00000010: 5521 5d3d 4ce6 0dc0 b9c9 8b3e 7f41 29bf
00000020: cc1c 143f dcaa a8bf a048 303f 96ce 90be
00000030: 0c21 a9bf 85eb 8b3f 91e7 6f3e 3a06 8f3c
00000040: d04c cbbe 7071 89bf 54c6 c1bf 8efa 1e40
00000050: 6606 16bf 60f9 783e c2c5 69be e766 c9bf
00000060: 3839 463e ae9a 04bf 6bc4 23bf 337c 773e
00000070: 24ee 5f3f b4ed 513e c40c 1cbf 3dc8 913e
00000080: bd62 68bf b5c1 d4bd cbaf 35bf e352 fabe
00000090: 7da6 02bf 39b3 30bf 533c b53f 9cba f13e
000000a0: 9220 a7bf 3e3c 0dbf 5756 3c3f 2d9d 73bf
000000b0: 988b 1e3e a877 6fbf ead6 143f f708 27bf
000000c0: 7dc4 19c0 e65b d8bd 054e 87bf 3f56 243e
000000d0: 9ef1 353e 9347 53bf 553a 95be cedd b33e
000000e0: f8e5 5fbf 1e88 b3bf 7bb0 8b3f 0a58 07bf
000000f0: c490 ec3f 3acd 9bbf 503b 613f 6f13 80bf
00000100: ae98 723b e016 fdbf 99f7 18be a839 81bf
00000110: 5869 873e bb9b 583f e0fc b8bf 89af 12bf
00000120: 5850 d2bf 6b97 3c3e 4981 ef3d b39a 2fc0
00000130: 5e90 87bf 439d b13e ff76 fc3d d807 97bf
00000140: ab01 b5bf fe09 13c0 4a19 2ec0 21e6 98bf
00000150: 070f 9bbf 48a7 58be de62 8fbf 9ef0 643e
00000160: 617c a4bf b007 88bf 237f b53f b948 6e3f
00000170: 957d 7b3e 23b6 0a3f 1023 f03e f88a 94bf
00000180: a83e 1d3f 203d 6abf 1538 a6bf e851 50be
00000190: d6d7 56bf d37e b33f 10e3 a3bf b675 f0bf
000001a0: d3fa d1bf aad3 1fbe 5ab1 49bf a3a8 0a3d
000001b0: 9bf8 edbd eaff ee3e b86a 7b3f fc44 cb3f
000001c0: 58c8 80bf 330f 593e fae9 92bf 12aa 09be
000001d0: 40e8 713f 452d 97be 57be 05bf 8c56 913f
000001e0: 14e0 ddbc b06c d2bf d5ea 0340 c38f 92bf
000001f0: 19a0 193e 9258 c33f 78d5 34bf d096 333f
00000200: 84b8 29be f1ca bdbf 5903 213f f8a4 42bf
00000210: 3206 c43d 70f7 433f 2403 813f 3f85 793f
00000220: 1a51 213f 091d 08bf bf56 643f 2041 f5bf
00000230: 9da4 9d3f 7b9f 3cbf 0304 bfbd 3a95 ecbf
00000240: bafc c7bf 61b8 793f f7ba 433e 3d8b e1bf
00000250: 47d9 36bf f281 c8ba aee2 6bbd c523 2b3f
00000260: 2532 e7be f37f 9dbf 2579 9b3f 8d85 45bf
00000270: 407a 2c3f bec2 083f 8a0d 233f 70b2 97bf
00000280: 8920 0b3f 0343 9f3f ff1b 8a3f 00b9 83bf
00000290: 6de3 f8bf eb29 1f3f 4bc5 203f 6a73 ad3f
000002a0: 32e2 c6be c284 e5be 3f55 873c 367b 92be
000002b0: 29c5 023f 69f0 5d3f 1dfd 5bbf b5af a03f
000002c0: fc39 3abf 2041 d2be 13aa d3bb 2b9e ca3f
000002d0: 70a8 17be bde1 5cbf a2de 65bf 3fa1 05c0
000002e0: edcc 95be 3498 f03e 9eb8 4bbf 4a04 533f
000002f0: 74b8 2dc0 5034 14be df5a 74bf 26e1 02c0
00000300: 2131 c53c 28bf b5bd 5181 783f 4933 7e3f
00000310: 9915 97bf 65f8 8a3f 47ad c83e 4791 543e
00000320: bed8 3cbf 7ca7 823e 129c bcbe 6831 cebd
00000330: 893e fe3e 4a98 c93d 8838 48bf 99d4 453e
00000340: a0fa 9c3e d19a febe 4bff 0fbf da87 67be
00000350: 366a 633e 2ce3 223f 4fc2 853e 6651 b5bc
00000360: de6a 523e bb31 413e e661 b03e ece9 c43f
00000370: 870c d4bf f460 9c3d 8c8e 59be 01a4 6abf
00000380: cfd5 8b3f d268 91bf ea3e 6fbd 5ee1 8abf
00000390: 0491 8cbf d027 463e 8049 103e 2028 503e
000003a0: b730 f1be 5337 5b3e 65da 46bf 5c1b 4bbf
000003b0: e1b3 abbf cbab d9be 430f d5bd d764 8ebf
000003c0: 5575 4cbf 4c6a 99bd 2096 4abf f14e 293f
000003d0: 0bab aabe 45bf a3bf 0910 06bf f898 1cc0
000003e0: 152a aa3f 3c50 a9bf 73cc 40be 8318 d2bf
000003f0: fcd6 9b3e 79b9 1dc0 bb38 e7bf fe73 6dbf

fc2.bias f4 [280]
-1.0679344 -0.11500283 -1.6443737 -1.3038688 -0.57232416 -0.70457315 -1.2543502 -1.0767431
-0.2926138 -0.3603342 -0.84312546 -1.8082939 -0.51201373 -0.97011685 -1.2619168 -0.34834555
-0.7860953 -1.0361036 -0.69246763 -1.2519174 -1.8692943 -1.4471225 -0.32151496 -1.6532313
-2.0330575 -0.8840341 -0.5328217 -1.3703127 -0.36661115 -0.7580122 -1.1225492 -0.8661731
-1.0000148 -1.2510347 -0.24021569 0.003874541 -1.6665372 -0.3441892 -1.5754178 -0.64640826
-1.3928292 -0.42566663 -0.3582439 -1.1399125 -1.0594065 -0.99758494 -4.4158893 -0.43347442
-1.6789917 -0.4739514 -0.22045496 -0.5408174 -0.90459687 -1.8509034 0.15381472 -0.6132874
-0.427157 -0.025943205 -0.66665787 -0.015084801 -0.12081189 -1.0464418 -0.8134751 -1.2392353
-1.0702132 -1.6273067 0.25746918 -1.3390539 -0.55022484 -0.10624979 -0.55330455 -0.796613
-1.5537276 -0.21742414 -0.692181 -0.668213 -4.485521 -0.43699083 -1.4374759 -1.3999333
-0.69232047 -0.45988828 -0.8399346 -0.48766917 -1.3532873 -1.6354046 -1.0676836 -1.1362116
-0.26274875 -0.47819182 -0.34303716 -0.5194129 -0.06747015 -0.45606002 -1.628673 -0.16112491
-0.30044082 -0.7685464 -1.2539213 -0.25991473 -1.5061194 -0.7061428 -0.54062104 -0.2599625
-0.544353 -0.938113 -0.24057892 -0.38241485 -1.3525892 -0.20524572 -0.38856086 -0.8049506
-0.6382151 -0.48715696 -0.6321561 -1.069862 -1.2265277 -1.449144 -0.4994514 -0.23775972
-1.5160397 -0.5044695 -1.1129023 -0.24502155 -1.3648691 -0.46285433 -0.5365948 -0.55796415
-0.7388911 -1.1999049 -0.3416901 -0.6789705 -0.477183 -1.0873421 -0.3566983 -0.4193664
-0.27743542 -1.0269274 -0.5557862 -0.6322357 -1.2979956 0.06322988 -1.7235502 -1.0171741
-0.3963601 -0.33603203 -1.122854 -0.4295804 -1.2991437 -1.3923656 -0.6431877 -1.3981854
-0.49061432 -1.4483247 -0.8749224 -0.14301518 -1.5247798 -0.044911116 -1.3623366 -0.6379893
-0.64153445 -0.8086688 -0.6606876 -1.1315578 -0.61211294 -4.533416 -0.3248741 -0.148084
-0.77191424 -0.8472976 -4.632889 -2.2098124 -0.85994375 -0.5497053 -1.5554428 -0.69090736
-2.0470843 -1.1316768 -0.44069117 -0.53885084 -0.3361917 -2.378351 -0.29692018 -0.28608668
-2.0169263 -0.58569956 -0.056481186 -4.4902425 -1.3356451 0.15333803 -1.5177984 -1.3191915
0.095375285 -1.2152312 -0.9803279 -0.16514441 -0.64937603 -4.590037 -0.8682748 -1.1423825
0.23646793 -0.5049637 -1.151996 -0.91502285 -0.33031815 -0.697937 -0.6080246 -0.8649635
-0.070620306 -1.6273055 -0.6104218 -0.102645054 -0.62370044 -0.3677282 -0.6076614 -1.4535693
-0.7841231 -0.2823736 -0.68718404 -1.1301274 -0.87287706 -0.68430424 -0.18294594 -0.517543
-0.8953675 -1.6035012 -0.6103424 -0.8359468 -0.51491827 -1.4688706 -1.2173455 -1.3625294
-1.5224531 -0.8136416 -0.2354516 -1.4196733 -0.5682266 -1.4470836 -4.6355915 -0.66281784
-0.7730765 -1.4191508 -1.26669 -0.13883282 -0.6521804 -0.9525646 -0.6571786 -1.0752946
-1.1374103 -0.5575167 -0.060036384 -0.5860151 -0.8471165 -1.4779899 -0.19499913 -0.6800229
00000000: 13b2 88bf 9b86 ebbd d67a d2bf 2ce5 a6bf
00000010: d683 12bf e85e 34bf 8c8e a0bf b8d2 89bf
00000020: 7ad1 95be b97d b8be 12d7 57bf 2d76 e7bf
00000030: 5513 03bf 9459 78bf 7d86 a1bf 595a b2be
00000040: 8b3d 49bf 0b9f 84bf 8f45 31bf d43e a0bf
00000050: 0945 efbf 4f3b b9bf 9c9d a4be 159d d3bf
00000060: 9d1d 02c0 0f50 62bf 0167 08bf 6866 afbf
00000070: 75b4 bbbe 160d 42bf b1af 8fbf 85bd 5dbf
00000080: 7c00 80bf e821 a0bf 1afb 75be 03ec 7d3b
00000090: 1751 d5bf 9139 b0be 4aa7 c9bf 037b 25bf
000000a0: 3a48 b2bf faf0 d9be bf6b b7be a7e8 91bf
000000b0: a29a 87bf ba61 7fbf f74e 8dc0 5cf0 ddbe
000000c0: 33e9 d6bf c2a9 f2be f2be 61be 0273 0abf
000000d0: a993 67bf 67ea ecbf 9b81 1d3e 6700 1dbf
000000e0: 53b4 dabe d886 d4bc 17aa 2abf 3e26 77bc
000000f0: 396c f7bd cef1 85bf e73f 50bf 439f 9ebf
00000100: bffc 88bf 964b d0bf 00d3 833e 1e66 abbf
00000110: 89db 0cbf 7d99 d9bd 5ea5 0dbf d4ee 4bbf
00000120: 8ce0 c6bf 6fa4 5ebe c632 31bf 0210 2bbf
00000130: 6389 8fc0 43bd dfbe 36ff b7bf 0431 b3bf
00000140: ea3b 31bf 7a76 ebbe f405 57bf c6af f9be
00000150: 8538 adbf f054 d1bf dba9 88bf 626f 91bf
00000160: 0187 86be 8fd5 f4be 91a2 afbe 3ef8 04bf
00000170: ca2d 8abd b380 e9be 5b78 d0bf eefd 24be
00000180: 61d3 99be 75bf 44bf 7e80 a0bf 8b13 85be
00000190: 85c8 c0bf c6c5 34bf 2466 0abf ce19 85be
000001a0: b85a 0bbf 2c28 70bf 525a 76be e1cb c3be
000001b0: a521 adbf ef2b 52be 73f1 c6be 3e11 4ebf
000001c0: 1162 23bf a36c f9be fbd4 21bf 3df1 88bf
000001d0: dcfe 9cbf 8d7d b9bf 18b8 ffbe 4977 73be
000001e0: 970d c2bf ea24 01bf 9573 8ebf eee6 7abe
000001f0: 08b4 aebf 3efb ecbe 475e 09bf bdd6 0ebf
00000200: f827 3dbf 7c96 99bf 01f2 aebe 03d1 2dbf
00000210: 5551 f4be 072e 8bbf 29a1 b6be 31b7 d6be
00000220: 040c 8ebe 5b72 83bf 0148 0ebf 33da 21bf
00000230: b824 a6bf ab7e 813d 4b9d dcbf c332 82bf
00000240: b6ef cabe 640c acbe aeb9 8fbf f6f1 dbbe
00000250: 574a a6bf 0939 b2bf f3a7 24bf bdf7 b2bf
00000260: cd31 fbbe b462 b9bf eafa 5fbf 9272 12be
00000270: fc2b c3bf b8f4 37bd 0c61 aebf 4453 23bf
00000280: 9a3b 24bf eb04 4fbf d322 29bf e3d6 90bf
00000290: 6fb3 1cbf be11 91c0 e655 a6be 55a3 17be
000002a0: 2c9c 45bf 7fe8 58bf a040 94c0 916d 0dc0
000002b0: 4625 5cbf 7db9 0cbf c018 c7bf 4edf 30bf
000002c0: 6e03 03c0 c9da 90bf 46a2 e1be 21f2 09bf
000002d0: 5221 acbe e736 18c0 ec05 98be f479 92be
000002e0: 5215 01c0 68f0 15bf d158 67bd 11b0 8fc0
000002f0: 6bf6 aabf a504 1d3e 3847 c2bf 44db a8bf
00000300: 1e54 c33d b28c 9bbf c5f6 7abf 9e1b 29be
00000310: 823d 26bf 95e1 92c0 4247 5ebf 9739 92bf
00000320: a624 723e 4d45 01bf 9b74 93bf f03e 6abf
00000330: 761f a9be 00ac 32bf 80a7 1bbf 3f6e 5dbf
00000340: 61a1 90bd 8c4b d0bf 9a44 1cbf 9237 d2bd
00000350: d5aa 1fbf df46 bcbe b38f 1bbf 8f0e babf
00000360: 4bbc 48bf 4693 90be 4beb 2fbf 04a8 90bf
00000370: df74 5fbf 902e 2fbf 2e56 3bbe b37d 04bf
00000380: ce36 65bf 873f cdbf 663f 1cbf 9c00 56bf
00000390: afd1 03bf f403 bcbf fad1 9bbf 5d67 aebf
000003a0: bedf c2bf d14a 50bf 391a 71be dbb7 b5bf
000003b0: 4c77 11bf 093a b9bf c456 94c0 6eae 29bf
000003c0: 57e8 45bf bca6 b5bf e622 a2bf 312a 0ebe
000003d0: 4bf5 26bf 46db 73bf db3c 28bf 41a3 89bf
000003e0: a996 91bf 6ab9 0ebf b6e8 75bd 1605 16bf
000003f0: a0dc 58bf c62e bdbf daad 47be fb15 2ebf
