checkpoint_critic.pth (torch_old, 207540 bytes, 11 tensors)

fcs1.weight f4 [256, 33]
0	0x800083be	-4.726e-41
1	0x0002b714	2.49347e-40
2	0x8001a2e8	-1.50275e-40
3	0x80019bd0	-1.4773e-40
4	0x80038bdc	-3.25679e-40
5	0x80009e9f	-5.6903e-41
6	0x000264ca	2.19827e-40
7	0x000188ae	1.40867e-40
8	0x0002adfe	2.46088e-40
9	0x800155ef	-1.22663e-40
10	0x80004f11	-2.8364e-41
11	0x00010350	9.3024e-41
12	0x00014732	1.17376e-40
13	0x80021699	-1.91778e-40
14	0x8001a351	-1.50422e-40
15	0x000237d0	2.03693e-40
16	0x8000dd1c	-7.9319e-41
17	0x00007141	4.0628e-41
18	0x0001002d	9.1899e-41
19	0x0000268d	1.383e-41
20	0x8000cb21	-7.2869e-41
21	0x8000184a	-8.713e-42
22	0x00012f86	1.08884e-40
23	0x00011ede	1.02909e-40
24	0x80008f46	-5.1397e-41
25	0x8000ef03	-8.5741e-41
26	0x0002b8f3	2.50018e-40
27	0x8000885c	-4.8917e-41
28	0x0001322a	1.09831e-40
29	0x8000ae79	-6.2589e-41
30	0x8001b9b6	-1.58456e-40
31	0x8001a14b	-1.49697e-40
32	0x8001e91c	-1.7546e-40
33	0x00017297	1.32943e-40
34	0x00000f64	5.521e-42
35	0x000254c7	2.14083e-40
36	0x800141de	-1.15464e-40
37	0x0000084c	2.976e-42
38	0x0000d3e9	7.6019e-41
39	0x80001068	-5.885e-42
40	0x00016d6f	1.31093e-40
41	0x80010c6e	-9.6294e-41
42	0x80018644	-1.40001e-40
43	0x00030f24	2.80938e-40
44	0x8000b6af	-6.5535e-41
45	0x000211a4	1.89999e-40
46	0x800050cd	-2.8986e-41
47	0x0002255b	1.97072e-40
48	0x8000ed0b	-8.5035e-41
49	0x8001caa4	-1.64529e-40
50	0x0000bd90	6.8002e-41
51	0x80010775	-9.451e-41
52	0x0000a285	5.8301e-41
53	0x00025520	2.14208e-40
54	0x00023825	2.03812e-40
55	0x8001087c	-9.4879e-41
56	0x00011de9	1.02565e-40
57	0x0001b32d	1.56112e-40
58	0x80007e7f	-4.5378e-41
59	0x00002734	1.4063e-41
60	0x00004edf	2.8294e-41
61	0x0000e535	8.2224e-41
62	0x8000e542	-8.2242e-41
63	0x0002b911	2.5006e-40
64	0x800010d5	-6.038e-42
65	0x00013c13	1.13386e-40
66	0x80016349	-1.27452e-40
67	0x0001f56c	1.79876e-40
68	0x80013166	-1.09556e-40
69	0x000158b8	1.23662e-40
70	0x80014362	-1.16008e-40
71	0x8001895e	-1.41114e-40
72	0x8000a3c5	-5.875e-41
73	0x0001d082	1.66634e-40
74	0x00022ded	2.00146e-40
75	0x00020427	1.8516e-40
76	0x0001f65d	1.80214e-40
77	0x800144a3	-1.16458e-40
78	0x8001e464	-1.73767e-40
79	0x00018733	1.40336e-40
80	0x8000eb34	-8.4375e-41
81	0x0000a687	5.9739e-41
82	0x00027e3f	2.2896e-40
83	0x000015a9	7.77e-42
84	0x00014d02	1.1946e-40
85	0x0000a028	5.7453e-41
86	0x8002c6a0	-2.54924e-40
87	0x80005da6	-3.3595e-41
88	0x80014462	-1.16367e-40
89	0x000079c3	4.368e-41
90	0x0000e3a9	8.1669e-41
91	0x80007f77	-4.5726e-41
92	0x80007215	-4.0925e-41
93	0x80022540	-1.97034e-40
94	0x8000cce7	-7.3505e-41
95	0x80000ff7	-5.727e-42
96	0x8000ad04	-6.2066e-41
97	0x000080d9	4.6222e-41
98	0x80007118	-4.057e-41
99	0x80019dd8	-1.48459e-40
100	0x0000b608	6.53e-41
101	0x00008665	4.8212e-41
102	0x80020c67	-1.8812e-40
103	0x00006fee	4.0153e-41
104	0x8001343d	-1.10575e-40
105	0x80015b39	-1.2456e-40
106	0x00018c84	1.42243e-40
107	0x0001f15f	1.78423e-40
108	0x00000d39	4.743e-42
109	0x80012092	-1.0352e-40
110	0x0000da06	7.8212e-41
111	0x0000752c	4.2033e-41
112	0x0000cbdf	7.3135e-41
113	0x000074f3	4.1953e-41
114	0x000191e4	1.44171e-40
115	0x000034bd	1.8919e-41
116	0x000223da	1.96532e-40
117	0x80007bba	-4.4385e-41
118	0x00011408	9.9021e-41
119	0x8002fbc9	-2.73994e-40
120	0x8001dccb	-1.71041e-40
121	0x00017186	1.3256e-40
122	0x80007759	-4.2814e-41
123	0x000081f2	4.6616e-41
124	0x8000fb8c	-9.0238e-41
125	0x80008a7a	-4.9676e-41
126	0x0000d1bd	7.524e-41
127	0x0000a50d	5.9209e-41
128	0x8001d6af	-1.6885e-40
129	0x800044ef	-2.4729e-41
130	0x8001a2c5	-1.50226e-40
131	0x000041cf	2.3608e-41
132	0x80020af5	-1.87602e-40
133	0x0001bcef	1.59612e-40
134	0x800154e7	-1.22293e-40
135	0x8001fb03	-1.81882e-40
136	0x80006ba5	-3.8616e-41
137	0x8000c27c	-6.9768e-41
138	0x80001f71	-1.1279e-41
139	0x80019d4c	-1.48263e-40
140	0x00017bc6	1.36237e-40
141	0x80012409	-1.04762e-40
142	0x0000b54e	6.504e-41
143	0x0001b0e8	1.55298e-40
144	0x80004e9f	-2.8204e-41
145	0x800011f1	-6.436e-42
146	0x80010c65	-9.6282e-41
147	0x00002579	1.3443e-41
148	0x8002eabc	-2.67878e-40
149	0x00005c85	3.319e-41
150	0x00006cba	3.9004e-41
151	0x000137e0	1.1188e-40
152	0x000332a2	2.9367e-40
153	0x0002e722	2.66586e-40
154	0x00001a57	9.449e-42
155	0x00008a0a	4.9519e-41
156	0x00010517	9.3661e-41
157	0x00016cb2	1.30828e-40
158	0x8000d55a	-7.6536e-41
159	0x800171fb	-1.32724e-40
160	0x8001527a	-1.21423e-40
161	0x80006bcb	-3.8669e-41
162	0x000169a5	1.29734e-40
163	0x80003294	-1.8144e-41
164	0x80007d97	-4.5053e-41
165	0x8000f73c	-8.8691e-41
166	0x80013fce	-1.14724e-40
167	0x00019909	1.46734e-40
168	0x000063e4	3.5834e-41
169	0x00027ff1	2.29568e-40
170	0x000137d9	1.1187e-40
171	0x80020ea3	-1.88922e-40
172	0x00023591	2.02887e-40
173	0x8001723b	-1.32814e-40
174	0x00011c98	1.02093e-40
175	0x8000fe1a	-9.1154e-41
176	0x8001632e	-1.27414e-40
177	0x000196d9	1.4595e-40
178	0x00014823	1.17713e-40
179	0x80027236	-2.24642e-40
180	0x0001ebbd	1.76402e-40
181	0x00006be6	3.8707e-41
182	0x80001b1f	-9.729e-42
183	0x00005170	2.9214e-41
184	0x0001dea3	1.71703e-40
185	0x800162c2	-1.27263e-40
186	0x00014e35	1.19891e-40
187	0x80001798	-8.464e-42
188	0x00016924	1.29553e-40
189	0x000244cc	2.0835e-40
190	0x8001e960	-1.75555e-40
191	0x80011041	-9.7666e-41
192	0x800077b4	-4.2941e-41
193	0x8000d26f	-7.549e-41
194	0x80009a20	-5.529e-41
195	0x00007787	4.2878e-41
196	0x0003185f	2.84249e-40
197	0x0002c10d	2.52925e-40
198	0x80011712	-1.00112e-40
199	0x80016b4d	-1.30328e-40
200	0x0000606e	3.4592e-41
201	0x00018b32	1.4177e-40
202	0x800249d0	-2.1015e-40
203	0x80008c91	-5.0426e-41
204	0x80011eca	-1.0288e-40
205	0x00012ff2	1.09035e-40
206	0x8001a424	-1.50718e-40
207	0x00019efc	1.48868e-40
208	0x000066d3	3.6886e-41
209	0x80011290	-9.8494e-41
210	0x8000ed35	-8.5094e-41
211	0x00023318	2.02e-40
212	0x00015aac	1.24362e-40
213	0x80008a41	-4.9596e-41
214	0x80013cb1	-1.13607e-40
215	0x000164d4	1.28006e-40
216	0x800159a4	-1.23992e-40
217	0x80035a3c	-3.07876e-40
218	0x80020905	-1.86907e-40
219	0x80004668	-2.5257e-41
220	0x800046f2	-2.545e-41
221	0x800007df	-2.824e-42
222	0x0001c807	1.63592e-40
223	0x800198fa	-1.46713e-40
224	0x800064fb	-3.6225e-41
225	0x000014b5	7.428e-42
226	0x0001dbe0	1.70712e-40
227	0x00015553	1.22444e-40
228	0x80002df0	-1.6479e-41
229	0x8000caf7	-7.281e-41
230	0x00007e86	4.5388e-41
231	0x8001fb6a	-1.82026e-40
232	0x00019fae	1.49118e-40
233	0x800105e9	-9.3956e-41
234	0x000039f8	2.0795e-41
235	0x0001bfa7	1.60587e-40
236	0x8002b834	-2.4975e-40
237	0x0000a190	5.7958e-41
238	0x8000b289	-6.4046e-41
239	0x0001ca84	1.64484e-40
240	0x0000fece	9.1407e-41
241	0x8001c6e0	-1.63178e-40
242	0x800082a4	-4.6865e-41
243	0x800052d3	-2.9712e-41
244	0x8000e25d	-8.1204e-41
245	0x80024cf0	-2.11271e-40
246	0x0001467f	1.17125e-40
247	0x0001773f	1.34613e-40
248	0x0002bd48	2.51572e-40
249	0x80011e54	-1.02715e-40
250	0x80011429	-9.9068e-41
251	0x80012897	-1.06396e-40
252	0x8001226e	-1.04187e-40
253	0x80006366	-3.5657e-41
254	0x00026566	2.20046e-40
255	0x000096fa	5.416e-41

fcs1.bias f4 [256]
0	0x00010ab5	9.5676e-41
1	0x00009c6a	5.6111e-41
2	0x8000c209	-6.9607e-41
3	0x800131bb	-1.09675e-40
4	0x8000db9f	-7.8785e-41
5	0x00009902	5.4889e-41
6	0x8000f421	-8.7577e-41
7	0x80004a23	-2.6595e-41
8	0x00004aa5	2.6777e-41
9	0x00010d02	9.6502e-41
10	0x0001d788	1.69154e-40
11	0x80017da5	-1.36908e-40
12	0x80020f47	-1.89151e-40
13	0x800125c0	-1.05378e-40
14	0x8000848d	-4.755e-41
15	0x800107be	-9.4613e-41
16	0x00019adf	1.47393e-40
17	0x00023893	2.03966e-40
18	0x00003980	2.0627e-41
19	0x80010d7c	-9.6673e-41
20	0x80002749	-1.4093e-41
21	0x8000ef02	-8.574e-41
22	0x80003ae7	-2.113e-41
23	0x8000362b	-1.9432e-41
24	0x00000b80	4.125e-42
25	0x00004166	2.346e-41
26	0x00001e18	1.0796e-41
27	0x00018d5d	1.42547e-40
28	0x0000f8d3	8.9261e-41
29	0x00011bc0	1.0179e-40
30	0x800108d9	-9.501e-41
31	0x8001df84	-1.72018e-40
32	0x0000366d	1.9524e-41
33	0x80006b29	-3.8442e-41
34	0x80006836	-3.7384e-41
35	0x80002790	-1.4192e-41
36	0x80011aa1	-1.01388e-40
37	0x8000b707	-6.5658e-41
38	0x8001a34c	-1.50415e-40
39	0x80000cd9	-4.609e-42
40	0x00009c13	5.5989e-41
41	0x80013a0f	-1.12663e-40
42	0x80003ec9	-2.2523e-41
43	0x80011697	-9.9939e-41
44	0x000000b1	2.48e-43
45	0x00005f6b	3.423e-41
46	0x00013c7e	1.13536e-40
47	0x80012c33	-1.07691e-40
48	0x00008fa6	5.1531e-41
49	0x80013a70	-1.12799e-40
50	0x0001277c	1.06e-40
51	0x000110db	9.7882e-41
52	0x800178c4	-1.35158e-40
53	0x80003137	-1.7655e-41
54	0x8000fb57	-9.0164e-41
55	0x8000329f	-1.816e-41
56	0x8000a5e7	-5.9515e-41
57	0x00007917	4.3439e-41
58	0x00010477	9.3437e-41
59	0x8000f6f4	-8.859e-41
60	0x8000cc2c	-7.3243e-41
61	0x80010532	-9.3699e-41
62	0x8000f826	-8.9019e-41
63	0x00019541	1.45378e-40
64	0x80007b56	-4.4245e-41
65	0x0000f187	8.6644e-41
66	0x80008f49	-5.1401e-41
67	0x8000248e	-1.3113e-41
68	0x00024a6a	2.10366e-40
69	0x80022539	-1.97024e-40
70	0x8000090d	-3.247e-42
71	0x0000eb56	8.4423e-41
72	0x000197ec	1.46335e-40
73	0x0000bba0	6.7307e-41
74	0x80013f2e	-1.145e-40
75	0x0000ac71	6.186e-41
76	0x80008c8b	-5.0417e-41
77	0x800110e1	-9.789e-41
78	0x0000c1a3	6.9464e-41
79	0x80012a98	-1.07115e-40
80	0x80026570	-2.2006e-40
81	0x00022fba	2.00792e-40
82	0x0000f122	8.6502e-41
83	0x8000b875	-6.6171e-41
84	0x0000fae8	9.0008e-41
85	0x0001aa8f	1.5302e-40
86	0x80005f66	-3.4223e-41
87	0x80000549	-1.896e-42
88	0x80000402	-1.438e-42
89	0x00008bb4	5.0116e-41
90	0x0000e60d	8.2527e-41
91	0x0000decc	7.9924e-41
92	0x00003934	2.052e-41
93	0x0000701b	4.0216e-41
94	0x00005224	2.9467e-41
95	0x00004469	2.4541e-41
96	0x00004f0c	2.8357e-41
97	0x00014daf	1.19703e-40
98	0x800071ac	-4.0778e-41
99	0x80019ca7	-1.48032e-40
100	0x8000c3c3	-7.0226e-41
101	0x8001e8a5	-1.75293e-40
102	0x8000a844	-6.0362e-41
103	0x0000e520	8.2195e-41
104	0x0000290a	1.4722e-41
105	0x8000909f	-5.188e-41
106	0x00007749	4.2791e-41
107	0x00001ad5	9.626e-42
108	0x80003346	-1.8393e-41
109	0x80004ddb	-2.7929e-41
110	0x80017b99	-1.36174e-40
111	0x8001300e	-1.09074e-40
112	0x0002f984	2.7318e-40
113	0x8002aa33	-2.44727e-40
114	0x80021a65	-1.9314e-40
115	0x00004bab	2.7145e-41
116	0x0000f526	8.7943e-41
117	0x0000959d	5.3671e-41
118	0x80024e50	-2.11764e-40
119	0x00006498	3.6086e-41
120	0x8001e3b9	-1.73527e-40
121	0x000089c5	4.9422e-41
122	0x8000d010	-7.4639e-41
123	0x000083e0	4.7308e-41
124	0x00027976	2.27243e-40
125	0x8001dcfb	-1.71108e-40
126	0x00013b2e	1.13065e-40
127	0x8000145a	-7.301e-42
128	0x0002275a	1.97788e-40
129	0x0000712b	4.0597e-41
130	0x0000bd0c	6.7817e-41
131	0x800233a4	-2.02196e-40
132	0x0000781d	4.3089e-41
133	0x800151df	-1.21205e-40
134	0x0000ab76	6.1509e-41
135	0x80007dbb	-4.5104e-41
136	0x00011795	1.00295e-40
137	0x00010a72	9.5583e-41
138	0x000040b6	2.3214e-41
139	0x00010fb4	9.7469e-41
140	0x00015d07	1.25207e-40
141	0x000042ef	2.4011e-41
142	0x00020d50	1.88447e-40
143	0x80011e84	-1.02782e-40
144	0x0000fa40	8.9773e-41
145	0x800103f5	-9.3255e-41
146	0x800080d8	-4.622e-41
147	0x8000b028	-6.3193e-41
148	0x000238ac	2.04001e-40
149	0x8001c481	-1.62328e-40
150	0x80008633	-4.8142e-41
151	0x80021639	-1.91643e-40
152	0x8001ded3	-1.7177e-40
153	0x800089be	-4.9413e-41
154	0x8000acf5	-6.2045e-41
155	0x00021e56	1.94553e-40
156	0x0000c3c2	7.0225e-41
157	0x00003771	1.9889e-41
158	0x0001175d	1.00217e-40
159	0x00017f99	1.37609e-40
160	0x00006ee7	3.9784e-41
161	0x8000160d	-7.91e-42
162	0x00011365	9.8793e-41
163	0x000107d0	9.4638e-41
164	0x8000bab0	-6.6971e-41
165	0x80005c37	-3.308e-41
166	0x80007f47	-4.5659e-41
167	0x80007838	-4.3126e-41
168	0x000098b7	5.4784e-41
169	0x8000fdd4	-9.1056e-41
170	0x00013c0b	1.13375e-40
171	0x8001ea7f	-1.75957e-40
172	0x80012a66	-1.07045e-40
173	0x8000e837	-8.3303e-41
174	0x0000f562	8.8027e-41
175	0x800018d2	-8.904e-42
176	0x00019a43	1.47174e-40
177	0x8001446d	-1.16382e-40
178	0x00005312	2.98e-41
179	0x0001ea4b	1.75884e-40
180	0x80020c0e	-1.87995e-40
181	0x80000d40	-4.753e-42
182	0x00008c25	5.0274e-41
183	0x800034f9	-1.9003e-41
184	0x0000deda	7.9944e-41
185	0x0000f79c	8.8826e-41
186	0x800016cd	-8.18e-42
187	0x80001833	-8.681e-42
188	0x0001925a	1.44337e-40
189	0x8001d899	-1.69536e-40
190	0x80023b86	-2.05024e-40
191	0x8001488a	-1.17858e-40
192	0x00019786	1.46192e-40
193	0x8001fb8a	-1.82071e-40
194	0x0000e1d7	8.1016e-41
195	0x80006fc8	-4.01e-41
196	0x80011069	-9.7722e-41
197	0x800097f1	-5.4506e-41
198	0x0000523f	2.9504e-41
199	0x8001928b	-1.44405e-40
200	0x80002c17	-1.5816e-41
201	0x80020a10	-1.87281e-40
202	0x0000b2df	6.4167e-41
203	0x00014f01	1.20177e-40
204	0x8000cf15	-7.4287e-41
205	0x0001b065	1.55114e-40
206	0x000035bd	1.9278e-41
207	0x8000f29a	-8.7029e-41
208	0x80001159	-6.223e-42
209	0x8000d570	-7.6567e-41
210	0x000071fa	4.0887e-41
211	0x00020935	1.86974e-40
212	0x8000d3a0	-7.5917e-41
213	0x0000ee13	8.5405e-41
214	0x0000cd04	7.3546e-41
215	0x0001451b	1.16626e-40
216	0x000192d0	1.44502e-40
217	0x0000550a	3.0506e-41
218	0x8000aec8	-6.27e-41
219	0x80001acc	-9.613e-42
220	0x800191c6	-1.44129e-40
221	0x80002343	-1.265e-41
222	0x00010336	9.2987e-41
223	0x0001298d	1.06741e-40
224	0x00006898	3.7521e-41
225	0x80010002	-9.1838e-41
226	0x80008457	-4.7475e-41
227	0x800119b9	-1.01063e-40
228	0x80006eee	-3.9794e-41
229	0x80003973	-2.0609e-41
230	0x0001586b	1.23554e-40
231	0x0000fe7f	9.1296e-41
232	0x0000d290	7.5536e-41
233	0x80028670	-2.31898e-40
234	0x0000906f	5.1813e-41
235	0x00021f7e	1.94968e-40
236	0x0000f35b	8.73e-41
237	0x80014353	-1.15987e-40
238	0x00011a58	1.01286e-40
239	0x0000bedf	6.8472e-41
240	0x8000dcc5	-7.9197e-41
241	0x0000f74f	8.8718e-41
242	0x0001db4b	1.70503e-40
243	0x0000604f	3.4549e-41
244	0x800129de	-1.06855e-40
245	0x00010bac	9.6023e-41
246	0x8001f2f9	-1.78998e-40
247	0x00002cfb	1.6136e-41
248	0x0000ddab	7.952e-41
249	0x00005be7	3.2968e-41
250	0x8000037b	-1.249e-42
251	0x8001bce5	-1.59598e-40
252	0x000015bd	7.798e-42
253	0x0000b24f	6.3965e-41
254	0x0000c57a	7.0841e-41
255	0x80007cf0	-4.4819e-41

bn1.weight f4 [256]
0	0x00007a13	4.3792e-41
1	0x000013f2	7.155e-42
2	0x80007123	-4.0586e-41
3	0x22f14adb	6.5402437e-18
4	0x80008f7a	-5.147e-41
5	0x8000ff95	-9.1686e-41
6	0x800096d3	-5.4106e-41
7	0x80013464	-1.1063e-40
8	0x00009696	5.402e-41
9	0x0000c857	7.1868e-41
10	0x0000675a	3.7076e-41
11	0x0000bcac	6.7683e-41
12	0x80009e07	-5.669e-41
13	0x00008026	4.5971e-41
14	0x8000ab83	-6.1527e-41
15	0x00000dd9	4.968e-42
16	0x00022b2c	1.99158e-40
17	0x8000e917	-8.3617e-41
18	0x00000832	2.94e-42
19	0x00004c2d	2.7327e-41
20	0x80007cc4	-4.4757e-41
21	0x19c513eb	2.0377367e-23
22	0x0a6defb6	1.14562195e-32
23	0x00007093	4.0384e-41
24	0x00007b70	4.4281e-41
25	0x00007c6c	4.4634e-41
26	0x0002b598	2.48815e-40
27	0x8002139a	-1.90703e-40
28	0x00005345	2.9871e-41
29	0x000013a7	7.05e-42
30	0x15a6fc55	6.7444976e-26
31	0x80008caf	-5.0468e-41
32	0x00002657	1.3754e-41
33	0x0000147d	7.35e-42
34	0x0000bdcc	6.8086e-41
35	0x00003123	1.7627e-41
36	0x2411f95b	3.1653075e-17
37	0x00009f96	5.7249e-41
38	0x22776563	3.3528416e-18
39	0x19075998	6.99743e-24
40	0x16006f7a	1.0374933e-25
41	0x0000454a	2.4856e-41
42	0x0000cf53	7.4374e-41
43	0x1462aa5b	1.1443681e-26
44	0x800072e1	-4.1211e-41
45	0x8000bf53	-6.8634e-41
46	0x00000579	1.963e-42
47	0x8000c58f	-7.087e-41
48	0x0000cc4b	7.3287e-41
49	0x1d1d4846	2.0816141e-21
50	0x122a2d33	5.3698254e-28
51	0x0000ce64	7.4039e-41
52	0x80003a52	-2.0921e-41
53	0x00001dc6	1.068e-41
54	0x22fc782f	6.8431986e-18
55	0x00006d56	3.9222e-41
56	0x80004c40	-2.7353e-41
57	0x0d0eb63e	4.3976494e-31
58	0x8747f80d	-1.5043992e-34
59	0x00009b00	5.5604e-41
60	0x8000142e	-7.239e-42
61	0x8000642c	-3.5935e-41
62	0x00013d34	1.13791e-40
63	0x8000c843	-7.184e-41
64	0x0000a2a8	5.835e-41
65	0x80000804	-2.875e-42
66	0x00003c5d	2.1654e-41
67	0x8403b0bf	-1.5480134e-36
68	0x8000240c	-1.2931e-41
69	0x1ae03105	9.2723424e-23
70	0x8000adb1	-6.2309e-41
71	0x12478780	6.2960345e-28
72	0x8000c108	-6.9247e-41
73	0x800050d2	-2.8993e-41
74	0x800005f5	-2.137e-42
75	0x0000aabd	6.125e-41
76	0x80005cea	-3.3331e-41
77	0x800138b6	-1.1218e-40
78	0x251a31be	1.3374224e-16
79	0x211b437c	5.260536e-19
80	0x23aa4894	1.8462175e-17
81	0x0000b74f	6.5759e-41
82	0x26937cfd	1.0234052e-15
83	0x0000b865	6.6148e-41
84	0x1e486427	1.0608623e-20
85	0x00006f37	3.9896e-41
86	0x800099af	-5.5131e-41
87	0x000035c6	1.929e-41
88	0x1ff31c08	1.0296088e-19
89	0x205310bf	1.7877936e-19
90	0x1b12a85a	1.2131234e-22
91	0x80001af3	-9.668e-42
92	0x000f37b6	1.397518e-39
93	0x800231f0	-2.01585e-40
94	0x0000689c	3.7527e-41
95	0x000114a4	9.924e-41
96	0x8000106f	-5.895e-42
97	0x80010ad8	-9.5726e-41
98	0x00003d72	2.2042e-41
99	0x8000234a	-1.266e-41
100	0x0000d044	7.4712e-41
101	0x8000e57e	-8.2326e-41
102	0x8000f273	-8.6974e-41
103	0x00001565	7.675e-42
104	0x1acc4500	8.44839e-23
105	0x00004961	2.6323e-41
106	0x80006b18	-3.8418e-41
107	0x80002ae2	-1.5383e-41
108	0x000044a3	2.4622e-41
109	0x1535e219	3.673102e-26
110	0x80000ecc	-5.308e-42
111	0x00006a2a	3.8084e-41
112	0x0000d006	7.4625e-41
113	0x80007c12	-4.4508e-41
114	0x00008ca6	5.0455e-41
115	0x012194b5	2.9677722e-38
116	0x203e06e8	1.6095911e-19
117	0x856865d8	-1.0927293e-35
118	0x24cb9ea4	8.8305964e-17
119	0x23a54434	1.7918221e-17
120	0x8001d08f	-1.66652e-40
121	0x80002d72	-1.6303e-41
122	0x2087b2aa	2.298812e-19
123	0x8000de5b	-7.9766e-41
124	0x00005bce	3.2933e-41
125	0x8002359b	-2.02901e-40
126	0x1a04584f	2.7368295e-23
127	0x84a9e2cd	-3.9939993e-36
128	0x00002b15	1.5455e-41
129	0x00006946	3.7765e-41
130	0x80006397	-3.5726e-41
131	0x000031b7	1.7834e-41
132	0x1356f376	2.7130633e-27
133	0x800129f8	-1.06891e-40
134	0x80004936	-2.6263e-41
135	0x1e1955ba	8.11748e-21
136	0x0001262c	1.05529e-40
137	0x800132c6	-1.1005e-40
138	0x80005440	-3.0223e-41
139	0x24d28f7d	9.131606e-17
140	0x8000af16	-6.2809e-41
141	0x0000e80b	8.3241e-41
142	0x00001936	9.044e-42
143	0x80006773	-3.711e-41
144	0x8000850f	-4.7732e-41
145	0x12fe8187	1.6061585e-27
146	0x0000c574	7.0833e-41
147	0x800237ac	-2.03642e-40
148	0x00007ed7	4.5502e-41
149	0x0000298f	1.4908e-41
150	0x00006b4c	3.8491e-41
151	0x800049cb	-2.6472e-41
152	0x0000834d	4.7102e-41
153	0x80004d30	-2.769e-41
154	0x80007cb0	-4.473e-41
155	0x00008d3d	5.0667e-41
156	0x80007222	-4.0943e-41
157	0x17201946	5.173069e-25
158	0x00011553	9.9485e-41
159	0x80029f05	-2.40716e-40
160	0x00005c77	3.317e-41
161	0x8000c101	-6.9237e-41
162	0x2297b34a	4.111846e-18
163	0x000028cf	1.464e-41
164	0x80012696	-1.05678e-40
165	0x00011b19	1.01556e-40
166	0x0000f3c0	8.7441e-41
167	0x8000c54e	-7.078e-41
168	0x00001b4b	9.791e-42
169	0x8000a25a	-5.8241e-41
170	0x800035a8	-1.9248e-41
171	0x208ece4c	2.4192252e-19
172	0x21c860d6	1.3578159e-18
173	0x0000b6dc	6.5598e-41
174	0x000073fd	4.1609e-41
175	0x80000439	-1.515e-42
176	0x0000cd42	7.3633e-41
177	0x000048b1	2.6077e-41
178	0x0002a581	2.43043e-40
179	0x80000c52	-4.42e-42
180	0x0000091b	3.266e-42
181	0x875924fc	-1.6336134e-34
182	0x00001132	6.169e-42
183	0x80003e45	-2.2338e-41
184	0x00006574	3.6395e-41
185	0x00000fea	5.709e-42
186	0x1491c8a4	1.4720397e-26
187	0x00007c34	4.4556e-41
188	0x80004158	-2.3441e-41
189	0x80008e91	-5.1143e-41
190	0x8000b82f	-6.6073e-41
191	0x8000adb0	-6.2307e-41
192	0x00000985	3.415e-42
193	0x0000cbbd	7.3088e-41
194	0x8000d36c	-7.5844e-41
195	0x8000a74e	-6.0018e-41
196	0x80009865	-5.4669e-41
197	0x000028e5	1.467e-41
198	0x12fdd2e6	1.6018535e-27
199	0x0000b2f7	6.42e-41
200	0x00009b46	5.5702e-41
201	0x8000deea	-7.9966e-41
202	0x0000a8be	6.0533e-41
203	0x0000e4c9	8.2073e-41
204	0x00009b5d	5.5734e-41
205	0x16b3922b	2.9011255e-25
206	0x8000ec26	-8.4714e-41
207	0x1a8a7791	5.726863e-23
208	0x84212d15	-1.894616e-36
209	0x261df507	5.480239e-16
210	0x00002960	1.4843e-41
211	0x0000b905	6.6373e-41
212	0x80002189	-1.203e-41
213	0x0000044f	1.546e-42
214	0x000a1705	9.26613e-40
215	0x800036d5	-1.967e-41
216	0x200892ea	1.1568258e-19
217	0x800001df	-6.71e-43
218	0x80005bb1	-3.2893e-41
219	0x8000ff4b	-9.1582e-41
220	0x8000ca4f	-7.2575e-41
221	0x1c9d6051	1.0414286e-21
222	0x0000bd09	6.7813e-41
223	0x00007b09	4.4137e-41
224	0x00005981	3.2108e-41
225	0x000052d0	2.9708e-41
226	0x8000f1e8	-8.678e-41
227	0x80006ac8	-3.8306e-41
228	0x8000c1a2	-6.9462e-41
229	0x26842c59	9.17136e-16
230	0x8000a3e0	-5.8787e-41
231	0x800006aa	-2.39e-42
232	0x0000831d	4.7035e-41
233	0x2715aca5	2.0771495e-15
234	0x0000d054	7.4734e-41
235	0x83aca01f	-1.0146013e-36
236	0x000079a4	4.3636e-41
237	0x00002212	1.2222e-41
238	0x0000192b	9.029e-42
239	0x1b1034cc	1.192846e-22
240	0x24d2b1ea	9.137438e-17
241	0x80009bdd	-5.5913e-41
242	0x0000cfe2	7.4574e-41
243	0x80005684	-3.1036e-41
244	0x8000b589	-6.5123e-41
245	0x0000445b	2.4521e-41
246	0x800105d6	-9.3929e-41
247	0x80010996	-9.5274e-41
248	0x800160d8	-1.26576e-40
249	0x80006fd2	-4.0114e-41
250	0x259ea80b	2.75225e-16
251	0x00003ed9	2.2545e-41
252	0x0000d819	7.7521e-41
253	0x000016ac	8.133e-42
254	0x0000d064	7.4756e-41
255	0x241a9f81	3.3528532e-17

bn1.bias f4 [256]
0	0x80023098	-2.01103e-40
1	0x00034ff6	3.04191e-40
2	0x8000cdb2	-7.379e-41
3	0x0001e0d9	1.72496e-40
4	0x0002a3cd	2.42432e-40
5	0x8002cf12	-2.57954e-40
6	0x0000c4b6	7.0567e-41
7	0x8002166a	-1.91712e-40
8	0x0000abf8	6.1691e-41
9	0x8002babe	-2.50661e-40
10	0x80022aa0	-1.98962e-40
11	0x00029ef3	2.40691e-40
12	0x00013123	1.09462e-40
13	0x80030edf	-2.80841e-40
14	0x80033a27	-2.96368e-40
15	0x8000e248	-8.1174e-41
16	0x00031aa7	2.85068e-40
17	0x8002615e	-2.186e-40
18	0x0000e788	8.3058e-41
19	0x0001d763	1.69102e-40
20	0x000319e5	2.84796e-40
21	0x0002699e	2.2156e-40
22	0x80011f65	-1.03098e-40
23	0x0003b9f7	3.42218e-40
24	0x0001c865	1.63724e-40
25	0x80030cba	-2.80072e-40
26	0x80011a32	-1.01233e-40
27	0x000006d3	2.448e-42
28	0x80039974	-3.30555e-40
29	0x0002628b	2.19022e-40
30	0x0002f313	2.7087e-40
31	0x00027806	2.26727e-40
32	0x8002ec47	-2.68431e-40
33	0x8000ae72	-6.2579e-41
34	0x8001a091	-1.49436e-40
35	0x8001e6dd	-1.74654e-40
36	0x800046a7	-2.5345e-41
37	0x0001a699	1.516e-40
38	0x8003047f	-2.7712e-40
39	0x8001ebe9	-1.76464e-40
40	0x0000a9f2	6.0965e-41
41	0x00033dc5	2.97665e-40
42	0x0000f34c	8.7278e-41
43	0x800231f6	-2.01594e-40
44	0x80021c05	-1.93723e-40
45	0x800210f2	-1.8975e-40
46	0x000102e8	9.2878e-41
47	0x0001ed86	1.77043e-40
48	0x80027a12	-2.27462e-40
49	0x00010563	9.3768e-41
50	0x0000dfc6	8.0275e-41
51	0x00021e38	1.94511e-40
52	0x800129c5	-1.0682e-40
53	0x0001104d	9.7683e-41
54	0x80032bff	-2.9129e-40
55	0x00022e2e	2.00237e-40
56	0x80021ef0	-1.94769e-40
57	0x0002ff38	2.75226e-40
58	0x0002f8da	2.72942e-40
59	0x8000f7b6	-8.8862e-41
60	0x8002f4aa	-2.7144e-40
61	0x8002c92c	-2.55838e-40
62	0x0002360f	2.03064e-40
63	0x0001eff8	1.7792e-40
64	0x0000dad1	7.8497e-41
65	0x00022ed6	2.00473e-40
66	0x0001b068	1.55118e-40
67	0x8002b54d	-2.4871e-40
68	0x8002e8d3	-2.67193e-40
69	0x800327ef	-2.89832e-40
70	0x8002ffe9	-2.75474e-40
71	0x80022915	-1.98408e-40
72	0x80021ba8	-1.93592e-40
73	0x80011d42	-1.02331e-40
74	0x80024274	-2.0751e-40
75	0x800005fe	-2.15e-42
76	0x00000593	2e-42
77	0x00022ae3	1.99056e-40
78	0x00021341	1.90578e-40
79	0x8002629e	-2.19048e-40
80	0x0000ff60	9.1611e-41
81	0x000224fa	1.96936e-40
82	0x8001e0db	-1.72498e-40
83	0x000183cf	1.3912e-40
84	0x8001c618	-1.62898e-40
85	0x80024335	-2.0778e-40
86	0x0001b4bc	1.56671e-40
87	0x000100fa	9.2186e-41
88	0x80020e89	-1.88885e-40
89	0x800304d2	-2.77236e-40
90	0x0002bee5	2.52151e-40
91	0x80023e46	-2.0601e-40
92	0x00002186	1.2026e-41
93	0x0000fa94	8.989e-41
94	0x8000d8f8	-7.7834e-41
95	0x0002423a	2.07429e-40
96	0x800317f2	-2.84096e-40
97	0x80027931	-2.27146e-40
98	0x80020e1b	-1.88731e-40
99	0x0000fd99	9.0974e-41
100	0x8001227c	-1.04206e-40
101	0x000249d1	2.10151e-40
102	0x0001d493	1.68093e-40
103	0x0002c23f	2.53353e-40
104	0x00010114	9.2222e-41
105	0x00020afd	1.87613e-40
106	0x800219f2	-1.92978e-40
107	0x80021290	-1.9033e-40
108	0x8000c82a	-7.1805e-41
109	0x00008093	4.6124e-41
110	0x8000ac79	-6.1872e-41
111	0x8000c9d6	-7.2405e-41
112	0x8002ff80	-2.75327e-40
113	0x00020f8b	1.89247e-40
114	0x80021e84	-1.94618e-40
115	0x00032fc8	2.92647e-40
116	0x8001a2f8	-1.50298e-40
117	0x000100ec	9.2166e-41
118	0x0001ac55	1.53657e-40
119	0x80021f08	-1.94803e-40
120	0x80009d01	-5.6322e-41
121	0x8002691d	-2.21379e-40
122	0x8001fbb2	-1.82127e-40
123	0x0001e6a3	1.74572e-40
124	0x8000d481	-7.6232e-41
125	0x000254c4	2.14079e-40
126	0x00030d94	2.80377e-40
127	0x00012208	1.04044e-40
128	0x000336c7	2.95157e-40
129	0x80034a59	-3.02177e-40
130	0x00026971	2.21496e-40
131	0x0000f366	8.7315e-41
132	0x800334f9	-2.9451e-40
133	0x0002cbd5	2.56792e-40
134	0x80010301	-9.2913e-41
135	0x8000fbb2	-9.0291e-41
136	0x8002c07e	-2.52724e-40
137	0x00011fb9	1.03215e-40
138	0x80025a02	-2.1596e-40
139	0x00024b35	2.1065e-40
140	0x8000fe95	-9.1327e-41
141	0x000239a9	2.04356e-40
142	0x8001b2ac	-1.55931e-40
143	0x80010e82	-9.704e-41
144	0x8002f64f	-2.7203e-40
145	0x00009efe	5.7036e-41
146	0x80010101	-9.2196e-41
147	0x0000d2f1	7.5672e-41
148	0x80011d1f	-1.02282e-40
149	0x0001eb70	1.76295e-40
150	0x8003179d	-2.83977e-40
151	0x00019aff	1.47438e-40
152	0x000248d0	2.09791e-40
153	0x800274e3	-2.25602e-40
154	0x00035832	3.07145e-40
155	0x80021e4f	-1.94544e-40
156	0x00010f63	9.7355e-41
157	0x800332e3	-2.93761e-40
158	0x8000eb85	-8.4488e-41
159	0x0002c630	2.54767e-40
160	0x8002bdb0	-2.51718e-40
161	0x00010543	9.3723e-41
162	0x00034ed9	3.03792e-40
163	0x8002da9c	-2.62093e-40
164	0x8000fb91	-9.0245e-41
165	0x0003508b	3.044e-40
166	0x80023195	-2.01458e-40
167	0x000118bc	1.00709e-40
168	0x0000fe76	9.1283e-41
169	0x000217a8	1.92157e-40
170	0x000304c2	2.77213e-40
171	0x00028885	2.32645e-40
172	0x8002d319	-2.59399e-40
173	0x0002b973	2.50198e-40
174	0x800271a0	-2.24432e-40
175	0x80027753	-2.26476e-40
176	0x800151c0	-1.21162e-40
177	0x8001ee37	-1.77291e-40
178	0x0002f9c7	2.73274e-40
179	0x000120c0	1.03584e-40
180	0x00023003	2.00894e-40
181	0x0000c4da	7.0617e-41
182	0x0000d29d	7.5554e-41
183	0x80021c35	-1.9379e-40
184	0x8002b705	-2.49326e-40
185	0x00027c27	2.28208e-40
186	0x0000f1df	8.6767e-41
187	0x80031319	-2.82357e-40
188	0x0000fd7c	9.0933e-41
189	0x80030fca	-2.8117e-40
190	0x800123a1	-1.04617e-40
191	0x80023b2d	-2.04899e-40
192	0x8000f971	-8.9483e-41
193	0x0000d120	7.502e-41
194	0x8002cc19	-2.56887e-40
195	0x80022ac9	-1.9902e-40
196	0x0001168c	9.9924e-41
197	0x00002790	1.4192e-41
198	0x8001d7bc	-1.69226e-40
199	0x0001a446	1.50766e-40
200	0x0001f096	1.78141e-40
201	0x80021e86	-1.94621e-40
202	0x0003b91d	3.41913e-40
203	0x8000eebd	-8.5643e-41
204	0x0000a8a6	6.05e-41
205	0x0000b3e5	6.4534e-41
206	0x800355ab	-3.06238e-40
207	0x0000e90e	8.3604e-41
208	0x0000fb9d	9.0262e-41
209	0x80022a3e	-1.98825e-40
210	0x0001e471	1.73785e-40
211	0x80025e47	-2.17491e-40
212	0x8002607e	-2.18286e-40
213	0x8001deab	-1.71714e-40
214	0x8000c9f9	-7.2454e-41
215	0x8002ac33	-2.45444e-40
216	0x8002e783	-2.66722e-40
217	0x800333df	-2.94114e-40
218	0x0001de84	1.71659e-40
219	0x800200f3	-1.84012e-40
220	0x8002e99c	-2.67474e-40
221	0x80020273	-1.8455e-40
222	0x8001f4a7	-1.796e-40
223	0x8000e929	-8.3642e-41
224	0x80032baf	-2.91177e-40
225	0x0000aa8a	6.1178e-41
226	0x0003393b	2.96037e-40
227	0x8000c3ed	-7.0285e-41
228	0x0000d078	7.4784e-41
229	0x8002e634	-2.66252e-40
230	0x0002f108	2.70137e-40
231	0x0002cbd2	2.56788e-40
232	0x000011ed	6.43e-42
233	0x0000a5f5	5.9534e-41
234	0x0001af0f	1.54635e-40
235	0x8001a9c9	-1.52743e-40
236	0x0000d1eb	7.5304e-41
237	0x8001ba14	-1.58588e-40
238	0x00021770	1.92079e-40
239	0x00011f7e	1.03133e-40
240	0x800193ec	-1.449e-40
241	0x8000c721	-7.1434e-41
242	0x8001dcfc	-1.7111e-40
243	0x8000d54e	-7.652e-41
244	0x8000dfe2	-8.0314e-41
245	0x80024ffe	-2.12367e-40
246	0x80020f29	-1.8911e-40
247	0x80020d68	-1.8848e-40
248	0x0002018c	1.84226e-40
249	0x0001adcd	1.54183e-40
250	0x00039154	3.2764e-40
251	0x0001b081	1.55153e-40
252	0x80024326	-2.0776e-40
253	0x800192bb	-1.44472e-40
254	0x80024bb2	-2.10825e-40
255	0x000180e0	1.38067e-40

bn1.running_mean f4 [256]
0	0x0014025f	1.83756e-39
1	0x0016d7e1	2.097824e-39
2	0x0014960e	1.89054e-39
3	0x0008c992	8.06994e-40
4	0x0019ca31	2.36842e-39
5	0x0017380c	2.132322e-39
6	0x000f1489	1.384899e-39
7	0x0010f409	1.556911e-39
8	0x001b73cc	2.521098e-39
9	0x0014f104	1.92317e-39
10	0x001451d0	1.866059e-39
11	0x000c5a79	1.134481e-39
12	0x000c0958	1.105378e-39
13	0x0016585f	2.052082e-39
14	0x0011cf22	1.635509e-39
15	0x000f2a79	1.392769e-39
16	0x00167e1a	2.065618e-39
17	0x001c8864	2.620322e-39
18	0x001828d6	2.218701e-39
19	0x0021112c	3.036731e-39
20	0x000f7b8c	1.421853e-39
21	0x000db5ba	1.259053e-39
22	0x000e2a93	1.30097e-39
23	0x0012b633	1.7184e-39
24	0x000b1468	1.017511e-39
25	0x0012c745	1.724523e-39
26	0x0022070e	3.124938e-39
27	0x001bd0a2	2.554402e-39
28	0x00165d35	2.053817e-39
29	0x000dfca8	1.284497e-39
30	0x0014be32	1.904939e-39
31	0x000fc524	1.448253e-39
32	0x001d3e0b	2.685486e-39
33	0x00190436	2.297398e-39
34	0x0016fa59	2.110189e-39
35	0x00271523	3.589167e-39
36	0x000e6b12	1.324107e-39
37	0x0020d98b	3.016776e-39
38	0x000eb197	1.349404e-39
39	0x000c29d1	1.117027e-39
40	0x0016d948	2.098327e-39
41	0x00158277	1.975347e-39
42	0x001de0b0	2.743832e-39
43	0x0009c6ee	8.97882e-40
44	0x0013c2e1	1.814784e-39
45	0x0011817f	1.607658e-39
46	0x001c6ce0	2.610451e-39
47	0x0018a9eb	2.265007e-39
48	0x00120457	1.654596e-39
49	0x000ce09b	1.182599e-39
50	0x0012a102	1.710798e-39
51	0x000f8116	1.42384e-39
52	0x0011d2bb	1.636799e-39
53	0x00137aa5	1.788871e-39
54	0x00105d27	1.502785e-39
55	0x000ecf4a	1.360058e-39
56	0x00162853	2.034847e-39
57	0x000bc518	1.080894e-39
58	0x0012f62d	1.74135e-39
59	0x001f600e	2.881358e-39
60	0x0025dd66	3.477336e-39
61	0x000dfafb	1.283896e-39
62	0x000c3df7	1.124255e-39
63	0x000a8b5a	9.68345e-40
64	0x000f67a5	1.414713e-39
65	0x0011106c	1.567094e-39
66	0x001e6f09	2.794897e-39
67	0x00066345	5.86624e-40
68	0x001040d3	1.492622e-39
69	0x000dbeb3	1.262271e-39
70	0x0019b104	2.359389e-39
71	0x00135c0f	1.777899e-39
72	0x0016008e	2.02058e-39
73	0x00135b4b	1.777624e-39
74	0x001a7027	2.427956e-39
75	0x000aedcc	1.00366e-39
76	0x00131ca5	1.75515e-39
77	0x0015c671	1.999733e-39
78	0x001148a1	1.587258e-39
79	0x0011e760	1.644205e-39
80	0x0009515f	8.5571e-40
81	0x001926c7	2.309798e-39
82	0x0011ab52	1.622662e-39
83	0x000bfd8c	1.101146e-39
84	0x000a35e5	9.37689e-40
85	0x0014bb6f	1.903948e-39
86	0x001b4ee1	2.507855e-39
87	0x0016588e	2.052148e-39
88	0x000bbf94	1.078916e-39
89	0x000c2318	1.114615e-39
90	0x00118a25	1.61076e-39
91	0x002747df	3.607367e-39
92	0x001115ad	1.568979e-39
93	0x0014e8fd	1.92029e-39
94	0x0011e86e	1.644583e-39
95	0x0013c16c	1.814261e-39
96	0x000b9d3e	1.066598e-39
97	0x001f68ca	2.884492e-39
98	0x000af6af	1.006848e-39
99	0x002405ae	3.308115e-39
100	0x001cc4e8	2.64203e-39
101	0x00198419	2.343275e-39
102	0x001d98b3	2.718008e-39
103	0x0012560c	1.683907e-39
104	0x00112e11	1.577729e-39
105	0x000fbb68	1.444761e-39
106	0x0014a073	1.894268e-39
107	0x001d9199	2.71546e-39
108	0x00158bb6	1.978664e-39
109	0x00110ef3	1.566566e-39
110	0x00108bcf	1.519522e-39
111	0x0014ea39	1.920733e-39
112	0x000b9344	1.06302e-39
113	0x0017c4f1	2.182866e-39
114	0x0010ea41	1.553402e-39
115	0x001b2f3e	2.496506e-39
116	0x000a4b66	9.45403e-40
117	0x00173519	2.131264e-39
118	0x0009923e	8.78981e-40
119	0x001340a7	1.768067e-39
120	0x0029b5b4	3.830438e-39
121	0x002460dc	3.340824e-39
122	0x000ee1a7	1.366646e-39
123	0x001e6934	2.792805e-39
124	0x000c4471	1.126578e-39
125	0x00236e65	3.253844e-39
126	0x000e9ef9	1.342726e-39
127	0x0013d930	1.822787e-39
128	0x000b2f4e	1.02716e-39
129	0x0016b289	2.084427e-39
130	0x000fd519	1.453977e-39
131	0x00146fac	1.87677e-39
132	0x001e0b6c	2.759162e-39
133	0x001e035d	2.756271e-39
134	0x0013ab53	1.806334e-39
135	0x000aa4c2	9.77459e-40
136	0x002020de	2.950526e-39
137	0x0017a3d5	2.170988e-39
138	0x001ccc1e	2.644617e-39
139	0x000dfa0d	1.283563e-39
140	0x00189342	2.256878e-39
141	0x001ebf1e	2.823625e-39
142	0x0019da62	2.374228e-39
143	0x0014b3d6	1.901223e-39
144	0x000de81d	1.277128e-39
145	0x000c3e9c	1.124486e-39
146	0x001e6a30	2.793158e-39
147	0x00133e61	1.767252e-39
148	0x001d7cc7	2.707991e-39
149	0x00164965	2.04671e-39
150	0x001b172d	2.487872e-39
151	0x000e6385	1.321398e-39
152	0x0012aac1	1.714294e-39
153	0x0011197d	1.570347e-39
154	0x00191799	2.304353e-39
155	0x001670aa	2.060797e-39
156	0x00297c3b	3.809821e-39
157	0x0014a7cc	1.896904e-39
158	0x001c744a	2.61311e-39
159	0x001abcf5	2.455508e-39
160	0x001a732f	2.429043e-39
161	0x001daef7	2.725995e-39
162	0x000b3878	1.030448e-39
163	0x00155091	1.957447e-39
164	0x00164e25	2.048414e-39
165	0x001c3d91	2.59348e-39
166	0x000fd462	1.453721e-39
167	0x000e2782	1.29987e-39
168	0x000ca24a	1.160244e-39
169	0x000d7d88	1.238894e-39
170	0x001d0a27	2.666871e-39
171	0x001006d2	1.471815e-39
172	0x0010ac9b	1.531287e-39
173	0x001f97b6	2.901324e-39
174	0x001d0d35	2.667967e-39
175	0x001bb51e	2.544531e-39
176	0x00141d39	1.847193e-39
177	0x0021ac75	3.092437e-39
178	0x0013ad59	1.80706e-39
179	0x0023739f	3.25572e-39
180	0x001931aa	2.313704e-39
181	0x000a13df	9.25483e-40
182	0x000f982f	1.432126e-39
183	0x001a7d6d	2.432717e-39
184	0x00126964	1.690846e-39
185	0x000d698f	1.231729e-39
186	0x000c823d	1.148747e-39
187	0x001c09e8	2.574948e-39
188	0x000c9be6	1.157952e-39
189	0x00264da4	3.517601e-39
190	0x000d0b6b	1.197957e-39
191	0x0013ed10	1.829916e-39
192	0x001faecb	2.909604e-39
193	0x00238d11	3.264847e-39
194	0x001a8d6a	2.438453e-39
195	0x00221b87	3.132282e-39
196	0x000e605c	1.320264e-39
197	0x00174e50	2.14031e-39
198	0x000b4f63	1.038669e-39
199	0x0010282c	1.483779e-39
200	0x002b5188	3.978174e-39
201	0x00105d7a	1.502901e-39
202	0x000f9f10	1.434593e-39
203	0x000eee78	1.371243e-39
204	0x0018747d	2.24584e-39
205	0x0009be42	8.94771e-40
206	0x0016bfeb	2.089228e-39
207	0x000cd7be	1.17942e-39
208	0x00112f70	1.578221e-39
209	0x000cef8c	1.187959e-39
210	0x001ca4d1	2.630519e-39
211	0x000af9ca	1.007962e-39
212	0x00139947	1.79986e-39
213	0x001289c5	1.702461e-39
214	0x001ca2aa	2.629747e-39
215	0x00154d68	1.956314e-39
216	0x0011a861	1.621606e-39
217	0x00129919	1.70796e-39
218	0x0018fbdb	2.2944e-39
219	0x00137731	1.787632e-39
220	0x00203613	2.958134e-39
221	0x000db461	1.258569e-39
222	0x00193542	2.314993e-39
223	0x000892d9	7.87363e-40
224	0x00169178	2.072565e-39
225	0x0019b75f	2.361669e-39
226	0x00128bd1	1.703196e-39
227	0x0015788f	1.971794e-39
228	0x000f8e75	1.428636e-39
229	0x000771ab	6.83625e-40
230	0x0012b511	1.717993e-39
231	0x001bf4b0	2.567336e-39
232	0x0016e07b	2.10091e-39
233	0x0008c4f7	8.05342e-40
234	0x0022035e	3.123615e-39
235	0x001279f9	1.696794e-39
236	0x00095340	8.56384e-40
237	0x001106a2	1.563583e-39
238	0x001a24b6	2.400892e-39
239	0x000c12ee	1.108817e-39
240	0x000fab24	1.438926e-39
241	0x000fe5e1	1.459997e-39
242	0x002060eb	2.973503e-39
243	0x000cc16d	1.171414e-39
244	0x00158a62	1.978188e-39
245	0x001c11db	2.577799e-39
246	0x0014469e	1.862043e-39
247	0x0016e2bd	2.101719e-39
248	0x0024b94e	3.372553e-39
249	0x00154938	1.954811e-39
250	0x000bbba6	1.077506e-39
251	0x000fef22	1.463317e-39
252	0x001c2f2b	2.588315e-39
253	0x001a7a77	2.431655e-39
254	0x001d12ff	2.670044e-39
255	0x00072b1f	6.58317e-40

bn1.running_var f4 [256]
0	0x00000004	6e-45
1	0x00000004	6e-45
2	0x00000004	6e-45
3	0x00000004	6e-45
4	0x00000004	6e-45
5	0x00000004	6e-45
6	0x00000004	6e-45
7	0x00000004	6e-45
8	0x00000004	6e-45
9	0x00000004	6e-45
10	0x00000004	6e-45
11	0x00000004	6e-45
12	0x00000004	6e-45
13	0x00000004	6e-45
14	0x00000004	6e-45
15	0x00000004	6e-45
16	0x00000004	6e-45
17	0x00000004	6e-45
18	0x00000004	6e-45
19	0x00000004	6e-45
20	0x00000004	6e-45
21	0x00000004	6e-45
22	0x00000004	6e-45
23	0x00000004	6e-45
24	0x00000004	6e-45
25	0x00000004	6e-45
26	0x00000004	6e-45
27	0x00000004	6e-45
28	0x00000004	6e-45
29	0x00000004	6e-45
30	0x00000004	6e-45
31	0x00000004	6e-45
32	0x00000004	6e-45
33	0x00000004	6e-45
34	0x00000004	6e-45
35	0x00000004	6e-45
36	0x00000004	6e-45
37	0x00000004	6e-45
38	0x00000004	6e-45
39	0x00000004	6e-45
40	0x00000004	6e-45
41	0x00000004	6e-45
42	0x00000004	6e-45
43	0x00000004	6e-45
44	0x00000004	6e-45
45	0x00000004	6e-45
46	0x00000004	6e-45
47	0x00000004	6e-45
48	0x00000004	6e-45
49	0x00000004	6e-45
50	0x00000004	6e-45
51	0x00000004	6e-45
52	0x00000004	6e-45
53	0x00000004	6e-45
54	0x00000004	6e-45
55	0x00000004	6e-45
56	0x00000004	6e-45
57	0x00000004	6e-45
58	0x00000004	6e-45
59	0x00000004	6e-45
60	0x00000004	6e-45
61	0x00000004	6e-45
62	0x00000004	6e-45
63	0x00000004	6e-45
64	0x00000004	6e-45
65	0x00000004	6e-45
66	0x00000004	6e-45
67	0x00000004	6e-45
68	0x00000004	6e-45
69	0x00000004	6e-45
70	0x00000004	6e-45
71	0x00000004	6e-45
72	0x00000004	6e-45
73	0x00000004	6e-45
74	0x00000004	6e-45
75	0x00000004	6e-45
76	0x00000004	6e-45
77	0x00000004	6e-45
78	0x00000004	6e-45
79	0x00000004	6e-45
80	0x00000004	6e-45
81	0x00000004	6e-45
82	0x00000004	6e-45
83	0x00000004	6e-45
84	0x00000004	6e-45
85	0x00000004	6e-45
86	0x00000004	6e-45
87	0x00000004	6e-45
88	0x00000004	6e-45
89	0x00000004	6e-45
90	0x00000004	6e-45
91	0x00000004	6e-45
92	0x00000004	6e-45
93	0x00000004	6e-45
94	0x00000004	6e-45
95	0x00000004	6e-45
96	0x00000004	6e-45
97	0x00000004	6e-45
98	0x00000004	6e-45
99	0x00000004	6e-45
100	0x00000004	6e-45
101	0x00000004	6e-45
102	0x00000004	6e-45
103	0x00000004	6e-45
104	0x00000004	6e-45
105	0x00000004	6e-45
106	0x00000004	6e-45
107	0x00000004	6e-45
108	0x00000004	6e-45
109	0x00000004	6e-45
110	0x00000004	6e-45
111	0x00000004	6e-45
112	0x00000004	6e-45
113	0x00000004	6e-45
114	0x00000004	6e-45
115	0x00000004	6e-45
116	0x00000004	6e-45
117	0x00000004	6e-45
118	0x00000004	6e-45
119	0x00000004	6e-45
120	0x00000004	6e-45
121	0x00000004	6e-45
122	0x00000004	6e-45
123	0x00000004	6e-45
124	0x00000004	6e-45
125	0x00000004	6e-45
126	0x00000004	6e-45
127	0x00000004	6e-45
128	0x00000004	6e-45
129	0x00000004	6e-45
130	0x00000004	6e-45
131	0x00000004	6e-45
132	0x00000004	6e-45
133	0x00000004	6e-45
134	0x00000004	6e-45
135	0x00000004	6e-45
136	0x00000004	6e-45
137	0x00000004	6e-45
138	0x00000004	6e-45
139	0x00000004	6e-45
140	0x00000004	6e-45
141	0x00000004	6e-45
142	0x00000004	6e-45
143	0x00000004	6e-45
144	0x00000004	6e-45
145	0x00000004	6e-45
146	0x00000004	6e-45
147	0x00000004	6e-45
148	0x00000004	6e-45
149	0x00000004	6e-45
150	0x00000004	6e-45
151	0x00000004	6e-45
152	0x00000004	6e-45
153	0x00000004	6e-45
154	0x00000004	6e-45
155	0x00000004	6e-45
156	0x00000004	6e-45
157	0x00000004	6e-45
158	0x00000004	6e-45
159	0x00000004	6e-45
160	0x00000004	6e-45
161	0x00000004	6e-45
162	0x00000004	6e-45
163	0x00000004	6e-45
164	0x00000004	6e-45
165	0x00000004	6e-45
166	0x00000004	6e-45
167	0x00000004	6e-45
168	0x00000004	6e-45
169	0x00000004	6e-45
170	0x00000004	6e-45
171	0x00000004	6e-45
172	0x00000004	6e-45
173	0x00000004	6e-45
174	0x00000004	6e-45
175	0x00000004	6e-45
176	0x00000004	6e-45
177	0x00000004	6e-45
178	0x00000004	6e-45
179	0x00000004	6e-45
180	0x00000004	6e-45
181	0x00000004	6e-45
182	0x00000004	6e-45
183	0x00000004	6e-45
184	0x00000004	6e-45
185	0x00000004	6e-45
186	0x00000004	6e-45
187	0x00000004	6e-45
188	0x00000004	6e-45
189	0x00000004	6e-45
190	0x00000004	6e-45
191	0x00000004	6e-45
192	0x00000004	6e-45
193	0x00000004	6e-45
194	0x00000004	6e-45
195	0x00000004	6e-45
196	0x00000004	6e-45
197	0x00000004	6e-45
198	0x00000004	6e-45
199	0x00000004	6e-45
200	0x00000004	6e-45
201	0x00000004	6e-45
202	0x00000004	6e-45
203	0x00000004	6e-45
204	0x00000004	6e-45
205	0x00000004	6e-45
206	0x00000004	6e-45
207	0x00000004	6e-45
208	0x00000004	6e-45
209	0x00000004	6e-45
210	0x00000004	6e-45
211	0x00000004	6e-45
212	0x00000004	6e-45
213	0x00000004	6e-45
214	0x00000004	6e-45
215	0x00000004	6e-45
216	0x00000004	6e-45
217	0x00000004	6e-45
218	0x00000004	6e-45
219	0x00000004	6e-45
220	0x00000004	6e-45
221	0x00000004	6e-45
222	0x00000004	6e-45
223	0x00000004	6e-45
224	0x00000004	6e-45
225	0x00000004	6e-45
226	0x00000004	6e-45
227	0x00000004	6e-45
228	0x00000004	6e-45
229	0x00000004	6e-45
230	0x00000004	6e-45
231	0x00000004	6e-45
232	0x00000004	6e-45
233	0x00000004	6e-45
234	0x00000004	6e-45
235	0x00000004	6e-45
236	0x00000004	6e-45
237	0x00000004	6e-45
238	0x00000004	6e-45
239	0x00000004	6e-45
240	0x00000004	6e-45
241	0x00000004	6e-45
242	0x00000004	6e-45
243	0x00000004	6e-45
244	0x00000004	6e-45
245	0x00000004	6e-45
246	0x00000004	6e-45
247	0x00000004	6e-45
248	0x00000004	6e-45
249	0x00000004	6e-45
250	0x00000004	6e-45
251	0x00000004	6e-45
252	0x00000004	6e-45
253	0x00000004	6e-45
254	0x00000004	6e-45
255	0x00000004	6e-45

fc2.weight f4 [128, 260]
0	0x8001cf26	-1.66146e-40
1	0x8002a7bc	-2.43843e-40
2	0x00012faa	1.08934e-40
3	0x800068ca	-3.7591e-41
4	0x8000719a	-4.0753e-41
5	0x00025f32	2.1782e-40
6	0x0000f27b	8.6986e-41
7	0x8001156a	-9.9517e-41
8	0x8001cd9f	-1.65598e-40
9	0x800067cc	-3.7235e-41
10	0x80018053	-1.3787e-40
11	0x8000894f	-4.9257e-41
12	0x8001ebf6	-1.76482e-40
13	0x00025c3f	2.16763e-40
14	0x800150cc	-1.2082e-40
15	0x00008380	4.7173e-41
16	0x80026fee	-2.23824e-40
17	0x8000d8fa	-7.7837e-41
18	0x8001d34c	-1.67635e-40
19	0x000085f9	4.806e-41
20	0x800295bd	-2.37387e-40
21	0x00004103	2.3322e-41
22	0x00006398	3.5728e-41
23	0x8000549b	-3.0351e-41
24	0x0001dc0b	1.70772e-40
25	0x0000cc15	7.3211e-41
26	0x800133ba	-1.10391e-40
27	0x800130a7	-1.09289e-40
28	0x00008ed3	5.1236e-41
29	0x8002dfd5	-2.63967e-40
30	0x0000a004	5.7403e-41
31	0x800206d4	-1.8612e-40
32	0x00006372	3.5674e-41
33	0x0000753c	4.2056e-41
34	0x0000cadc	7.2772e-41
35	0x8001d43e	-1.67974e-40
36	0x000049f7	2.6534e-41
37	0x80006f97	-4.0031e-41
38	0x0001144d	9.9118e-41
39	0x0001ee1b	1.77252e-40
40	0x0000324b	1.8042e-41
41	0x00005ba2	3.2872e-41
42	0x0001d91a	1.69717e-40
43	0x000127a1	1.06052e-40
44	0x00001204	6.463e-42
45	0x80014821	-1.1771e-40
46	0x00007b6a	4.4273e-41
47	0x0000cf5a	7.4384e-41
48	0x0001639f	1.27573e-40
49	0x8000e9b6	-8.384e-41
50	0x8002e9c5	-2.67532e-40
51	0x00006495	3.6082e-41
52	0x00019207	1.4422e-40
53	0x80016917	-1.29535e-40
54	0x80010f59	-9.7341e-41
55	0x00008549	4.7814e-41
56	0x00031232	2.82034e-40
57	0x0002010d	1.84048e-40
58	0x0001fd66	1.82738e-40
59	0x8002351e	-2.02726e-40
60	0x80012f72	-1.08856e-40
61	0x80011f57	-1.03078e-40
62	0x000166c8	1.28706e-40
63	0x00014b92	1.18945e-40
64	0x800187b6	-1.4052e-40
65	0x00031403	2.82685e-40
66	0x80027d62	-2.2865e-40
67	0x800098b8	-5.4785e-41
68	0x00001ce8	1.037e-41
69	0x8000a0fc	-5.775e-41
70	0x800117df	-1.00399e-40
71	0x80021708	-1.91933e-40
72	0x00007c6b	4.4633e-41
73	0x8000c0fa	-6.9227e-41
74	0x8000e4ab	-8.203e-41
75	0x00005990	3.2129e-41
76	0x0000ee7c	8.5552e-41
77	0x80001310	-6.838e-42
78	0x000114d8	9.9313e-41
79	0x00016222	1.27039e-40
80	0x80013dba	-1.13979e-40
81	0x0001cadb	1.64606e-40
82	0x000213db	1.90794e-40
83	0x0001ea6b	1.75929e-40
84	0x0000ae1d	6.246e-41
85	0x8000b8f9	-6.6356e-41
86	0x80018acb	-1.41625e-40
87	0x000143f4	1.16212e-40
88	0x80012a93	-1.07108e-40
89	0x8001440d	-1.16248e-40
90	0x0002ce6f	2.57725e-40
91	0x0000dc32	7.8991e-41
92	0x00002100	1.1838e-41
93	0x80004edb	-2.8288e-41
94	0x8002e538	-2.65899e-40
95	0x0001faf8	1.81866e-40
96	0x0000b721	6.5694e-41
97	0x8000426b	-2.3826e-41
98	0x00011eac	1.02838e-40
99	0x800243fb	-2.08058e-40
100	0x8001b1ac	-1.55572e-40
101	0x800316a5	-2.8363e-40
102	0x0001cf7b	1.66265e-40
103	0x800104fe	-9.3626e-41
104	0x0001044e	9.338e-41
105	0x00017517	1.3384e-40
106	0x80017ab5	-1.35854e-40
107	0x80011f60	-1.03091e-40
108	0x00010dfa	9.685e-41
109	0x0002190c	1.92656e-40
110	0x000196ac	1.45886e-40
111	0x8000acee	-6.2035e-41
112	0x00021cd2	1.9401e-40
113	0x8000d146	-7.5073e-41
114	0x0000021e	7.6e-43
115	0x0001380e	1.11944e-40
116	0x000230a7	2.01124e-40
117	0x8000c81c	-7.1786e-41
118	0x8002a63f	-2.43309e-40
119	0x00013f26	1.14489e-40
120	0x0000f943	8.9418e-41
121	0x00012ecc	1.08623e-40
122	0x8001d654	-1.68722e-40
123	0x8002153f	-1.91293e-40
124	0x8000937e	-5.291e-41
125	0x0000a5ce	5.948e-41
126	0x80015635	-1.22761e-40
127	0x80021fc0	-1.95061e-40
128	0x8000bf58	-6.8641e-41
129	0x800374de	-3.1743e-40
130	0x000078c4	4.3323e-41
131	0x800112c1	-9.8563e-41
132	0x8001f0fb	-1.78283e-40
133	0x80008162	-4.6414e-41
134	0x0001082f	9.4771e-41
135	0x80016b58	-1.30343e-40
136	0x8000cfc9	-7.4539e-41
137	0x8000c874	-7.1909e-41
138	0x8002f9fd	-2.7335e-40
139	0x0001cdd4	1.65673e-40
140	0x0001c3e5	1.62109e-40
141	0x8000622c	-3.5217e-41
142	0x00006ec4	3.9735e-41
143	0x00000582	1.976e-42
144	0x0000c254	6.9712e-41
145	0x8000e927	-8.364e-41
146	0x8001473f	-1.17394e-40
147	0x8002a8cc	-2.44224e-40
148	0x0001a6cf	1.51675e-40
149	0x0000397f	2.0626e-41
150	0x800131f7	-1.0976e-40
151	0x00014eb9	1.20076e-40
152	0x0000f6b0	8.8495e-41
153	0x0000d2e4	7.5653e-41
154	0x0002014d	1.84138e-40
155	0x00003909	2.046e-41
156	0x00006eb7	3.9717e-41
157	0x800145ca	-1.16871e-40
158	0x8001ad95	-1.54105e-40
159	0x000073df	4.1567e-41
160	0x800098c0	-5.4796e-41
161	0x00003f1f	2.2644e-41
162	0x80004bde	-2.7216e-41
163	0x80014e3c	-1.19901e-40
164	0x0000a918	6.066e-41
165	0x000143e3	1.16189e-40
166	0x8001a390	-1.5051e-40
167	0x00009697	5.4021e-41
168	0x80015369	-1.21757e-40
169	0x8002260d	-1.97321e-40
170	0x0002e3a9	2.6534e-40
171	0x0002964c	2.37587e-40
172	0x0000dc36	7.8997e-41
173	0x00012d14	1.08006e-40
174	0x80005509	-3.0505e-41
175	0x80009a30	-5.5312e-41
176	0x8000c637	-7.1106e-41
177	0x000047cc	2.5756e-41
178	0x000045a9	2.499e-41
179	0x000025a7	1.3507e-41
180	0x00009074	5.182e-41
181	0x000060c6	3.4716e-41
182	0x0000ef2f	8.5803e-41
183	0x000002f4	1.06e-42
184	0x800139c5	-1.12559e-40
185	0x0000d0d8	7.4919e-41
186	0x000151a7	1.21127e-40
187	0x0000b926	6.6419e-41
188	0x8002144d	-1.90954e-40
189	0x00016c5c	1.30708e-40
190	0x0002580c	2.15256e-40
191	0x00025733	2.14952e-40
192	0x80021717	-1.91954e-40
193	0x00011f6c	1.03108e-40
194	0x800108b3	-9.4956e-41
195	0x80002f50	-1.6973e-41
196	0x800023b8	-1.2813e-41
197	0x80001c6d	-1.0197e-41
198	0x0000be74	6.8322e-41
199	0x0000981d	5.4568e-41
200	0x8001203c	-1.03399e-40
201	0x80006545	-3.6329e-41
202	0x000115cf	9.9659e-41
203	0x0001f8c3	1.81074e-40
204	0x0000970c	5.4185e-41
205	0x0001708a	1.32207e-40
206	0x8001002e	-9.19e-41
207	0x0000b4cb	6.4856e-41
208	0x8001740d	-1.33467e-40
209	0x0000526d	2.9569e-41
210	0x0000e5fe	8.2506e-41
211	0x800132e5	-1.10093e-40
212	0x0000b612	6.5315e-41
213	0x0000f010	8.6118e-41
214	0x0000cbc9	7.3104e-41
215	0x0000823f	4.6723e-41
216	0x0001ad4a	1.54e-40
217	0x80020ff6	-1.89397e-40
218	0x8000a9b8	-6.0884e-41
219	0x80010992	-9.5269e-41
220	0x80017b9a	-1.36175e-40
221	0x0000abe4	6.1663e-41
222	0x80004524	-2.4803e-41
223	0x000001d9	6.63e-43
224	0x0003423a	2.99264e-40
225	0x00003d27	2.1937e-41
226	0x0000a90c	6.0643e-41
227	0x000207d0	1.86474e-40
228	0x0001648b	1.27904e-40
229	0x800240ef	-2.06965e-40
230	0x00018a8f	1.41541e-40
231	0x8002427c	-2.07521e-40
232	0x80024600	-2.08782e-40
233	0x8000b567	-6.5075e-41
234	0x800079ce	-4.3695e-41
235	0x8001dac6	-1.70317e-40
236	0x8000dc2b	-7.8981e-41
237	0x00001ee8	1.1087e-41
238	0x80012f93	-1.08902e-40
239	0x0001f7c9	1.80724e-40
240	0x0001169b	9.9945e-41
241	0x80002085	-1.1666e-41
242	0x00012ddc	1.08287e-40
243	0x0000e347	8.1532e-41
244	0x8001a812	-1.52128e-40
245	0x0001f63e	1.8017e-40
246	0x80011a60	-1.01297e-40
247	0x80019e75	-1.48679e-40
248	0x00006e80	3.964e-41
249	0x00002296	1.2407e-41
250	0x8000d599	-7.6624e-41
251	0x8000d937	-7.7922e-41
252	0x8002b8cd	-2.49965e-40
253	0x80006320	-3.556e-41
254	0x80002ff4	-1.7202e-41
255	0x8001fb87	-1.82067e-40

fc2.bias f4 [128]
0	0x000087f8	4.8776e-41
1	0x0001c72e	1.63288e-40
2	0x00014071	1.14953e-40
3	0x80007f57	-4.5681e-41
4	0x0000b571	6.5089e-41
5	0x000248e6	2.09822e-40
6	0x0000f480	8.771e-41
7	0x80010149	-9.2297e-41
8	0x00030e45	2.80625e-40
9	0x80022517	-1.96976e-40
10	0x00009807	5.4537e-41
11	0x80006241	-3.5247e-41
12	0x000027ff	1.4348e-41
13	0x0000b441	6.4663e-41
14	0x8001673b	-1.28868e-40
15	0x000076ef	4.2665e-41
16	0x0000cc8d	7.3379e-41
17	0x800146f6	-1.17291e-40
18	0x00005b40	3.2734e-41
19	0x800045e8	-2.5078e-41
20	0x80000d78	-4.832e-42
21	0x0001a924	1.52512e-40
22	0x80013a37	-1.12719e-40
23	0x8000842c	-4.7414e-41
24	0x0000dac7	7.8483e-41
25	0x00007552	4.2087e-41
26	0x0001007a	9.2006e-41
27	0x80000bd3	-4.242e-42
28	0x0000c89b	7.1964e-41
29	0x8000f797	-8.8819e-41
30	0x800037dd	-2.004e-41
31	0x800016ad	-8.135e-42
32	0x8001669f	-1.28649e-40
33	0x0002fb0f	2.73734e-40
34	0x80017ee5	-1.37357e-40
35	0x00006eaa	3.9699e-41
36	0x8000e490	-8.1993e-41
37	0x00023a14	2.04505e-40
38	0x00016770	1.28942e-40
39	0x00016e67	1.3144e-40
40	0x8001c297	-1.61641e-40
41	0x8001717d	-1.32547e-40
42	0x80009acc	-5.553e-41
43	0x8001c13e	-1.61158e-40
44	0x00014d9e	1.19679e-40
45	0x800168d2	-1.29438e-40
46	0x80019755	-1.46123e-40
47	0x0000a65f	5.9683e-41
48	0x0000f921	8.937e-41
49	0x00024884	2.09685e-40
50	0x00003145	1.7675e-41
51	0x00022509	1.96957e-40
52	0x0000a754	6.0026e-41
53	0x800173ef	-1.33425e-40
54	0x00014b4b	1.18846e-40
55	0x80017e65	-1.37177e-40
56	0x80011258	-9.8416e-41
57	0x80021db5	-1.94328e-40
58	0x00010acd	9.571e-41
59	0x0000ccd3	7.3477e-41
60	0x000156f6	1.23031e-40
61	0x00012fc2	1.08968e-40
62	0x00002d18	1.6177e-41
63	0x8001275f	-1.05959e-40
64	0x80018062	-1.3789e-40
65	0x000236b4	2.03295e-40
66	0x800145ad	-1.1683e-40
67	0x00021857	1.92402e-40
68	0x8000db41	-7.8653e-41
69	0x0001107e	9.7752e-41
70	0x0000881e	4.883e-41
71	0x80003d2c	-2.1944e-41
72	0x800260cd	-2.18397e-40
73	0x80015b10	-1.24503e-40
74	0x80015a40	-1.24211e-40
75	0x8001ba6c	-1.58711e-40
76	0x8001f10e	-1.7831e-40
77	0x80002c3a	-1.5866e-41
78	0x800238c4	-2.04035e-40
79	0x0000c994	7.2313e-41
80	0x0000c0d1	6.917e-41
81	0x8000194e	-9.078e-42
82	0x800012af	-6.702e-42
83	0x000163a9	1.27587e-40
84	0x0002ff7e	2.75324e-40
85	0x00001c52	1.016e-41
86	0x8000ab40	-6.1433e-41
87	0x80018306	-1.38838e-40
88	0x0003a9bd	3.36397e-40
89	0x80008d53	-5.0698e-41
90	0x80014c28	-1.19155e-40
91	0x000138f6	1.12269e-40
92	0x80009e4c	-5.6786e-41
93	0x8001eaa3	-1.76007e-40
94	0x80016e81	-1.31477e-40
95	0x80016390	-1.27552e-40
96	0x00009186	5.2204e-41
97	0x0000cfd2	7.4552e-41
98	0x0000fec7	9.1397e-41
99	0x0002674f	2.20731e-40
100	0x0002cf95	2.58137e-40
101	0x0000c3bc	7.0216e-41
102	0x00011445	9.9107e-41
103	0x000131f8	1.09761e-40
104	0x000159e2	1.2408e-40
105	0x0002b416	2.48274e-40
106	0x00013f7e	1.14612e-40
107	0x00013327	1.10185e-40
108	0x00033439	2.9424e-40
109	0x00000aae	3.831e-42
110	0x0001cf34	1.66166e-40
111	0x80012ff0	-1.09032e-40
112	0x00009e8d	5.6877e-41
113	0x800252a9	-2.13324e-40
114	0x0001b4b8	1.56665e-40
115	0x00001b2c	9.747e-42
116	0x000198d2	1.46657e-40
117	0x00011713	1.00113e-40
118	0x0001b8e2	1.58159e-40
119	0x00009f75	5.7202e-41
120	0x80004815	-2.5858e-41
121	0x8000401a	-2.2995e-41
122	0x0001ebd8	1.7644e-40
123	0x0001af8d	1.54811e-40
124	0x800003ab	-1.316e-42
125	0x0000f173	8.6616e-41
126	0x000119d6	1.01104e-40
127	0x8000418d	-2.3515e-41
