final_checkpoint_actor.pth (torch_old, 515978 bytes, 10 tensors)

fc1.weight f4 [400, 33]
0	0xbd907157	-0.07052868
1	0xbe30eccf	-0.17277835
2	0xbe535c10	-0.20640588
3	0xbce7e41d	-0.028307015
4	0xbdbc1072	-0.09182824
5	0x3cd9f224	0.02660472
6	0xbdfd7f15	-0.123777546
7	0x3d10b4e5	0.035328764
8	0x3c945f6f	0.018111913
9	0xbdd0a4fc	-0.10187718
10	0x3c5c3751	0.013440923
11	0xbd8b7da8	-0.068110764
12	0xbd045597	-0.032308187
13	0xbdafa34c	-0.08576068
14	0x3e3833d4	0.17988521
15	0x3e066527	0.13124524
16	0xbd87ab88	-0.06624514
17	0xbebb3cb6	-0.36569756
18	0x3d499f4c	0.049224183
19	0xbdf0f4d0	-0.11765444
20	0x3c674e28	0.014117755
21	0x3b38e162	0.002821051
22	0xbd23d549	-0.039998326
23	0xbd828b6b	-0.06374248
24	0x3d3a0444	0.045414224
25	0xbd135dec	-0.035978243
26	0x3d624937	0.055245604
27	0x3dd66eed	0.10470376
28	0xbbd1684c	-0.006390607
29	0x3d284ce9	0.041088972
30	0xbdc75afb	-0.0973415
31	0xbc3a158c	-0.011357676
32	0x3f1fec55	0.6246999
33	0xbd3c9437	-0.046039786
34	0xba956122	-0.0011396746
35	0xbe8044b5	-0.2505242
36	0xbd5d1594	-0.053975657
37	0xbe8f7847	-0.28021452
38	0x3e854409	0.2602847
39	0x3d8c0479	0.068367906
40	0xbca1789d	-0.019710833
41	0xbdda4537	-0.10657733
42	0xbe0b9891	-0.13632418
43	0x3dd6f846	0.10496573
44	0x3d019d2f	0.031644043
45	0xbc46ae48	-0.012126513
46	0x3d6d44b8	0.057926863
47	0x3d27fd28	0.041012913
48	0x3dca700a	0.09884651
49	0x3e441d75	0.19151862
50	0x3d9e72e7	0.0773676
51	0xbdb0ddda	-0.08636065
52	0x3ec94c6c	0.39316118
53	0x3df4a651	0.11945785
54	0x3d86ae18	0.065761745
55	0xbd551218	-0.05201921
56	0xbd5cdb87	-0.053920295
57	0x3a9a48d8	0.0011770977
58	0xbd4fa06a	-0.050690092
59	0x3d9bc68a	0.07606228
60	0x3e3507fe	0.1767883
61	0xbdd61145	-0.10452513
62	0xbd4b8407	-0.049686458
63	0xbe6c3712	-0.23067883
64	0x3d4a6aa9	0.049418125
65	0xbd424c55	-0.047436077
66	0x3d9f81d7	0.07788437
67	0xbe093608	-0.13399518
68	0xbe0c58e7	-0.13705789
69	0x3e34e4bb	0.17665379
70	0x3e4912a2	0.19636014
71	0xbdf85de7	-0.121272855
72	0x3e28cd96	0.16484675
73	0xbdebf6e1	-0.11521698
74	0x3d47f129	0.048813973
75	0xbb90e1ed	-0.0044214637
76	0x3dd16808	0.102249205
77	0xbdc90057	-0.09814518
78	0xbd3e3764	-0.046439543
79	0x3e32c67b	0.17458527
80	0x3da36f0c	0.07980165
81	0xbc57141f	-0.013127356
82	0xbe065e21	-0.13121845
83	0x3e7f89ed	0.24954958
84	0x3d98bc57	0.07457798
85	0xbe8bc80b	-0.27301058
86	0x3ce386e3	0.02777428
87	0x3d117882	0.035515316
88	0xbd75f44c	-0.060047433
89	0xbc913087	-0.017723335
90	0x3d4e8e4f	0.050428685
91	0xbae29618	-0.0017287163
92	0xbe3b5811	-0.18295313
93	0x3d426928	0.047463566
94	0x3d8d2f6f	0.06893813
95	0x3cd09142	0.02545989
96	0xbd40d18c	-0.04707484
97	0x3cb9aee6	0.022666406
98	0x3de3c030	0.11120641
99	0xbdfbbe38	-0.12292141
100	0xbe4f1c11	-0.2022555
101	0xbdd528e9	-0.104081936
102	0xbde80fde	-0.113311514
103	0xbd486ae3	-0.04893006
104	0x3e3228a7	0.1739832
105	0x3c8a797b	0.01690363
106	0x3c493685	0.012281065
107	0xbd4b2e45	-0.049604673
108	0xbcb2aa9b	-0.021809867
109	0x3ca3fa83	0.020016914
110	0xbb7297c8	-0.0037016738
111	0x3c5cd247	0.013477868
112	0x3e51c2fa	0.20484534
113	0x3e46008a	0.19336143
114	0x3e1acd26	0.1511732
115	0xbc000913	-0.007814663
116	0xbd5fbc49	-0.054622922
117	0x3e1c6504	0.1527291
118	0xbd0d906b	-0.034561556
119	0x3c48b64e	0.012250496
120	0x3ca87011	0.02056125
121	0x3b9f7c40	0.0048671067
122	0x3b9cd9bc	0.004786698
123	0x3d00baff	0.031428333
124	0xbbdd9cdd	-0.0067630843
125	0xbe01a7ff	-0.12661742
126	0x3d55b647	0.052175786
127	0xbd6346aa	-0.055487312
128	0xbd08bbbc	-0.033382162
129	0xbcdc65ed	-0.02690407
130	0xbd0ea7b2	-0.034827895
131	0xbdaf0780	-0.085463524
132	0xbce5c04c	-0.028045796
133	0xbdaf9bf0	-0.085746646
134	0xbdfed17a	-0.12442298
135	0x3dbcb8a8	0.09214908
136	0x3d278604	0.04089929
137	0x3ea3a38e	0.3196072
138	0x3e20e30b	0.1571161
139	0x3c29b7f7	0.010358802
140	0x3c523062	0.012828918
141	0xbd8e2777	-0.06941121
142	0x3b93630b	0.004497891
143	0x3c80c239	0.015717613
144	0x3d3c8778	0.04602763
145	0xbdbafc6a	-0.091301754
146	0x3eda4c68	0.42636418
147	0x3d4909c9	0.049081597
148	0xbcd96c4d	-0.0265409
149	0x3c7b00dd	0.01532003
150	0x3d41f82e	0.047355823
151	0x3ccef690	0.025264055
152	0xbc388fb1	-0.011264727
153	0x3c7466f7	0.014917127
154	0x3b97acf8	0.004628774
155	0xbd6e96e7	-0.05824938
156	0x3ce33a65	0.027737806
157	0x3d2de74a	0.042456903
158	0x3dc8411a	0.09778042
159	0xbe002771	-0.12515046
160	0x3c279aad	0.010229749
161	0xbc578e80	-0.013156533
162	0x3e3c39a0	0.18381357
163	0xbc5b3ef8	-0.013381712
164	0xbeeb6de5	-0.4598228
165	0x3de99391	0.11405099
166	0xbdb7dfbd	-0.089782216
167	0xbe089f56	-0.13342032
168	0xbe3bfb06	-0.18357477
169	0xbe48af05	-0.19598015
170	0xbd0aad79	-0.033856843
171	0xbe4421cd	-0.19153519
172	0xbc759fc2	-0.0149917025
173	0x3ded0a3e	0.11574219
174	0xbe36478b	-0.17800729
175	0x3de4cfd3	0.11172452
176	0x3bfd1a66	0.007724094
177	0xbce4f705	-0.02794982
178	0xbd5568a7	-0.052101757
179	0x3ea9f23d	0.33192626
180	0xbd761e4e	-0.060087495
181	0x3e5892ac	0.21149701
182	0xbde054e0	-0.109536886
183	0xbe6998b8	-0.22812164
184	0x3e410b52	0.18851975
185	0xbd8a6172	-0.067568675
186	0x3df83bf4	0.1212081
187	0xbd6072a5	-0.054796834
188	0x3d361e64	0.044462577
189	0x3d26d937	0.040734496
190	0xbdb110e6	-0.08645801
191	0x3d2f2043	0.042755377
192	0x3debf0c1	0.115205295
193	0xbde8b3e7	-0.11362439
194	0xb934db00	-0.00017247722
195	0xbd87497c	-0.06605813
196	0x3c90a0c2	0.01765478
197	0xbb640047	-0.0034790204
198	0x3e22e815	0.15908845
199	0x3deabc9a	0.11461754
200	0x3e453695	0.19259103
201	0x3eceaffa	0.40368634
202	0x3e7f3179	0.24921216
203	0x3c4b7d26	0.012419974
204	0x3e98b141	0.29822734
205	0xbdb12e35	-0.086513914
206	0xbc0e3780	-0.008680224
207	0xbd7e1882	-0.06203509
208	0x3cc592c8	0.024117842
209	0x3d135cdd	0.035977233
210	0x3cb12f57	0.021629019
211	0xbe38523b	-0.18000118
212	0xbd27efa3	-0.04100002
213	0xbd6e4803	-0.058174144
214	0xbc340945	-0.010988538
215	0x3e7253f0	0.23664832
216	0xbe63f253	-0.22260408
217	0xbd91241d	-0.07086966
218	0xbd267a31	-0.040643875
219	0x3d9d826d	0.07690892
220	0xbd81d52f	-0.0633949
221	0xbe0f13cc	-0.13972396
222	0x3b2f4439	0.0026743545
223	0x3b6f1948	0.0036483575
224	0x3da39dae	0.079890594
225	0xbc382bc6	-0.011240905
226	0xbd6e7ed3	-0.058226418
227	0xbc14dce0	-0.009085864
228	0xbd35d98d	-0.044396926
229	0x3d341529	0.043965492
230	0xbe10e736	-0.141507
231	0x3dc1eb8c	0.09468755
232	0x3e62c211	0.22144343
233	0x3d787dda	0.060666896
234	0xbe20ded3	-0.1571
235	0xbe10f2c0	-0.14155102
236	0x3e8f20ec	0.27954805
237	0xbe81172d	-0.25212994
238	0x3d3ef69d	0.046621908
239	0xbddc8c47	-0.10768943
240	0xbd5008df	-0.05078971
241	0x3d24276e	0.040076666
242	0x3d5bcf18	0.053664297
243	0xbc35177c	-0.011052962
244	0xbdf3cddf	-0.11904501
245	0xbe1e7cac	-0.15477246
246	0xbdd493e2	-0.10379769
247	0x3c853eb2	0.016265247
248	0x3e21e685	0.15810592
249	0xbe87626b	-0.26442274
250	0x3e12dac7	0.1434127
251	0x3d2e859d	0.042607892
252	0xbd4135f5	-0.047170598
253	0x3d3dde6a	0.04635469
254	0xba4768c3	-0.0007606858
255	0xbd69b6d6	-0.05705913

fc1.bias f4 [400]
0	0x3d927098	0.07150382
1	0xbe8f47c9	-0.27984455
2	0xbe5fb3cb	-0.2184593
3	0xbc7e878d	-0.0155352475
4	0x3cadf754	0.0212361
5	0x3c894374	0.016755797
6	0x3cadb1f6	0.021203022
7	0x3e36b43f	0.17842196
8	0xbe1ff858	-0.1562208
9	0xbe51835d	-0.20460267
10	0xbe240525	-0.16017587
11	0xbe36dcc2	-0.1785765
12	0x3d78554d	0.060628224
13	0xbe861a85	-0.26192108
14	0x3c1a7443	0.009427133
15	0xbe923d73	-0.28562507
16	0xbebee807	-0.37286398
17	0xbeae2446	-0.3401205
18	0xbe4a0a23	-0.1973043
19	0xbe2d7746	-0.1694003
20	0xbe78e05a	-0.24304333
21	0x3c1f147e	0.009709476
22	0xbd979d92	-0.07403101
23	0x3d1d107f	0.03834581
24	0xbe214356	-0.15748343
25	0xbe953fde	-0.2915029
26	0xbcdc6b50	-0.02690664
27	0xbd0d939d	-0.034564603
28	0xbea21b34	-0.3166138
29	0xbe8015ff	-0.25016782
30	0xbd8e8bb5	-0.06960241
31	0x3d483ea8	0.04888788
32	0xbd93c65b	-0.07215568
33	0xbeb94962	-0.361888
34	0xbdba8dce	-0.09109078
35	0xbeb62893	-0.3557783
36	0x3e429e31	0.19005658
37	0xbdbcbf8c	-0.09216222
38	0xbe12ca8f	-0.14335082
39	0xbe296ec5	-0.16546161
40	0xbe3c0532	-0.18361357
41	0xbe4390db	-0.19098227
42	0xbe26a2c9	-0.16273035
43	0xbd8ce277	-0.06879132
44	0xbd8e4037	-0.06945842
45	0xbe0a5ed6	-0.1351274
46	0xbe0087fc	-0.12551874
47	0xbe14dae1	-0.1453662
48	0xbe99c2cc	-0.3003143
49	0xbdaff1f4	-0.08591071
50	0xbe3f18b1	-0.18661763
51	0xbd42e3ca	-0.047580518
52	0xbdace462	-0.08441998
53	0xbe846a77	-0.25862476
54	0xbe87ff5c	-0.2656201
55	0xbe9dad8e	-0.30796474
56	0xbe239fe0	-0.15978956
57	0xbe578967	-0.21048509
58	0xbe7e25ca	-0.24819103
59	0xbea4b0c8	-0.32166123
60	0xbe46d17f	-0.19415854
61	0xbe3d6536	-0.1849564
62	0xbe9d2e4c	-0.30699384
63	0xbdc2519d	-0.09488223
64	0xbdbadea0	-0.091244936
65	0xbd0dac0d	-0.03458791
66	0xbe9814e9	-0.29703453
67	0x3e1d9024	0.15387017
68	0xbdd20fa5	-0.1025689
69	0x3d002d79	0.031293366
70	0xbe8f5e9a	-0.28001863
71	0x3d33d50b	0.043904345
72	0x3d7eafb6	0.06217929
73	0xbd498d21	-0.049206857
74	0xbdefbc2f	-0.11705815
75	0xbeb26885	-0.34845367
76	0x3d985ce7	0.07439595
77	0xbe6c4ccc	-0.2307617
78	0xbe83e521	-0.2576075
79	0xbc8ade71	-0.016951771
80	0xbd2215ee	-0.039571695
81	0xbc901a14	-0.01759056
82	0xbe85f94c	-0.2616676
83	0xbe06351a	-0.13106194
84	0xbe907e26	-0.28221244
85	0x3c41e400	0.011834145
86	0xbe7bf813	-0.24606352
87	0xbe5a4033	-0.21313553
88	0xbdc1ab0d	-0.094564535
89	0xbd8a8fe9	-0.0676573
90	0xbdd3b338	-0.10336918
91	0x3be1e7e1	0.006894097
92	0xbb0fca07	-0.0021940486
93	0xbdcec393	-0.100958966
94	0xbd685516	-0.05672177
95	0xbe311c55	-0.17295964
96	0x3d46dbe6	0.048549555
97	0xbd2574ec	-0.04039471
98	0xbdf34b8f	-0.11879646
99	0xbdbfc614	-0.09363952
100	0xbd78f084	-0.06077625
101	0xbd12e9d8	-0.035867542
102	0xbeaa7fa3	-0.33300504
103	0x3cea07e7	0.028568221
104	0xbc3a2e97	-0.011363647
105	0xbe8a4a48	-0.27009797
106	0xbeae4289	-0.34035137
107	0xbe66f70a	-0.22555175
108	0xbeb47a32	-0.35249478
109	0xbe029b45	-0.12754543
110	0xbd1d9523	-0.038472306
111	0xbe18f12f	-0.14935754
112	0x3d4a74d9	0.04942784
113	0x3c2ca249	0.010536739
114	0xbe914a79	-0.2837713
115	0xbc2ef583	-0.010678652
116	0xbe445d0b	-0.19176118
117	0xbdec3527	-0.115335755
118	0xbe4a6d90	-0.19768357
119	0x3daf36e1	0.08555389
120	0xbd5b9181	-0.05360556
121	0xbe2a5163	-0.16632609
122	0xbe701c48	-0.23448288
123	0xbe10dee1	-0.14147522
124	0xbdee1587	-0.116252
125	0xbdfbeb14	-0.12300697
126	0xbe67bf99	-0.22631682
127	0xbe1c05fa	-0.15236655
128	0x3d66b1c6	0.05632188
129	0xbde76bfb	-0.112998925
130	0xbd9d4fd4	-0.07681242
131	0xbe87e7ef	-0.2654414
132	0xbe74d076	-0.23907647
133	0xbcb5999b	-0.022167971
134	0xbc974f4c	-0.018470429
135	0xbe7f6cd6	-0.24943861
136	0xbd0e040c	-0.03467183
137	0xbcefe7b5	-0.029285291
138	0xbd798914	-0.060921744
139	0xbe131443	-0.14363198
140	0xbe03da93	-0.12876348
141	0xbe82f5f5	-0.25578275
142	0xbd052a9d	-0.032511342
143	0xbe45fc8f	-0.19334625
144	0xbef76d26	-0.4832546
145	0xbdf28753	-0.11842217
146	0x3ce079ae	0.027401771
147	0xbe826bec	-0.25472963
148	0x3d9e7395	0.07736889
149	0xbe1b1bd5	-0.15147336
150	0x3bfdbaac	0.0077432003
151	0xbce81102	-0.028328422
152	0xbd8b03ee	-0.06787859
153	0xbeaf6d76	-0.342632
154	0xbe1a89b8	-0.15091598
155	0xbe9516f0	-0.29119062
156	0x3dab2236	0.083561346
157	0xbc2d2e55	-0.010570128
158	0xbd699735	-0.057028968
159	0xbea9b945	-0.33149162
160	0xbe62855f	-0.2212119
161	0xbe6819b6	-0.22666058
162	0x3d81c3a0	0.06336141
163	0xbe1e6a8e	-0.15470335
164	0xbd0e2c87	-0.034710433
165	0xbea65e23	-0.32493696
166	0xbe2aa888	-0.16665852
167	0xbe1f84b1	-0.15577962
168	0xbe24bb95	-0.16087182
169	0x3d565a6c	0.052332327
170	0xbe8d9e24	-0.27659714
171	0xbdd6b3af	-0.10483491
172	0xbdeebb2a	-0.116567925
173	0xbe4ffccb	-0.20311277
174	0xbe8aabeb	-0.27084288
175	0xbdb7d171	-0.08975495
176	0xbd5400f7	-0.051758733
177	0xbe1ee7a1	-0.15518047
178	0x3cb68aab	0.022282919
179	0xbeb54645	-0.35405174
180	0xbe0ceb05	-0.13761528
181	0x3d5aefd1	0.053451363
182	0xbe9c0a91	-0.30476812
183	0xbd8e6d83	-0.069544815
184	0xbe524e7b	-0.2053775
185	0x3d592e98	0.05302295
186	0xbe30b7cd	-0.17257614
187	0xbe2e55a6	-0.1702486
188	0xbe2b3e57	-0.16723
189	0xbe10bd18	-0.14134634
190	0xbdc06954	-0.0939509
191	0xbe45899b	-0.19290774
192	0xbd6d36e1	-0.057913665
193	0xbe0f4455	-0.1399091
194	0xbe87b8e1	-0.2650824
195	0xbd3e718b	-0.046495
196	0x3d3b1919	0.045678232
197	0xbdb46940	-0.08809137
198	0xbc563fe4	-0.013076756
199	0xbbb48fcd	-0.0055103065
200	0xbe93024d	-0.28712693
201	0x3c50cc9c	0.012744095
202	0xbe58762b	-0.21138828
203	0xbda4c594	-0.080454975
204	0x3e02bfb5	0.12768443
205	0x3d864ea4	0.06557968
206	0x3d87493c	0.06605765
207	0xbe3c06a3	-0.18361907
208	0xbe77f5e1	-0.24214889
209	0xbe759070	-0.2398088
210	0xbdbe3edb	-0.092893325
211	0x3d862d6d	0.06551633
212	0xbe790c1b	-0.24321024
213	0xbcf651c5	-0.030068288
214	0xbe37f2ba	-0.17963687
215	0xbe085c8a	-0.13316551
216	0xbe1f18b4	-0.15536767
217	0xbdc4da8d	-0.09611998
218	0x3d6d4f8b	0.057937186
219	0xbe4800fa	-0.19531623
220	0xbdd6abf0	-0.10482013
221	0xbe9be3bc	-0.30447185
222	0x3c7b0a6b	0.015322308
223	0xbd84103a	-0.064484075
224	0xbe2e86fe	-0.17043683
225	0xbea3f093	-0.3201948
226	0xbe45d5af	-0.19319795
227	0xbec36f14	-0.38170683
228	0x3dc80250	0.09766066
229	0x3dfe7406	0.124244735
230	0xbe48a82b	-0.19595401
231	0xbdc7e507	-0.097604804
232	0xbe8fae2a	-0.28062564
233	0xbdff81c5	-0.124759234
234	0xbdad8717	-0.08473032
235	0xbe4e2ffd	-0.20135494
236	0xbe8fc86e	-0.28082603
237	0x3d293b90	0.04131657
238	0x3cc44c5b	0.02396219
239	0xbe3ab701	-0.18233873
240	0xbe1eb97d	-0.15500446
241	0xbe852ed4	-0.2601229
242	0xbdaa0b20	-0.08302903
243	0x3df9775f	0.12180971
244	0xbd7d5ea3	-0.06185783
245	0x3da09938	0.07841724
246	0xbe8f6f15	-0.28014436
247	0xbd2be597	-0.041967
248	0xbe5c06fc	-0.2148704
249	0xbe889d1a	-0.2668236
250	0xbd0aa527	-0.033848908
251	0xbe8f3c72	-0.27975804
252	0xbe9068a8	-0.28204846
253	0x3dfe748c	0.12424573
254	0x3cfa2deb	0.030539474
255	0x3d91628b	0.07098874

bn1.weight f4 [400]
0	0x3f81bfa1	1.0136606
1	0x3ec4b0bd	0.3841609
2	0x3f4bb29b	0.79569405
3	0x3f98e925	1.194615
4	0x3f6a6ac9	0.9156919
5	0x3f149149	0.5803419
6	0x3f59b517	0.85041946
7	0x3f24aa4d	0.6432236
8	0x3f5135eb	0.817229
9	0x3f4424a5	0.76618415
10	0x3eaf1731	0.3419738
11	0x3f26f9b8	0.6522479
12	0x3f411717	0.7542586
13	0x3f1f2a30	0.6217375
14	0x3f6c672a	0.92344916
15	0x3f217a4e	0.6307725
16	0x3eec5a28	0.46162534
17	0x3e9413a2	0.2892123
18	0x3f05f224	0.523226
19	0x3f4b6f54	0.7946675
20	0x3f4eb59e	0.80745876
21	0x3f4ae6d0	0.7925844
22	0x3f4b08c4	0.7931025
23	0x3efadfc9	0.4899886
24	0x3f910572	1.1329787
25	0x3f4748f3	0.77845687
26	0x3f12f321	0.57402235
27	0x3f2c9a54	0.67422986
28	0x3f006137	0.5014834
29	0x3f21234b	0.6294448
30	0x3f316d31	0.6930724
31	0x3f3a1430	0.72687054
32	0x3ef6f37e	0.48232645
33	0x3f0fd2bb	0.56180924
34	0x3f3eec99	0.7457977
35	0x3f0188cb	0.50599355
36	0x3f3f3a39	0.74698216
37	0x3ef9d876	0.4879796
38	0x3f16b8e6	0.5887588
39	0x3f129ee9	0.5727373
40	0x3f226805	0.6343997
41	0x3f39d947	0.72597164
42	0x3f23e6c9	0.64024025
43	0x3f1a47f2	0.6026603
44	0x3f0fd499	0.56183773
45	0x3e8421f8	0.25807166
46	0x3e7e26dc	0.24819511
47	0x3f6bc6af	0.9210004
48	0x3edcfc69	0.43161324
49	0x3efc8666	0.49321288
50	0x3f2170d5	0.63062793
51	0x3f00f9ec	0.5038135
52	0x3f3a749f	0.728342
53	0x3f091e5b	0.53561944
54	0x3f2446da	0.6417061
55	0x3f99243e	1.1964185
56	0x3f1ce9a2	0.61293995
57	0x3f17ed15	0.59346133
58	0x3f3bef28	0.734118
59	0x3f35e120	0.7104664
60	0x3f102f25	0.56321937
61	0x3ef98173	0.48731574
62	0x3f884150	1.0644932
63	0x3f30bbe4	0.690367
64	0x3f33a162	0.70168126
65	0x3f443763	0.76647013
66	0x3ecf05a3	0.40433988
67	0x3f65a3f2	0.89703286
68	0x3e27eaaf	0.16398118
69	0x3f6aa4bd	0.9165762
70	0x3f28e8c9	0.659802
71	0x3f891e60	1.0712395
72	0x3f72d8e5	0.94862205
73	0x3f451f6a	0.7700106
74	0x3f86e2f3	1.053801
75	0x3f2a1aae	0.6644696
76	0x3f273012	0.65307724
77	0x3fcb9872	1.5905898
78	0x3f1ba5e1	0.60799986
79	0x3ed87e17	0.422837
80	0x3f0b3a3c	0.54385734
81	0x3f6564ad	0.89606744
82	0x3f23ae03	0.63937396
83	0x3f28d762	0.6595365
84	0x3f1aea5e	0.60513866
85	0x3f273f13	0.6533062
86	0x3f1e6815	0.61877567
87	0x3f25ae3a	0.64718974
88	0x3ec566e0	0.3855505
89	0x3f2da034	0.67822576
90	0x3eefb4f1	0.46817735
91	0x3f916d88	1.1361551
92	0x3f275967	0.6537079
93	0x3f3e0c8f	0.7423791
94	0x3edfc2c8	0.43703294
95	0x3f0203a3	0.507868
96	0x3ef9894a	0.48737556
97	0x3f0716ce	0.5276917
98	0x3f1096de	0.56480205
99	0x3f76cb66	0.9640411
100	0x3f05371a	0.52037203
101	0x3f36f693	0.7146999
102	0x3f09e033	0.53857726
103	0x3f272df6	0.65304506
104	0x3f5b1f90	0.85595036
105	0x3f6708ac	0.9024761
106	0x3f253350	0.6453142
107	0x3fabbb2d	1.3416497
108	0x3f2d61cf	0.6772737
109	0x3f3c9ce4	0.73676896
110	0x3f199e81	0.6000748
111	0x3f0b9b85	0.5453418
112	0x3f80ab33	1.0052246
113	0x3f169462	0.58820164
114	0x3f090682	0.53525555
115	0x3f5af2d8	0.855268
116	0x3f59587b	0.84900635
117	0x3f120751	0.57042414
118	0x3ef34b0e	0.475182
119	0x3f28ee4d	0.6598862
120	0x3f06168c	0.52378154
121	0x3f1af846	0.60535085
122	0x3f9e52a5	1.2368971
123	0x3f1ed7bf	0.6204795
124	0x3f9f2398	1.2432737
125	0x3f82e62a	1.022649
126	0x3f3549f4	0.7081597
127	0x3f71edcc	0.94503474
128	0x3f445390	0.76690006
129	0x3f7a3422	0.977358
130	0x3ecede83	0.40404138
131	0x3e8ebb71	0.2787738
132	0x3f00d290	0.5032129
133	0x3ed2d271	0.4117618
134	0x3f29eb75	0.66374904
135	0x3edaba7a	0.42720395
136	0x3f3aad69	0.7292085
137	0x3f1e3179	0.6179424
138	0x3efa2d55	0.4886271
139	0x3f3966cc	0.7242248
140	0x3f5361f1	0.8257132
141	0x3f3e5523	0.7434866
142	0x3f356449	0.7085615
143	0x3f990ec8	1.1957636
144	0x3e5ad69f	0.21370934
145	0x3f4d8b70	0.8029089
146	0x3f1f7c71	0.6229926
147	0x3f16a469	0.5884462
148	0x3f4bf744	0.7967417
149	0x3f21bf58	0.6318259
150	0x3f3c87e3	0.73644847
151	0x3f0b99e2	0.5453168
152	0x3f3dd5dd	0.74154454
153	0x3f37eb29	0.718432
154	0x3f8a44f7	1.0802296
155	0x3f360748	0.7110486
156	0x3f3d45ca	0.73934615
157	0x3f24c2c8	0.6435971
158	0x3f52177d	0.8206709
159	0x3f6ebc4e	0.9325608
160	0x3f5335f8	0.82504225
161	0x3ee3acfb	0.4446791
162	0x3f5a2ca1	0.8522435
163	0x3ed4ad44	0.4153844
164	0x3f2283f7	0.6348261
165	0x3efaa441	0.4895344
166	0x3f732925	0.94984657
167	0x3eee7e0e	0.46580547
168	0x3f313a05	0.69229156
169	0x3eaed7c3	0.34148988
170	0x3f86b024	1.0522504
171	0x3f2adaf4	0.66740346
172	0x3f37319f	0.7156009
173	0x3f3edcda	0.7455574
174	0x3f06171c	0.5237901
175	0x3f4de50b	0.80427617
176	0x3f89d0b3	1.0766815
177	0x3f3d6eca	0.73997176
178	0x3f08c115	0.5341962
179	0x3f3d6aad	0.739909
180	0x3f21133f	0.6291999
181	0x3ec1c93c	0.37848842
182	0x3f3ffc84	0.74994683
183	0x3f26b569	0.6512056
184	0x3eb4986a	0.35272533
185	0x3f7f1dc3	0.9965479
186	0x3f600a11	0.8751536
187	0x3f268046	0.6503948
188	0x3f472df0	0.7780447
189	0x3f25a215	0.6470044
190	0x3ec98aa3	0.39363584
191	0x3f6a41df	0.9150676
192	0x3f7d9d17	0.99067825
193	0x3eaa79e7	0.3329613
194	0x3f42c6d7	0.76084656
195	0x3f28e0d2	0.6596805
196	0x3f435916	0.7630781
197	0x3f3d36cd	0.73911744
198	0x3f66614c	0.89992213
199	0x3f1b77a2	0.6072942
200	0x3f1eb10b	0.61988896
201	0x3f7dc2e6	0.99125516
202	0x3f07d6b0	0.5306196
203	0x3f3b572b	0.7317988
204	0x3f81caaa	1.0139973
205	0x3f3d9dd0	0.7406893
206	0x3f9e48e5	1.2365996
207	0x3e906346	0.2820074
208	0x3ecbfdb5	0.39842
209	0x3f05bccc	0.52241206
210	0x3f48cc93	0.78437155
211	0x3f5cd525	0.8626273
212	0x3f6c93e1	0.92413145
213	0x3f32cecd	0.698468
214	0x3ec4243e	0.383089
215	0x3f43711f	0.76344484
216	0x3f8a36d4	1.0797982
217	0x3ee63f82	0.44970328
218	0x3e968838	0.29400802
219	0x3f131ba1	0.57464033
220	0x3f66563c	0.89975333
221	0x3f11bf97	0.5693297
222	0x3f579c46	0.8422283
223	0x3f6f75c5	0.9353908
224	0x3f4bb0f6	0.79566896
225	0x3f0ecfc7	0.55785793
226	0x3f063d34	0.5243714
227	0x3f469261	0.77567106
228	0x3f280247	0.65628475
229	0x3fb31eac	1.3993735
230	0x3eae2873	0.34015235
231	0x3fc1a86a	1.5129521
232	0x3ead4073	0.33838233
233	0x3f399ee3	0.72508067
234	0x3f5650c6	0.83717
235	0x3f045c72	0.5170356
236	0x3f638cc3	0.8888666
237	0x3f86681a	1.0500519
238	0x3f87fa5c	1.0623279
239	0x3f28d285	0.6594623
240	0x3f19c02b	0.6005885
241	0x3f15177f	0.5823898
242	0x3ee3820b	0.44435152
243	0x3f6cb10f	0.9245767
244	0x3f5d0e89	0.86350304
245	0x3f5992a5	0.84989387
246	0x3f4fd6f3	0.8118736
247	0x3ef62d19	0.48081282
248	0x3ee24eed	0.4420084
249	0x3f440d10	0.7658243
250	0x3f6b6cb3	0.91962737
251	0x3f2d28ce	0.6764039
252	0x3ee9b9e5	0.4564964
253	0x3f1ba5d2	0.60799897
254	0x3f89df99	1.0771362
255	0x3f435be0	0.76312065

bn1.bias f4 [400]
0	0x3e4b57e5	0.19857748
1	0xbe45b3b4	-0.19306833
2	0x3e1b911d	0.15192075
3	0x3ea8207c	0.32837284
4	0x3e590401	0.21192934
5	0x3dd28ff7	0.10281365
6	0xbdef22fb	-0.11676594
7	0x3e79d8c1	0.24399091
8	0xbd48ae10	-0.048994124
9	0xbc4d9ba2	-0.012549313
10	0x3c275469	0.010212996
11	0x3dea66b3	0.114453696
12	0x3de8e778	0.11372274
13	0x3ccbb350	0.024865776
14	0x3dac2138	0.084047735
15	0x3e07aefb	0.13250344
16	0x3e1164ef	0.1419866
17	0x3d35436c	0.04425375
18	0xbebb8616	-0.36625737
19	0x3d912ac5	0.07088236
20	0x3e04e39d	0.12977453
21	0x3ebda241	0.37037852
22	0x3e0277a8	0.12740958
23	0x3d40e79c	0.04709588
24	0x3ed3ac9f	0.41342637
25	0x3ba1731e	0.004927053
26	0x3d1f21ee	0.038850717
27	0x3d08a610	0.033361495
28	0x3d54401d	0.051818956
29	0x3e134c12	0.14384487
30	0x3b0ef7fd	0.0021815293
31	0x3d90e230	0.07074392
32	0x3e8ee972	0.2791248
33	0x3d26f265	0.04075851
34	0x3d94616c	0.07245144
35	0xbb8087b2	-0.003922426
36	0x3ea54129	0.32276276
37	0x3e9fb0ab	0.31189474
38	0xbd35dd4e	-0.044400506
39	0xbbd88fb7	-0.006608929
40	0xbd0dcf00	-0.03462124
41	0x3e994620	0.29936314
42	0x3ed842d1	0.42238477
43	0x3bcb2f1f	0.0062006856
44	0x3e94b9d2	0.2904802
45	0xbe7c0c29	-0.24614014
46	0xbe51109b	-0.2041649
47	0x3e072c62	0.13200524
48	0x3d6fe289	0.05856565
49	0x3e8ee57b	0.27909455
50	0xbe33dbd3	-0.17564325
51	0xbcb46bbe	-0.022024032
52	0x3da1c95c	0.078997344
53	0x3c7ec910	0.015550867
54	0xbd2c4bbd	-0.042064417
55	0x3eb81795	0.35955492
56	0x3d9f5397	0.07779615
57	0x3ec23a4c	0.37935102
58	0x3e0e8d24	0.13921028
59	0x3de566a0	0.11201215
60	0xbea93016	-0.330445
61	0x3d351817	0.044212427
62	0x3e07acf1	0.13249566
63	0x3d617b5a	0.055049278
64	0xbdf67c65	-0.12035445
65	0xbd5cd40c	-0.05391316
66	0x3de94670	0.11390388
67	0x3e8c29bd	0.27375594
68	0xbeaf6d07	-0.3426287
69	0xbe239514	-0.15974838
70	0x3defaf39	0.11703343
71	0x3ed9cb74	0.42538035
72	0x3e382081	0.1798115
73	0xbcbbc297	-0.022919936
74	0x3c089d5d	0.0083383
75	0x3d3ef434	0.04661961
76	0x3da2ec02	0.07955171
77	0x3ec4bfa9	0.38427475
78	0x3ced3d5c	0.028959922
79	0x3e840bbd	0.25790206
80	0x3e20829e	0.15674827
81	0xbd84a06d	-0.06475911
82	0xbde80757	-0.11329525
83	0x3dccc0fe	0.09997748
84	0x3d885746	0.06657271
85	0x3dcd3762	0.10020329
86	0x3b8b4c69	0.004251052
87	0xbba0e2c8	-0.004909847
88	0x3d4a47a0	0.049384713
89	0x3d06185b	0.03273807
90	0xbc299bfc	-0.010352131
91	0x3f0eb4b8	0.55744505
92	0x3cf1ada2	0.02950174
93	0xbdd9a4f5	-0.10627166
94	0xbdadcaa9	-0.0848592
95	0xbe3c936d	-0.18415613
96	0x3c3ec9b7	0.011644772
97	0x3e244cdf	0.16044949
98	0x3ea163b5	0.31521383
99	0x3db145f9	0.08655924
100	0xbe3aeb74	-0.1825388
101	0x3e3a04cf	0.18165897
102	0x3e9d6022	0.30737406
103	0x39068ddc	0.00012832083
104	0x3e12a3e7	0.14320336
105	0x3ec5f0ae	0.38660187
106	0x3e2f3ce3	0.1711307
107	0x3f097a96	0.53702676
108	0xbdd059f9	-0.10173411
109	0x3e58340d	0.21113606
110	0xbd99c376	-0.07507984
111	0x3c0b3610	0.008496776
112	0x3e883187	0.26600286
113	0x3c111afd	0.008856532
114	0x3db28f84	0.0871878
115	0x3df3e5c4	0.11909059
116	0x3ea8a655	0.329394
117	0x3ddf28c5	0.10896448
118	0x3da17702	0.07884027
119	0x3d2a48b7	0.041573253
120	0x3c307b4c	0.010771584
121	0xbcb5eba2	-0.022207085
122	0x3ec0d3a2	0.37661463
123	0x3dce1fcb	0.10064658
124	0x3edcd517	0.43131325
125	0x3ea8d877	0.3297765
126	0x3d30b97c	0.04314564
127	0x3e0c590c	0.13705844
128	0x3df2d0a7	0.118562035
129	0x3f07b40d	0.5300911
130	0xbdd46363	-0.10370519
131	0x3c440ef1	0.011966453
132	0x3e62f711	0.22164561
133	0xbd5859a2	-0.052819856
134	0x3e0aa6c1	0.13540174
135	0xbd8dc4f9	-0.06922335
136	0x3e5db541	0.21651174
137	0x3e75aaab	0.23990886
138	0x3f0716f4	0.527694
139	0x3e63b644	0.22237498
140	0xbd2f7a5d	-0.042841304
141	0x3d4596a8	0.04823938
142	0x3ebc0e65	0.36729732
143	0x3f14fd6a	0.5819918
144	0xbc719624	-0.014745269
145	0x3e37d8ea	0.1795384
146	0x3e41269b	0.18862383
147	0x3e88dfe4	0.26733315
148	0x3e8a4a0c	0.27009618
149	0xbe903062	-0.28161913
150	0xbdcafdca	-0.09911688
151	0x3e2ef967	0.17087327
152	0xbdc52a85	-0.096272506
153	0x3d8ad79a	0.06779404
154	0x3d9bd333	0.076086424
155	0x3e7867ed	0.24258395
156	0x3ef89287	0.48549291
157	0xbe7e4b11	-0.24833323
158	0x3e25d015	0.16192658
159	0x3eb26a59	0.34846762
160	0x3d8a5e8c	0.06756315
161	0xbe08bfee	-0.13354465
162	0xbd358fd8	-0.044326633
163	0xbe0038a9	-0.12521614
164	0xbb37360f	-0.0027955805
165	0x3e91e4ff	0.28495023
166	0x3ea8dca1	0.32980826
167	0x3dea6916	0.11445825
168	0x3e517995	0.20456536
169	0xbdd7d85c	-0.10539314
170	0x3e0ee3be	0.13954064
171	0x3ea91b49	0.3302863
172	0x3e5c9491	0.21541049
173	0x3e8e2130	0.27759695
174	0x3d20fca0	0.039303422
175	0x3e24888d	0.16067715
176	0x3ed2c19e	0.41163343
177	0x3d9ccda6	0.07656412
178	0xbc3bf3ed	-0.011471731
179	0x3c90a340	0.017655969
180	0x3e68bd79	0.22728528
181	0xbd1ad994	-0.037805155
182	0x3d9808f4	0.07423583
183	0x3c627aa2	0.013823183
184	0x3c15573b	0.009115036
185	0x3e803ce1	0.25046447
186	0x3e17e3ed	0.1483304
187	0x3e252b5d	0.16129823
188	0x3e2eaf47	0.1705905
189	0x3e27b3ba	0.16377154
190	0x3f366aa6	0.7125648
191	0x3e01e9de	0.1268687
192	0x3ee865cb	0.45390162
193	0xbe1f463f	-0.1555414
194	0x3e736e04	0.23772436
195	0x3e01aec7	0.12664329
196	0x3da5a235	0.08087579
197	0x3e41cd92	0.18926075
198	0x3e8beb7d	0.273281
199	0x3e0d39d3	0.1379159
200	0x3e266170	0.16248107
201	0x3e9cb7e9	0.30609062
202	0x3e13dcb4	0.1443966
203	0xbb1b0b30	-0.0023657791
204	0x3e244d84	0.16045195
205	0x3df97d67	0.12182122
206	0xbe345c9a	-0.1761345
207	0xbdb73101	-0.08944894
208	0xbd61394d	-0.054986287
209	0x3d8ec331	0.069708236
210	0x3e52aa02	0.20572665
211	0x3dd3a3e4	0.10333994
212	0x3e2826c9	0.16421045
213	0x3ecd8a50	0.40144587
214	0xbd306039	-0.043060515
215	0xbc4e4eb6	-0.012592008
216	0x3d941e8e	0.0723239
217	0x3ea01268	0.31264043
218	0x3d5f6074	0.054535344
219	0x3caeb57a	0.02132677
220	0xbd316d62	-0.043317206
221	0x3d89d2c0	0.067296505
222	0x3e922ce4	0.28549874
223	0x3e525085	0.20538528
224	0x3e5a1e87	0.21300708
225	0x3d8a1322	0.067419305
226	0x3db7f5ff	0.08982467
227	0x39c64fdf	0.00037825012
228	0x3e731e54	0.23742038
229	0x3ea28c2d	0.3174757
230	0xbebb7979	-0.36616114
231	0x3f17f1a4	0.5935309
232	0xbe901a24	-0.28144944
233	0x3da8a3d8	0.08234376
234	0x3e380241	0.1796961
235	0x3cefa07e	0.029251333
236	0x3e5b47bf	0.21414088
237	0x3cf44eff	0.029822825
238	0x3e2c74a8	0.16841376
239	0x3e9dde17	0.30833504
240	0x3c86ecbe	0.01647031
241	0x3e166b57	0.14689384
242	0xbea7ee10	-0.32798815
243	0x3f1e823a	0.6191746
244	0x3e0ee9b4	0.13956338
245	0x3df41460	0.11917949
246	0x3e0cf909	0.13766874
247	0xbd3f82e6	-0.046755694
248	0xbe4816dd	-0.19539972
249	0xbc8498cd	-0.016186142
250	0x3e4ce2aa	0.2000834
251	0x3d55421f	0.05206501
252	0x3db32058	0.087464035
253	0x3e027167	0.12738572
254	0x3e43a10b	0.19104402
255	0x3dbad20c	0.091220945

bn1.running_mean f4 [400]
0	0x3e150d23	0.14555793
1	0x3d8f88e1	0.070085295
2	0x3e53f17b	0.20697586
3	0x3d9aa41f	0.07550835
4	0x3d94db94	0.07268444
5	0x3e407019	0.18792762
6	0x3e92018f	0.28516814
7	0x3dc9a991	0.09846795
8	0x3e93b126	0.2884609
9	0x3d1962b7	0.037447657
10	0x3915401f	0.00014233634
11	0x3da62e97	0.08114355
12	0x3d4f6c9d	0.05064069
13	0x3cd70c7f	0.026251076
14	0x3dfe8cf0	0.124292254
15	0x3d620247	0.055177953
16	0x3e0451fc	0.129219
17	0x395d67bc	0.00021114846
18	0x3dc8b354	0.09799829
19	0x3d6c84af	0.057743724
20	0x3d7dea22	0.061990865
21	0x3d8ae3e9	0.06781752
22	0x3d5f215c	0.054475173
23	0x3e7876bf	0.24264048
24	0x3ddc4836	0.10755961
25	0x3e28dd9f	0.16490792
26	0x3e99606b	0.29956374
27	0x3d5dda52	0.054163285
28	0x3e09c16a	0.13452688
29	0x3e3f2ca2	0.1866937
30	0x3e2e2202	0.1700516
31	0x3e5c3d63	0.21507792
32	0x3eb8d650	0.36101007
33	0x3dc5ee9c	0.09664652
34	0x3dd2739f	0.10275959
35	0x3ae9ad0d	0.0017828062
36	0x3f29743b	0.6619298
37	0x3e24e281	0.1610203
38	0x3dc7fc6d	0.09764943
39	0x3e0fff37	0.140622
40	0x3e854fbe	0.260374
41	0x3db3d778	0.08781332
42	0x3ee083d2	0.4385057
43	0x3d4ad797	0.04952201
44	0x3eaf2cd1	0.3421388
45	0x3da18205	0.078861274
46	0x3e7b4459	0.24537791
47	0x3d837468	0.06418687
48	0x3d38de4e	0.04513388
49	0x3e1db8a0	0.1540246
50	0x3e20b780	0.15695
51	0x3e171bf0	0.14756751
52	0x3df02df2	0.117275134
53	0x3e0e1a33	0.13877182
54	0x3e1909dd	0.14945169
55	0x3d5167a3	0.051124226
56	0x3d3d16f7	0.04616448
57	0x3e91f5eb	0.28507933
58	0x3dd23f53	0.102659844
59	0x3d1789cc	0.036996648
60	0x3d96dc3f	0.07366227
61	0x3e77a376	0.24183449
62	0x3dfd8d2c	0.12380442
63	0x3d19b160	0.037522674
64	0x3defe325	0.11713246
65	0x3dd5dc5b	0.1044242
66	0x3f267042	0.6501504
67	0x3edebc23	0.43502912
68	0x3c882000	0.016616821
69	0x3ed2b49d	0.41153422
70	0x3da92017	0.08258074
71	0x3eeb4b2f	0.45955798
72	0x3d239a4a	0.039942063
73	0x3d81db8d	0.06340704
74	0x3e1c7bac	0.15281552
75	0x3c771d79	0.01508271
76	0x3ed61ad6	0.4181735
77	0x3dff1841	0.12455798
78	0x3e9a8a6f	0.3018374
79	0x3ea06f67	0.31334993
80	0x3de29fcf	0.11065637
81	0x3df31e95	0.118710674
82	0x3eb8ae0f	0.36070296
83	0x3de26183	0.11053755
84	0x3e922cfe	0.2854995
85	0x3ec6db79	0.3883932
86	0x3df22e89	0.11825282
87	0x3dad1f8a	0.08453281
88	0x3e01291c	0.12613338
89	0x3da2dca0	0.07952237
90	0x3d9db6f2	0.0770091
91	0x3e6a69c7	0.22891913
92	0x3ef2e6f1	0.4744182
93	0x3e24f5cc	0.16109389
94	0x3e769308	0.24079525
95	0x3d85baf7	0.06529801
96	0x3f21f564	0.6326506
97	0x3d7a421d	0.061098207
98	0x3e9dcd0b	0.30820498
99	0x3dec3e13	0.11535277
100	0x3eade545	0.3396398
101	0x3e6aa566	0.22914657
102	0x3cc1df0d	0.02366593
103	0x3e004986	0.12528047
104	0x3e6f4bca	0.23368755
105	0x3ddf5c0e	0.1090623
106	0x3dc87a29	0.09788925
107	0x3e4d5c0f	0.20054649
108	0x3d94c4f8	0.07264131
109	0x3e00cf00	0.12578964
110	0x3e4b48ca	0.19851986
111	0x39470eb9	0.00018983604
112	0x3f0dca73	0.5538704
113	0x3d98e814	0.074661404
114	0x3ea29bdf	0.31759545
115	0x3e360de8	0.17778742
116	0x3e1b381b	0.15158121
117	0x3ead8181	0.33887866
118	0x3e090178	0.13379467
119	0x3e290638	0.16506279
120	0x3e24d298	0.1609596
121	0x3de5ed3a	0.11226888
122	0x3d549053	0.05189545
123	0x3e2605f1	0.16213204
124	0x3de9f2e1	0.114232786
125	0x3e44bb64	0.19212109
126	0x3d1fb70d	0.03899293
127	0x3e5b47e5	0.21414144
128	0x3e052116	0.13000903
129	0x3e6f6634	0.23378831
130	0x3d56d9c1	0.05245376
131	0x3b2d9845	0.0026488465
132	0x3e01281b	0.12612955
133	0x3e23c023	0.15991263
134	0x3d9ded87	0.0771132
135	0x3db02c78	0.08602232
136	0x3ec44b21	0.3833857
137	0x3ee87cea	0.45407802
138	0x3e508f7b	0.20367233
139	0x3e1f9d1b	0.15587275
140	0x3dad4f4c	0.0846239
141	0x3e33725a	0.1752409
142	0x3ddf4dff	0.109035484
143	0x3e178bb6	0.14799389
144	0x00009b73	5.5765e-41
145	0x3e65dce0	0.22447538
146	0x3e8d11e7	0.2755272
147	0x3e5063f3	0.20350628
148	0x3ed87d3d	0.4228305
149	0x3e848728	0.25884366
150	0x3d31ad2b	0.043378036
151	0x3d8ac1e9	0.06775267
152	0x3df7fb2f	0.12108456
153	0x3c7fe56e	0.015618665
154	0x3df9728b	0.121800505
155	0x3e2283a8	0.15870535
156	0x3e601631	0.21883465
157	0x3ecf485a	0.40484887
158	0x3e0b1cdb	0.13585226
159	0x3d942118	0.07232875
160	0x3e3380e3	0.17529635
161	0x3dc8f4f4	0.09812346
162	0x3e9ef748	0.31048036
163	0x3dbb8764	0.09156683
164	0x3e884278	0.26613212
165	0x3db913f6	0.0903701
166	0x3d8e4795	0.06947247
167	0x3d4de5c4	0.05026795
168	0x3e5493aa	0.20759454
169	0x3ed031ed	0.4066309
170	0x3e9e1226	0.3087322
171	0x3e97a4db	0.29617962
172	0x3e245cc0	0.16051006
173	0x3e52356b	0.2052819
174	0x3e4454a6	0.19172916
175	0x3e12822a	0.14307466
176	0x3e7a1e85	0.24425705
177	0x3d13ce83	0.036085617
178	0x3e520ab9	0.20511903
179	0x395eee0e	0.00021260252
180	0x3ed06a42	0.40706068
181	0x3e49385a	0.19650403
182	0x3e0fb3dc	0.14033455
183	0x3da4c8cb	0.08046111
184	0x34588bb5	2.0167393e-07
185	0x3d5e2ea7	0.05424371
186	0x3e2742a3	0.16334014
187	0x3e2040e4	0.15649754
188	0x3e2ef9bd	0.17087455
189	0x3e973040	0.29529
190	0x3e85df79	0.2614706
191	0x3e135eba	0.14391604
192	0x3e474486	0.19459733
193	0x3ef3b0f1	0.47595933
194	0x3d8aab4e	0.06770955
195	0x3e161435	0.14656146
196	0x3e570341	0.20997335
197	0x3e37a5fd	0.17934413
198	0x3e04e94c	0.1297962
199	0x3dcc1cfc	0.09966466
200	0x3dee7622	0.11643626
201	0x3d29fa14	0.04149826
202	0x3ddf8b0a	0.109151915
203	0x3eacccda	0.3375004
204	0x3de26e81	0.11056233
205	0x3e5e82c3	0.21729569
206	0x3eb579d2	0.35444504
207	0x3e9a89c1	0.30183223
208	0x3e3c7c86	0.18406877
209	0x3f034f8d	0.5129326
210	0x3e14eadd	0.14542718
211	0x3ed70d75	0.42002454
212	0x3e6626d8	0.22475755
213	0x3de894e1	0.113565214
214	0x3ce5ec39	0.028066741
215	0x3df258af	0.11833321
216	0x3e1f0eb6	0.15532956
217	0x3ebe5232	0.37172085
218	0x3fc42eaa	1.5326741
219	0x3d48d39e	0.04902994
220	0x3dd46aab	0.10371908
221	0x3e24fe13	0.16112547
222	0x3d6bc4e6	0.057560824
223	0x3d5ca03b	0.053863745
224	0x3eada468	0.33914495
225	0x3d903820	0.07041955
226	0x3e4eebaf	0.20207094
227	0x38053b11	3.176468e-05
228	0x3d9e9612	0.077434674
229	0x3ec5c660	0.3862791
230	0x3e382072	0.17981127
231	0x3e3c5529	0.18391861
232	0x3e707c3a	0.23484889
233	0x3ec8d480	0.39224625
234	0x3e283437	0.16426168
235	0x3d86f2db	0.0658929
236	0x3e75ced4	0.2400468
237	0x3e9db20a	0.30799896
238	0x3d8ba6a5	0.06818894
239	0x3d558417	0.052127924
240	0x3e1bb82e	0.15206978
241	0x3e0dab05	0.1383477
242	0x3e8c7b0f	0.27437636
243	0x3f10e3be	0.56597507
244	0x3ceecd0f	0.029150514
245	0x3d13bf84	0.036071315
246	0x3da5ec40	0.08101702
247	0x3f001970	0.50038815
248	0x3e4ff3f0	0.20307899
249	0x3d842bcc	0.06453666
250	0x3d1fa4b3	0.03897543
251	0x3deee6c3	0.11665108
252	0x3dee591e	0.116380915
253	0x3e0d1a48	0.13779557
254	0x3e161e9d	0.14660116
255	0x3dd05567	0.10172539

bn1.running_var f4 [400]
0	0x3d6ba8ef	0.057534155
1	0x3d0c97ed	0.034324575
2	0x3dad945c	0.08475563
3	0x3c721226	0.014774835
4	0x3cf61cbd	0.030043
5	0x3df3d0cd	0.1190506
6	0x3de7b4b5	0.11313764
7	0x3d2a78d3	0.041619133
8	0x3e6cdc16	0.23130831
9	0x3bf176b9	0.007368889
10	0x3898493b	7.261565e-05
11	0x3d37939b	0.044818502
12	0x3c9a8d1c	0.018866114
13	0x3c15f239	0.009151989
14	0x3d77a922	0.060464032
15	0x3cc1e40a	0.023668308
16	0x3dda4e77	0.10659497
17	0x3873da40	5.8138976e-05
18	0x3d350386	0.044192813
19	0x3ccca86f	0.02498266
20	0x3cf030ac	0.029320084
21	0x3cdff3e3	0.027337974
22	0x3ce07ed3	0.027404225
23	0x3e37f390	0.17964005
24	0x3d4b40be	0.04962229
25	0x3d81b856	0.063339874
26	0x3e31d2b1	0.17365529
27	0x3c785094	0.01515593
28	0x3dbee46b	0.09320911
29	0x3dede1e9	0.116153546
30	0x3dda6aa5	0.10664872
31	0x3e0d4f96	0.13799891
32	0x3e3d2810	0.18472314
33	0x3d2c2c5f	0.042034503
34	0x3d4c96e1	0.049948577
35	0x3ac3d55f	0.0014940909
36	0x3ea26680	0.31718826
37	0x3d17060e	0.03687101
38	0x3d64e2ff	0.055880543
39	0x3daac5eb	0.08338531
40	0x3e1f9f8c	0.15588206
41	0x3d24cf60	0.04023683
42	0x3eb49c3e	0.35275453
43	0x3cb07ad0	0.021542937
44	0x3e924b5a	0.28573114
45	0x3d5a833b	0.053347807
46	0x3e214d60	0.15752172
47	0x3cd435bc	0.025904529
48	0x3c9c2b99	0.019063758
49	0x3d5992d9	0.05311856
50	0x3d8263dd	0.06366704
51	0x3d9c2b40	0.07625437
52	0x3d39cedb	0.04536329
53	0x3e05ffb4	0.13085824
54	0x3d8130a7	0.06308108
55	0x3c744995	0.014910121
56	0x3c9b5753	0.018962538
57	0x3e551e06	0.20812234
58	0x3d84a765	0.064772405
59	0x3c48068c	0.012208592
60	0x3d21f365	0.03953876
61	0x3e333161	0.17499305
62	0x3d40d67f	0.04707956
63	0x3c68be55	0.014205535
64	0x3d8d78c9	0.069078036
65	0x3d1c32b9	0.03813431
66	0x3ec7227c	0.38893497
67	0x3e706aa1	0.23478176
68	0x3bfb74dd	0.0076738433
69	0x3dbfc83c	0.093643636
70	0x3d254740	0.040351152
71	0x3da8102f	0.08206212
72	0x3c4ff5d5	0.012692888
73	0x3c78b21d	0.015179184
74	0x3d98468b	0.0743533
75	0x3b81d786	0.00396246
76	0x3e0a7c84	0.13524061
77	0x3d78fa14	0.060785368
78	0x3e5dbc46	0.21653852
79	0x3e9b0190	0.3027463
80	0x3d44a076	0.04800459
81	0x3d69ccd9	0.057080124
82	0x3e775341	0.24152853
83	0x3d3b1dda	0.045682766
84	0x3e5b1dc4	0.21398073
85	0x3e1b293a	0.15152445
86	0x3dd350b9	0.10318131
87	0x3d26f39e	0.040759675
88	0x3d6d488a	0.057930507
89	0x3d6395c8	0.055562764
90	0x3d10edef	0.03538316
91	0x3dd5530d	0.10416231
92	0x3e997eb7	0.29979488
93	0x3d56087e	0.052254193
94	0x3e2c1337	0.16804205
95	0x3d0d2f29	0.034468804
96	0x3eeb56c6	0.4596464
97	0x3cc08ebc	0.023505561
98	0x3e4b3811	0.19845606
99	0x3d3dc33d	0.04632877
100	0x3e78e71f	0.24306916
101	0x3e20071f	0.15627716
102	0x3c21c7f2	0.009874331
103	0x3d6562ab	0.0560023
104	0x3e288d89	0.16460241
105	0x3d6e6db5	0.058210094
106	0x3d678c16	0.05653008
107	0x3dd80c06	0.10549168
108	0x3d17b5b8	0.037038535
109	0x3d759695	0.05995806
110	0x3dc14ecd	0.09438858
111	0x38d22f7d	0.00010022426
112	0x3d6914a6	0.056904458
113	0x3d1686b3	0.036749553
114	0x3ec2bf35	0.38036504
115	0x3d9bb90f	0.076036565
116	0x3d57120c	0.052507445
117	0x3e8e9138	0.27845168
118	0x3da45567	0.08024102
119	0x3d9bb831	0.07603491
120	0x3df3263e	0.118725285
121	0x3d5f98ea	0.05458919
122	0x3c906ab5	0.017629007
123	0x3dc0e64a	0.09418924
124	0x3d86f57a	0.0658979
125	0x3de1681e	0.11006187
126	0x3c88ff1c	0.016723208
127	0x3dcaadd3	0.098964356
128	0x3d8c1e8f	0.06841766
129	0x3e2287cd	0.15872116
130	0x3ca1157d	0.019663567
131	0x3a2d6de8	0.00066158036
132	0x3db00c8a	0.08596142
133	0x3dcb2df7	0.099208765
134	0x3d2ef232	0.042711444
135	0x3d39e0d5	0.045380432
136	0x3e82908f	0.25500914
137	0x3ec8eb74	0.39242136
138	0x3df218cb	0.11821135
139	0x3dc9d5ae	0.09855209
140	0x3cdc5c45	0.026899466
141	0x3dc9b546	0.09849028
142	0x3d9ab7c4	0.07554582
143	0x3daeb370	0.08530319
144	0x00003d6f	2.2038e-41
145	0x3e038834	0.12844926
146	0x3e174ae1	0.14774658
147	0x3e19b221	0.15009357
148	0x3e40bb3f	0.18821429
149	0x3e0eb947	0.13937865
150	0x3c6b4fd0	0.0143622905
151	0x3d130c68	0.035900503
152	0x3d26e900	0.04074955
153	0x3b9d4da0	0.0048005134
154	0x3dc05046	0.09390311
155	0x3e0b44a7	0.13600408
156	0x3daeaf49	0.08529527
157	0x3e18cfa5	0.1492296
158	0x3d846f8d	0.06466589
159	0x3cf3550a	0.029703636
160	0x3dc49a05	0.095996894
161	0x3d5f3250	0.05449134
162	0x3deefa33	0.116688155
163	0x3cf30ce1	0.029669227
164	0x3de6947b	0.11258789
165	0x3d4915e3	0.04909314
166	0x3cc7c547	0.024386061
167	0x3c8cf583	0.017206913
168	0x3e2c2656	0.16811499
169	0x3ee6bb9a	0.45065004
170	0x3e1061fc	0.14099878
171	0x3e8137c9	0.25237873
172	0x3dbe7211	0.092991
173	0x3e1c1690	0.15242982
174	0x3e182d8e	0.14861128
175	0x3dd7d41a	0.10538502
176	0x3de526f0	0.11189067
177	0x3c8f87fe	0.0175209
178	0x3dfb91d1	0.12283672
179	0x38c4b900	9.380467e-05
180	0x3ee1217b	0.43970856
181	0x3dd10520	0.10206056
182	0x3d86436f	0.06555831
183	0x3cd5dc3b	0.02610599
184	0x34d02a19	3.877365e-07
185	0x3ca83578	0.020533308
186	0x3db1d325	0.08682851
187	0x3dc96b44	0.098349124
188	0x3ddf56bb	0.109052144
189	0x3e62051e	0.22072265
190	0x3e2c8847	0.1684886
191	0x3d9af571	0.075663455
192	0x3daeac65	0.085289754
193	0x3ecce687	0.40019628
194	0x3cf76e98	0.030204102
195	0x3d8a9129	0.06765968
196	0x3dda0131	0.106447585
197	0x3dd596b8	0.10429138
198	0x3d63b2b9	0.055590365
199	0x3d07d278	0.033159703
200	0x3d94fd62	0.072748914
201	0x3c4122f9	0.011788123
202	0x3d7df7fb	0.06200407
203	0x3e5580b4	0.20849878
204	0x3ce04658	0.027377293
205	0x3d8876f7	0.06663316
206	0x3d8c145f	0.06839823
207	0x3e97b7cb	0.2963241
208	0x3dec963c	0.115520924
209	0x3eb733a3	0.35781583
210	0x3d3795a6	0.04482045
211	0x3dfd358a	0.123637274
212	0x3e18b21c	0.14911693
213	0x3d327536	0.043568812
214	0x3c478a81	0.012179018
215	0x3d09a46e	0.033604078
216	0x3d7874b8	0.060658187
217	0x3eaa50dc	0.33264816
218	0x3ed4ce55	0.4156367
219	0x3c754659	0.0149703855
220	0x3cda6a7b	0.026662102
221	0x3e096b6e	0.13419887
222	0x3c9f6308	0.019456401
223	0x3cd14b99	0.025548743
224	0x3e4b0d9d	0.19829412
225	0x3d62367a	0.055227734
226	0x3e12a6f2	0.14321497
227	0x3720c60d	9.5828555e-06
228	0x3d056f8e	0.03257709
229	0x3e778cf6	0.24174866
230	0x3e159002	0.14605716
231	0x3dba1dbd	0.090877034
232	0x3e1c79e4	0.15280873
233	0x3ebc5bbe	0.36788744
234	0x3de3856b	0.11109432
235	0x3d0731db	0.03300653
236	0x3dfb764c	0.12278423
237	0x3d9bdaa2	0.0761006
238	0x3c9b6c54	0.018972553
239	0x3cba15a0	0.02271539
240	0x3daa0b62	0.08302952
241	0x3da8d56d	0.08243833
242	0x3e5e7af1	0.21726586
243	0x3eaba9c7	0.33527967
244	0x3be150f8	0.0068761073
245	0x3c17c95f	0.009264319
246	0x3d6e4bb8	0.05817768
247	0x3e768674	0.24074727
248	0x3e1a2515	0.15053208
249	0x3d0f0bf8	0.034923524
250	0x3c14aa9e	0.009073881
251	0x3d907657	0.070538215
252	0x3d4f1d74	0.050565198
253	0x3d965363	0.073401235
254	0x3d5a73d9	0.053333137
255	0x3d5dec0c	0.05418019

fc2.weight f4 [280, 400]
0	0x3be2a3bf	0.0069164927
1	0x3d2e720b	0.04258923
2	0xbbb1944f	-0.005419291
3	0x3ca1864e	0.019717362
4	0xbe6301ad	-0.22168608
5	0xbdfb7d1c	-0.12279722
6	0x3cca694d	0.024708414
7	0xbf19c472	-0.60065377
8	0xbdaa9496	-0.08329122
9	0xbb019fd7	-0.001977911
10	0x3dde6a42	0.10860111
11	0xbe5f4acd	-0.21805878
12	0x3cd4d2c3	0.025979405
13	0x3deb05a4	0.11475685
14	0x3d321b9e	0.04348337
15	0xbe830d68	-0.25596166
16	0xbc93f1a1	-0.018059554
17	0xbe783ed1	-0.24242713
18	0x3cdc3a8c	0.026883386
19	0x3c9b2303	0.018937593
20	0x3db813c9	0.08988149
21	0xbd787466	-0.06065788
22	0xbde1dc13	-0.11028304
23	0x3c4699d2	0.012121635
24	0x3d4ce6ce	0.0500248
25	0x3d601a85	0.05471279
26	0xbd748b93	-0.05970342
27	0x3d350271	0.04419178
28	0x3e5eca11	0.2175677
29	0x3cb85335	0.022500614
30	0xbe13ac68	-0.14421237
31	0xbe13c4eb	-0.14430587
32	0xbea140b7	-0.31494686
33	0x3e094e78	0.1340884
34	0xbd4bd517	-0.049763765
35	0xbdd547e2	-0.10414101
36	0x3e03720e	0.12836477
37	0xbe07a55d	-0.13246675
38	0xbd3201aa	-0.04345862
39	0x3e02b134	0.1276291
40	0x3e3ad643	0.18245797
41	0xbebe0c2c	-0.3711866
42	0xbe56cdaa	-0.20976892
43	0x3d81f0e9	0.06344778
44	0xbe02ff14	-0.12792617
45	0x3e348bc8	0.17631447
46	0x3e387ccc	0.18016356
47	0xbee7f97e	-0.45307535
48	0x3e14e80b	0.14541642
49	0xbf0b2f02	-0.54368603
50	0x3d514a2e	0.051096134
51	0xbd0dd8a5	-0.034630436
52	0xbcd007ee	-0.025394406
53	0xbd67e3b7	-0.05661365
54	0x3a5c576c	0.0008405361
55	0x3d2ce66c	0.042211935
56	0x3e7fc901	0.2497902
57	0x3c3d949c	0.011571076
58	0xbd3f16bd	-0.046652544
59	0xbe338d50	-0.17534375
60	0x3cfb50c7	0.030678166
61	0xbe43ee19	-0.19133796
62	0x3e2d6e21	0.16936542
63	0xbd7ad26b	-0.061235826
64	0xbdab6b20	-0.08370042
65	0x3cdfa3fd	0.027299875
66	0x3e71abc5	0.23600681
67	0xbd348ede	-0.04408156
68	0x3df0c5c7	0.11756473
69	0xbe41aa16	-0.18912539
70	0xbdb6267d	-0.0889406
71	0x3da9a5a7	0.08283549
72	0xbe07ed4e	-0.13274118
73	0xbeae7f47	-0.3408148
74	0x3e05c12e	0.13061973
75	0xbdec02e3	-0.11523988
76	0x3e03e3f6	0.12879929
77	0x3d72e0a4	0.059296265
78	0x3e8f543d	0.27993956
79	0xbee7793c	-0.45209682
80	0xbdc0084d	-0.09376583
81	0x3db33a56	0.08751361
82	0xbd226ae6	-0.039652728
83	0xbe19920b	-0.14997117
84	0xbe06bf3d	-0.13158889
85	0xbe579374	-0.21052343
86	0xbd51ed6d	-0.051251817
87	0xbe645d2b	-0.22301166
88	0xb998a4a5	-0.0002911437
89	0x3d9f62e1	0.077825315
90	0x3d4d7f76	0.050170384
91	0x3d863ff4	0.06555167
92	0xbd712767	-0.058875468
93	0x3d84a95b	0.064776145
94	0x3dfa3cf7	0.12218659
95	0x3d5744a7	0.052555706
96	0xbdb8c00d	-0.09021006
97	0xbe882de4	-0.26597512
98	0xbe87ad04	-0.26499188
99	0xbd5e1c03	-0.054225933
100	0xbd484dd1	-0.048902337
101	0xbde51d2c	-0.11187205
102	0x3e16899c	0.14700931
103	0xbd986c9b	-0.0744259
104	0x3c603a01	0.013685704
105	0xbed2c667	-0.41166994
106	0xbd24368f	-0.040091094
107	0xbdc6ed1f	-0.09713196
108	0xbe05da46	-0.13071546
109	0xbe1fab41	-0.15592672
110	0xbe929945	-0.2863256
111	0xbddd6936	-0.10811083
112	0x3e91525b	0.28383145
113	0x3e181a57	0.14853798
114	0xbd9597ce	-0.07304345
115	0x3db2e975	0.08735935
116	0x3d955ce7	0.0729311
117	0x3d0ca245	0.03433444
118	0xbdc92613	-0.09821715
119	0xbdae873b	-0.08521887
120	0x3cdd17ae	0.02698883
121	0x3c8c0d3c	0.017096154
122	0xbdc97391	-0.09836496
123	0xbd66c715	-0.056342203
124	0xbe14e791	-0.1454146
125	0xbe2fd73a	-0.17171946
126	0xbcd53e0c	-0.026030563
127	0xbd9e805d	-0.07739327
128	0xbd63369c	-0.055472
129	0xbe99bb7c	-0.30025852
130	0x3e72efed	0.23724337
131	0xbd667fbe	-0.05627417
132	0xbdd532c8	-0.104100764
133	0x3e314d77	0.17314707
134	0x3d1c3e5f	0.03814542
135	0xbdaccfdf	-0.08438086
136	0xbe0a7287	-0.13520251
137	0x3d02782f	0.031852897
138	0xbe7982bb	-0.24366276
139	0x3e459863	0.19296412
140	0xbe0d775c	-0.13815063
141	0x3df61005	0.12014774
142	0xbe1ed9d9	-0.1551279
143	0xbecd3074	-0.4007603
144	0x3e19e348	0.15028107
145	0xbdabd149	-0.08389527
146	0xbe5df6b8	-0.21676147
147	0xbe999be2	-0.30001742
148	0xbc3a1e6e	-0.011359794
149	0x3d8e6a44	0.06953862
150	0xbd2911ec	-0.041276857
151	0x3da7b1bb	0.08188196
152	0x3d215dfe	0.03939628
153	0xbd9c79dd	-0.07640431
154	0x3d2c7c29	0.042110596
155	0xbe1fb856	-0.15597662
156	0xbe4bbf97	-0.19897304
157	0x3d08988d	0.03334861
158	0xbe3f5fd3	-0.18688898
159	0x3daeed81	0.08541394
160	0x3c58473a	0.0132005755
161	0x3e237bb7	0.15965162
162	0x3def4412	0.11682905
163	0xbddc7517	-0.107645206
164	0x3cb3f188	0.021965757
165	0x3d97d970	0.0741452
166	0x3d0c3d18	0.03423795
167	0xbe5d56ed	-0.21615191
168	0xbe05237c	-0.13001817
169	0xbdb8e51f	-0.090280764
170	0xbd2ad567	-0.041707423
171	0xbdc5e29f	-0.09662365
172	0xbe04889f	-0.12942742
173	0x3e12641a	0.14295998
174	0xbc77b64d	-0.0151191475
175	0xbca97c10	-0.02068904
176	0xbe19d0db	-0.15021078
177	0xbc136539	-0.008996301
178	0x3d381b32	0.04494781
179	0xbd9ed4c9	-0.07755429
180	0xbd9767f4	-0.07392874
181	0xbe0db433	-0.13838272
182	0xbcab7cf1	-0.0209336
183	0xbddc5dad	-0.10760055
184	0xbcdf8d9e	-0.027289208
185	0xbe770906	-0.24124536
186	0xbc80406c	-0.015655719
187	0xbd93f9a8	-0.072253525
188	0x3c122b7a	0.008921498
189	0xbe379811	-0.17929102
190	0xbe6b2db2	-0.2296665
191	0xbd19fc13	-0.037593912
192	0xbde06f4f	-0.109587304
193	0xbdd7b913	-0.10533347
194	0xbddbfc00	-0.107414246
195	0xbdcf6a5a	-0.10127707
196	0xbe281b88	-0.16416752
197	0xbe2d6573	-0.16933231
198	0x3e452042	0.19250587
199	0xbe31cc79	-0.17363156
200	0x3ca05851	0.019573363
201	0xbc172bdd	-0.009226766
202	0xbe43eb96	-0.19132838
203	0x3c998064	0.01873798
204	0xbe6e8898	-0.23294294
205	0x3e80c146	0.25147456
206	0xbd54d7b0	-0.051963508
207	0xbc2b9c15	-0.010474225
208	0x3e1f7b67	0.15574418
209	0x3dce6e0b	0.10079583
210	0xbdb99702	-0.090620056
211	0xbd5f46b6	-0.054510795
212	0x3da72ebe	0.08163212
213	0xbe22da09	-0.15903486
214	0x3ecfba24	0.40571702
215	0xbe5bb820	-0.21456957
216	0xbd89876e	-0.06715284
217	0xbe37bc5d	-0.17942949
218	0xbd99bf50	-0.07507193
219	0x3d724efb	0.059157353
220	0xbc4b4510	-0.0124066025
221	0xbe8e85a1	-0.27836326
222	0x3da23f3b	0.079222165
223	0xbea05476	-0.3131444
224	0xbdabefa6	-0.08395319
225	0x3e0625cc	0.13100356
226	0xbe048597	-0.12941585
227	0x3e1af832	0.15133741
228	0xbe05e077	-0.13073908
229	0xbe5e1785	-0.2168866
230	0x3d8e5e61	0.06951595
231	0xbf1df978	-0.61708784
232	0x3ecaaab7	0.3958337
233	0x3c07fb95	0.008299728
234	0xbe67a385	-0.22620972
235	0x3e0c127d	0.13678928
236	0x3dbd9e47	0.09258705
237	0xbea208fe	-0.31647485
238	0x3d9af30e	0.0756589
239	0xbd4ed128	-0.050492436
240	0x3cb7e4fe	0.02244806
241	0xbd7349e4	-0.05939664
242	0x3da86673	0.08222666
243	0xbe25b072	-0.1618059
244	0xbe4495ed	-0.19197817
245	0x3e23c000	0.15991211
246	0x3cf79b7b	0.030225506
247	0xbdf56575	-0.11982242
248	0x3d55f7f1	0.05223841
249	0x3d1056f8	0.03523919
250	0x3cfe3b2d	0.031034077
251	0xbca5fd82	-0.020262484
252	0xbd985f0c	-0.07440004
253	0x3d61d03a	0.05513022
254	0xbeb0873f	-0.34478185
255	0xbe5e3432	-0.21699598
